ESASN_TrainCode/experiment/ESASNS_R4G4F36W64B16g4_BIx3lr8/model/model_latest.pt (torch_old, 978932 bytes, 255 tensors)

sub_mean.weight f4 [3, 3, 1, 1]
00000000: 5276 803f f0b7 debb 0f3e 09bd a48e 01bd
00000010: f25f 893f eef4 aebd a2b7 d03c 607d 11bd
00000020: e8cc 743f
1.0036108 -0.0067968294 -0.03350645 -0.031630173 1.0732405 -0.085428104 0.025478188 -0.035519958
0.9562516

sub_mean.bias f4 [3]
00000000: 1d10 e3c2 e2d5 dcc2 e459 ccc2
-113.53147 -110.41774 -102.17557

add_mean.weight f4 [3, 3, 1, 1]
00000000: 621a 0e3f 5f7e 85bc 1187 d83c 29cd 12bd
00000010: 8c5b 163f 0c25 84bc 63f4 a43a ffc5 34bc
00000020: cc9c 193f
0.55509007 -0.01629561 0.026431592 -0.035840187 0.5873344 -0.016130947 0.001258504 -0.011033534
0.6000488

add_mean.bias f4 [3]
00000000: 8918 e642 a5bb e042 5f6d d142
115.04792 112.36649 104.713615

head.0.weight f4 [36, 3, 3, 3]
00000000: 65ac 58bc b745 0c3b ddf8 88bd 75bc 193d
00000010: 30ee 043e 2326 9d3d 1fbb d5bd 7c31 de3c
00000020: 522b 86bd f0ef 653b f999 dfbd 37c2 453c
00000030: 4e67 2f3d 2f1b 01be 4623 2d3e 3c49 303d
00000040: 9e92 cfbd f88f 013d 5f6e 7cbb 11f0 f13d
00000050: 4ffa 993d fa1f a2bd ad86 06bf 30b1 2b3d
00000060: 7f73 c13d f623 693e ff28 883d afc9 19ba
00000070: afc8 983d 85ea 59ba d4b8 083e c68b 24bd
00000080: 6166 f3bd c481 6a3a 6666 73bd f225 873c
00000090: 1df8 95ba c1ac cabd 9cd8 3dbd 2e31 4d3d
000000a0: 2cd9 973d 6b81 5ebe 4e56 a93d 98cd 503e
000000b0: 85cb 8ebd b6d8 ccbc 9191 ae3d 3078 9c3d
000000c0: 9755 6dbe 9421 0f3e ef45 943d a0e6 093d
000000d0: fc90 21be b227 733c 2f49 333d 9890 60bd
000000e0: ef88 e83c c177 f4bd dcc4 9e3d b7b7 63bd
000000f0: 3575 553d 0a58 1abc 2c4f b93c 6296 88bc
00000100: 97f6 2d3d 8f2e 003b ea15 0dbe 6f5a 7a3e
00000110: 4e52 6dbd c706 43bd b5ce 23bd 52bb be3b
00000120: 6996 293b e4b8 ba39 08e9 47bd 2532 6c3e
00000130: 8f90 9bbe 9eb1 0c3e a349 3abc 980f 913b
00000140: c91e 18bc 94e6 c23c eb7b a7bd f562 7b3d
00000150: 48e2 8a3d 87a6 e5bd a295 5abd d0b7 efbc
00000160: 7191 103e 3ad3 85bb 9029 04bd d7fb 0ebd
00000170: 59e1 afbc 6c74 26be dea2 bb3d fbe8 7c3b
00000180: 8ecc 7d3d 8ee7 a9bc 3ec7 913d 930c 473d
00000190: 47e4 f83d dba3 febd 458f 1abd b108 213e
000001a0: 6607 863d 972b 5d3d 64b2 66be 093b 20bd
000001b0: 2d88 5fbc 117d 2c3e dde4 2d3d 57f4 1dbe
000001c0: 0e23 283e a6ba cdbd 99fa 91bd 156c 4fbd
000001d0: 348a bdba 05da 4e3c f5cf 37be 4cc3 24bd
000001e0: efe2 a23d ce0c 363e 0e1e bebc ea86 293d
000001f0: 6bc3 1cbd 0385 f23b 58b5 353d c8c0 abbd
00000200: 740e 4d3d c16b e53d 5120 9bbe 3380 0a3e
00000210: 4326 893c 3462 8536 e496 b83b 01ed e3bb
00000220: de1b b73d 80d8 debc 1e2c 1ebd a0a0 053f
00000230: 4b2f 47be a758 c53b 2da7 a8be 79d8 103c
00000240: de04 bfbb b005 a5bd 1adb f73c 6d27 23bb
00000250: b36d c1be 8f89 063e 32cb 3c3d 0824 793e
00000260: 423e 0fbd 6d91 3e3d df10 1cbc 94e7 023d
00000270: 5e00 b3bb 34fb 39be af9d c43c a84e 18bd
00000280: 9625 f33d 683d fd3c a080 0fbc 656d 963e
00000290: 9c32 c0bb 8a5d df3d 046e 42be 0e8c 423e
000002a0: 72cb 2cbd 300d 96be 2286 67bd d841 f03c
000002b0: 7e03 bdbd b7bd 643d 664b 31be a10b 52be
000002c0: 4b5c 023e 899e 683c e835 1a3e 2066 8c3d
000002d0: 6e06 42bb e53b 27be 5ac9 e6bc 66e1 20be
000002e0: fe1d 1a3e 317f 1a3e a7b2 0f3d 685d d73c
000002f0: 0b0a 4c3c 754f 65bc b219 823d c46a acbc
00000300: 0cd0 72bd 2e4d a33d 0c0b 71be 50c2 5a3c
00000310: 10ef bb3d 1770 853d 984a cebd 3265 2bbd
00000320: bfb5 dbbd c4cb ee3d da2c c33e d9cf f93d
00000330: 94ed 8a3c 3d63 87be 0d5d b0bd 58a1 e43d
00000340: a7b7 91bb 23d1 073e 7d04 07be 5015 b1be
00000350: 24d5 253e 7557 81bc ac50 143d 52dd f83c
00000360: 9dd6 91bb d346 823e 67d1 c8bc a318 5dbd
00000370: ccd5 153e 9a85 62be 3676 3bbc d766 b4bd
00000380: 7ae7 863b 4c47 383b d6ac fe3d 97f1 9f3c
00000390: 744c 9bbd 10c2 a0bc 340e bb3d 6561 fc3c
000003a0: a3cc 1bbe 71b0 c1bc fe1b 2ebd 8864 61be
000003b0: 178e d7bd a60b 40bc b68d c03e f97b d2bd
000003c0: 0921 13bd 7e38 0e3e 1624 dd3b 2b56 903c
000003d0: 1816 833d 113c 173c f332 3c3d e3ef c2be
000003e0: 1bdd 693e 7b96 ed3d 11e2 54be 52cb 9e3d
000003f0: 9875 60bd 2861 babb a7f2 19bd d45d 31be
-0.013224696 0.0021403858 -0.06688092 0.037533242 0.12981486 0.076732896 -0.10436081 0.027123205
-0.065512314 0.003508564 -0.1091804 0.01207023 0.04282313 -0.12608026 0.16907987 0.04303859
-0.10135387 0.03163144 -0.0038517935 0.11813367 0.07518446 -0.07916255 -0.5254925 0.041917026
0.09445857 0.22767624 0.066484444 -0.000586654 0.07460152 -0.0008312839 0.13351756 -0.04017236
-0.118847616 0.0008945728 -0.059423827 0.016497586 -0.0011441741 -0.098962314 -0.046349153 0.05009573
0.07414469 -0.21729057 0.082684144 0.20390928 -0.06972412 -0.02500568 0.08523858 0.076401114
-0.23177181 0.13977653 0.07239901 0.033667207 -0.15777963 0.014841007 0.043770965 -0.054825395
0.028385608 -0.11936904 0.07752392 -0.055595126 0.05211373 -0.009420404 0.02262076 -0.01667327
0.042471495 0.0019559 -0.13777891 0.2444856 -0.05793982 -0.047613885 -0.039992053 0.00582067
0.0025877005 0.0003561444 -0.04880622 0.23066004 -0.30383727 0.1373963 -0.011370095 0.0044269077
-0.0092846835 0.023791589 -0.08177932 0.06137367 0.06781441 -0.11213403 -0.053365357 -0.029262453
0.14117981 -0.004084018 -0.0322662 -0.034908142 -0.021469759 -0.16255349 0.09161924 0.0038591016
0.061962657 -0.020740297 0.071180806 0.048595976 0.121529154 -0.12433597 -0.03773429 0.15725972
0.0654438 0.05399665 -0.22528988 -0.0391188 -0.013643307 0.16844584 0.04245459 -0.1542524
0.16419622 -0.10045366 -0.07127876 -0.050640184 -0.0014460743 0.012625222 -0.17950423 -0.040225312
0.079534404 0.17778322 -0.02320769 0.04138843 -0.038272303 0.00740111 0.044362396 -0.083863795
0.05006261 0.11202193 -0.30298093 0.13525467 0.016741877 3.975141e-06 0.005633222 -0.0069557433
0.08940862 -0.027202845 -0.038616292 0.5219822 -0.19451635 0.006022531 -0.32940045 0.008840674
-0.0058294376 -0.080577254 0.030255843 -0.0024895326 -0.37779006 0.13138412 0.04609222 0.24330151
-0.034971483 0.046525408 -0.009525507 0.03195913 -0.0054626903 -0.18162233 0.02400097 -0.037184387
0.11872403 0.03091307 -0.008758694 0.29380336 -0.005865408 0.10906513 -0.1898728 0.18998739
-0.042186208 -0.29306936 -0.056524403 0.029328272 -0.09229182 0.05584499 -0.17313918 -0.20512249
0.1273052 0.014197954 0.15059626 0.06855416 -0.0029605883 -0.16331442 -0.028172184 -0.15710983
0.15050504 0.15087582 0.035082486 0.026289657 0.012453566 -0.013995995 0.06352557 -0.021047004
-0.05928044 0.07973705 -0.2353937 0.013351992 0.09176457 0.0651552 -0.100728214 -0.041844554
-0.10728025 0.11659959 0.38120157 0.12197847 0.01695899 -0.264429 -0.08611498 0.111635864
-0.004446942 0.13263373 -0.13185306 -0.34586573 0.16194588 -0.015788773 0.036209747 0.030378971
-0.0044506327 0.2544466 -0.024513913 -0.053978574 0.14632338 -0.22121277 -0.011441758 -0.08808678
0.0041169496 0.0028118668 0.124353096 0.019524379 -0.07582942 -0.019623786 0.091335684 0.03080816
-0.15214781 -0.023643704 -0.042507164 -0.22011006 -0.10525148 -0.011721527 0.37608117 -0.10277552
-0.035920177 0.13888738 0.0067486865 0.017619213 0.064006984 0.00923063 0.045947026 -0.38073644
0.22838251 0.116009675 -0.20789362 0.07753624 -0.054799646 -0.0056878515 -0.037584927 -0.17320949

head.0.bias f4 [36]
00000000: 38c7 6ebf 65f3 d33c 6840 c0bf b263 5dbe
00000010: 8e06 463f 34f2 433e 5e1c 50bf cf2b b1be
00000020: a9c6 1d3f 46ad 0f3f 83d4 da3e 545d 083f
00000030: f022 6cbe ce59 8b3e 6c49 dfbe c052 5d3c
00000040: 6aa1 94be 7c38 443e 5011 b7bf 1171 683d
00000050: 7c52 b6be c8fb 04be e25e 983f 1cb8 21be
00000060: 5c2c 0a3f c37f 62be c458 1b3f a4c9 153f
00000070: fa80 d4bc 628a 9cbe c44a 92bf 6057 7b3f
00000080: 3f67 4a3e bfb8 a13e 7373 243f f1f3 c1be
-0.93272734 0.025872895 -1.5019655 -0.21620062 0.7735375 0.19135362 -0.81293285 -0.34603736
0.61631256 0.5612377 0.4274026 0.5326741 -0.23060203 0.27216953 -0.43610704 0.013508499
-0.290294 0.19162172 -1.4302158 0.056748454 -0.35609806 -0.12986672 1.1903956 -0.15792888
0.5397394 -0.2211905 0.6068232 0.58510804 -0.025940407 -0.30574328 -1.1429067 0.981802
0.19765948 0.31586263 0.6423866 -0.37881425

body.0.body.0.widen.weight f4 [64, 36, 1, 1]
00000000: cc61 02bc c7cb 0cbd 8ce0 2e3e 7956 0c3e
00000010: e00d dabc 3fe9 cc3d 73fd 83bd 051d 953d
00000020: 00c0 403c 0cb5 f63c 26de 133d c562 a9be
00000030: a784 6e3e 475c 133c 64f4 913d 9b42 b13e
00000040: 83d6 7ebe b63b 263e 0a71 02ba 1961 103e
00000050: 584e 1cbe 759d 503e c8cc 653c b293 6dbd
00000060: c79d 45bd d81e f0bb 7806 aabd 27ae b33e
00000070: e738 e8bd f344 c6bd dd85 05be 5529 733e
00000080: 6e6f 5e3e 9471 c43e 91e9 85be fb5c 8a3c
00000090: df5f 9e3d dfa8 953e 5da2 423d d8b4 e63d
000000a0: 2a64 a6bd 50c6 1ebe 26d8 64bb 56d8 e3bd
000000b0: 1c89 093e 87f0 3c3e 94b7 a8ba 12d9 09be
000000c0: 9b1d 23bc db8e 853e 8e28 0cbd 43c9 81be
000000d0: 9946 09be a405 2fbe b151 20be 0509 503e
000000e0: 822b a93c bdaf 28be a571 f9bc f2db 84bd
000000f0: 8f9f 033e a3fb 773e 0a14 b03d f909 b73d
00000100: d917 4a3a 49e2 d33c 736e 9d3d ed24 83bc
00000110: 221e 28bd 114d 2b3e 048b cb3c e54c 22ba
00000120: edd0 ec3c ae5c b03c 3a4e 163e 338b 293d
00000130: 62ed 4a3c c123 bd3d ced4 b0be 1e8e 75bd
00000140: a27b 033b 55b9 acbd 419d ce3d fc8f 44bd
00000150: 2a86 96bd 4de1 603d 8470 72be 7605 363e
00000160: 89e2 8bbe eb53 d93d dc57 bbbd 7cb1 373e
00000170: 4df3 833e 51c4 febc 0d34 44be df57 633d
00000180: 488a 673d 7c3a b2bd a30e 993c 3ed2 8f3e
00000190: 235e 243d 2e5a a73c d143 363d 0242 c63e
000001a0: 7056 993d 3f54 76be 1da8 0c3e e576 29bc
000001b0: 4217 88bd 80ef 363e 0487 973e 8211 c7bb
000001c0: 7570 2f3d eb0d c9bc 1481 913e bb27 c9bd
000001d0: d62a b13e 4d31 febc 8f30 cd3e ed9b 0bbe
000001e0: b282 933d 45fe 8d3d d810 2e3e 4a2b 083e
000001f0: 5247 e73e 11bc 793d 5d02 0fbb e38d 0abe
00000200: 3938 d6bd 9742 ed3c 3feb 503e bd74 8e3e
00000210: b301 90bd 5423 00bd cabb 9d3b 3da2 b7bc
00000220: 819a f2bc d2eb b7bd 568a 39bd 7c37 14bc
00000230: 00f3 d6bb 195f a03b 6d13 9fbd c3c0 823e
00000240: 7b37 983e 27f3 c8bd 6671 a4bb bf42 cdbd
00000250: df6e cdbd 4bf6 e23d bb85 b53d 8743 043e
00000260: 498e 8abe fe43 5abd f6bd 2a3e 7c15 6b3a
00000270: 30bb a53e 0a0d 413e 1f05 0f3e 6234 023d
00000280: ff21 e73d 2b95 413e 18eb 86bd d94d 063e
00000290: aa52 b33c 2130 d63d 7be1 6abd aa20 a6bd
000002a0: 831b a73d 6514 ce3d bfd0 693e a192 a2bd
000002b0: 0324 81be b333 c9bc 1f43 b9bd 154c adbd
000002c0: 2f53 893b 45d1 aa3c c353 1d3e 6986 97bd
000002d0: c22c 483e b8f8 9a3e e157 803d 746a 573e
000002e0: 7b7d b2bc 04e7 173e a8d7 89be f0f1 2bbd
000002f0: 61fa 793e 1816 dfbe 02ac dabe 2289 763e
00000300: 4700 113e 647b 3ebe c0ff 6f3e 9bc5 73bd
00000310: 73fe 36be 24df c1bd cc3f 2f3c e063 16bd
00000320: 4642 253e 3470 0cbe ea2c c93d 2406 c1bd
00000330: 4d71 2c3d bc34 2e3d 21f5 8f3c fe17 91be
00000340: 80e9 be3d 7518 bcbd a981 143e 2a84 b63d
00000350: c869 683c c551 8b3e 3b92 e23d 332c 97bd
00000360: b2db e5be ada2 a6bd 4fbb fe3d c771 35be
00000370: a354 5dbd 7c9e d9be 904f 91bd a413 623e
00000380: e915 b2bc a43b c63e 41db ed3d b0b9 9fbe
00000390: 645e 8abd d451 02be 82de 7ebc d576 8a3b
000003a0: 1963 d83e fcb4 45be 8405 2cbc cce4 a33d
000003b0: dcb9 b9be 3344 debb 7a86 3e3e 15a6 20be
000003c0: 1123 9c3d 88f6 75bc ee9f 783d 1042 a5bd
000003d0: e788 0c3b ce1d 063e 9c4b 04be d83f fe3c
000003e0: 077b ac3e b8f5 0fbe e9ef 703e 54a2 6d3e
000003f0: 0e49 f33b 5399 713e 48a6 f6bd eed7 ecb9
-0.007957887 -0.034374025 0.17077845 0.13704862 -0.026617944 0.10005426 -0.06444826 0.07280926
0.011764526 0.030115627 0.03610053 -0.33083168 0.2329279 0.008994169 0.07126692 0.34621128
-0.24886517 0.16233715 -0.00049759506 0.1409954 -0.15264261 0.20372565 0.014025874 -0.05800218
-0.04824617 -0.0073278956 -0.08302015 0.35093805 -0.11338978 -0.0968112 -0.13039346 0.23746236
0.21722195 0.38367903 -0.2615476 0.01689004 0.0773313 0.292304 0.047518123 0.11264962
-0.081245735 -0.15505338 -0.0034918874 -0.11125247 0.1343121 0.18451129 -0.0012872093 -0.13461712
-0.009955789 0.26085553 -0.034218363 -0.25348863 -0.13405837 -0.17091995 -0.15656163 0.2031594
0.020650629 -0.16473289 -0.030449698 -0.06487264 0.12853836 0.24217086 0.08597572 0.08937449
0.0007709242 0.025864737 0.07687082 -0.016008819 -0.041044362 0.16728617 0.024846561 -0.0006191268
0.028908217 0.021528568 0.14678279 0.041392516 0.012385698 0.09235335 -0.34537357 -0.059949987
0.0020062705 -0.08433787 0.100885876 -0.047988877 -0.073498085 0.054902364 -0.23675734 0.1777552
-0.2732127 0.10611709 -0.09147617 0.17938799 0.2577156 -0.03109947 -0.19160481 0.055503722
0.05652836 -0.08702561 0.018683737 0.2809009 0.04012884 0.020428743 0.04449827 0.38722235
0.0748719 -0.24055575 0.13736005 -0.010343288 -0.06645061 0.178648 0.29595196 -0.006075085
0.042831857 -0.02454277 0.2841879 -0.09822031 0.34602994 -0.031029368 0.4007611 -0.136337
0.072026625 0.06933264 0.16998613 0.13297763 0.451716 0.06097037 -0.0021821477 -0.13530688
-0.10459942 0.028962417 0.2040224 0.2782344 -0.07031574 -0.03128369 0.004813646 -0.022416228
-0.029614689 -0.08980526 -0.045297943 -0.009046432 -0.0065597296 0.004894149 -0.07767377 0.2553769
0.29729828 -0.09812003 -0.005018401 -0.100224964 -0.100309126 0.11082133 0.08863398 0.12916385
-0.2706168 -0.0532875 0.16674027 0.000896774 0.32369375 0.1885263 0.13966797 0.031788237
0.11285781 0.1890456 -0.06587809 0.13115634 0.021890003 0.104583986 -0.05734394 -0.08111699
0.08159544 0.10062484 0.22833537 -0.079381235 -0.25222787 -0.024560785 -0.090460055 -0.08461777
0.0041908245 0.02085174 0.15363984 -0.073986836 0.19548324 0.30267882 0.062667616 0.21036702
-0.02178835 0.14834219 -0.26922345 -0.041978776 0.24411918 -0.43571544 -0.42709357 0.2407575
0.14160262 -0.18601757 0.23437405 -0.059514623 -0.17870502 -0.09466389 0.010696363 -0.036716342
0.16138563 -0.13714677 0.0982302 -0.09424999 0.04210024 0.04253076 0.017572941 -0.28338617
0.0932188 -0.09184352 0.14502586 0.08911927 0.014185376 0.27210823 0.110630475 -0.07381477
-0.44894177 -0.08136497 0.1243807 -0.17719184 -0.054035794 -0.42503726 -0.070952535 0.22077805
-0.021738963 0.38717377 0.11614085 -0.31196356 -0.06756285 -0.12726527 -0.01555598 0.0042255917
0.42263106 -0.19307321 -0.010499362 0.08002624 -0.36274612 -0.0067830323 0.18605986 -0.15688355
0.07623876 -0.015012391 0.060699396 -0.08069241 0.0021443905 0.13097307 -0.12919468 0.031036302
0.33687612 -0.14058578 0.23529018 0.23206455 0.0074244803 0.23593645 -0.120434344 -0.00045174308

body.0.body.0.widen.bias f4 [64]
00000000: 1d55 22bf 2d20 c4be 378d 23bf d19b 343f
00000010: 1678 e93e 9cff 183d 3ad5 0f3f 1e4f d73e
00000020: fd48 053e 8da4 d1be 4317 e2bf 8782 d33e
00000030: d1bd dabd 0114 bc3e 11f1 1dbf ca07 e03e
00000040: 815f 4fc0 9f3c 7f3d 8ad0 31bf b312 1a40
00000050: 201f 2240 0ce9 f23f 59ca 10c0 204b 00bf
00000060: c81d 36c0 8a0b cc3d 43ae 14bf faf5 073f
00000070: 1bf1 a9bf 74bb 8e40 ea41 7840 eb19 fdbf
00000080: 5697 00bf 36c6 1fbe bed4 43bf 9f69 1d3f
00000090: e91d 793f 0c05 02c0 4560 ccbe bbf4 b83d
000000a0: 5b8a 083f 02a1 edbe 33fa efbd 5c00 e43f
000000b0: 4dbe 42bc fd30 93be 7ab0 963f 7dd3 243f
000000c0: 2865 1ebd 492f 4b3f f42a d43f 19dd fcbf
000000d0: c418 fabe a9bf 833d dc1c 2cbf c478 1fc0
000000e0: 68ad b63f 3e20 99be a2a2 f93f b9db 853f
000000f0: 88e5 18c0 3ad4 9cbf 5a75 a5be ed81 36bf
-0.6341112 -0.38305798 -0.6388735 0.70550257 0.4559943 0.037353143 0.5618473 0.4205255
0.13016124 -0.40945855 -1.7663349 0.41310522 -0.10680736 0.36734012 -0.61695963 0.43755943
-3.240204 0.062313672 -0.6945883 2.4073913 2.5331497 1.897737 -2.2623503 -0.5011463
-2.8455677 0.099631384 -0.580784 0.53109705 -1.3276705 4.4603825 3.879023 -1.9773535
-0.5023092 -0.15602955 -0.76496494 0.6148929 0.97311264 -2.031558 -0.39917198 0.09031054
0.53336114 -0.46411902 -0.117176436 1.781261 -0.011886192 -0.28748313 1.1772606 0.64385206
-0.03867069 0.79369026 1.6575608 -1.9754974 -0.4884702 0.06433041 -0.67231536 -2.491746
1.4271669 -0.2990741 1.9502757 1.0457679 -2.3890095 -1.2252266 -0.32316095 -0.71292

body.0.body.0.b1.weight f4 [16, 1, 3, 3]
00000000: 712d 0cbc 0908 bdbc 4a6a 243d 7401 50bc
00000010: ac26 313d 935e 633e 3d3e abb8 8da6 013d
00000020: d632 eb3c b05c 8abd 82ca c7bd 8ecc 03be
00000030: 3d89 06be 348a 19bb b1a0 a2ba 78a0 263c
00000040: 02ff 60bd 08ce adbd 3fa4 b33a 84fe b53b
00000050: 20e4 52bb 5d3d 133d 85af 893e e782 cd3b
00000060: e879 52bb cdaa 723c 52de 433c b90b a23b
00000070: bfe6 a9bc 12bf 693c b343 13bb b7ea 3d3c
00000080: 5a04 33bc 175e 48bd 326b 72be b90a 84bd
00000090: cef4 993b b466 7fbc eb32 3cbb a1fe 623e
000000a0: 058c 6dbd a949 a9bb 4f39 f33d 483b bf3d
000000b0: 30ec cf3b 3e8d 643d 7260 953c d8d2 073c
000000c0: 3dd9 3d3e 38ab 073e 2534 10bd 3ef4 f4bb
000000d0: 8488 943c 8206 8b3c 5616 3abd c714 14be
000000e0: be88 7cbd 4e3e d23b 5766 ddbd 4fc3 aeba
000000f0: 7d39 3d3c 130d cfbc 78b0 043c 8341 aebc
00000100: fd76 d93d 4010 b1bc 63f6 34bd c6dc 8ebc
00000110: 607b 00bd dc8e 6dbd f442 5abe 2818 c43c
00000120: 25e4 ec3b 6548 26bd 218f 94bb e269 ec3c
00000130: 2994 bcbe 5c00 2a3b 6b52 6dbb 0210 0abd
00000140: 41de b4b8 8bb1 db3c d310 20bd a0f8 e53a
00000150: b4b8 a3bd 709f 43be ccfe c0bd b896 2a3d
00000160: 18bc 08bb 76eb 90ba 559a ebbc 7b33 acbc
00000170: d5c2 c73b 5d28 c63d b04c 413e 5553 57be
00000180: 233b e4bb 32f9 883c da49 2fbd d2f9 86bc
00000190: 68c1 79bd 9492 e1bc 39cc 9fbd 0185 3fbd
000001a0: d36b 3fbd 1afd 0ebd 358d 6dbd 1878 0abc
000001b0: d023 413c e6c7 dfbd e3a4 d33c 77a2 78bd
000001c0: bb34 8c3d a657 6abd 1a46 50bd a205 12be
000001d0: 367f abbc c8a6 5bbc 32a2 bb3d 35dd 98bd
000001e0: c9cf c6bb 3479 ab3d 8742 d53d 6678 543c
000001f0: 3292 013d bceb 9ebc 5856 9c3d f7bb f73d
00000200: b123 cc3d 7ecb e7bd 41ee 333d f3f4 13bd
00000210: 7cde 64bc fc3c e13c 467b a2bc 2928 38bd
00000220: 76cc 01bd f685 233b 14c4 10bd ea85 b0be
00000230: 6fca d5bd 6538 5dbc 14fd 6abd f6cb 9ebc
-0.008555756 -0.02307512 0.040140428 -0.012695659 0.04324977 0.22204046 -8.165508e-05 0.031652976
0.028710764 -0.0675596 -0.09755422 -0.12871 -0.1313829 -0.0023428323 -0.0012407509 0.010170095
-0.054930694 -0.08486563 0.0013705565 0.0055540223 -0.003217943 0.035947192 0.26891723 0.0062717083
-0.0032116119 0.01481123 0.011954861 0.004945245 -0.020739911 0.014266746 -0.0022470772 0.011591605
-0.01092633 -0.048917856 -0.23673704 -0.06447358 0.0046983724 -0.015588451 -0.0028716873 0.22167446
-0.05799486 -0.0051662517 0.11876165 0.09337479 0.0063452944 0.05579876 0.018234465 0.008290015
0.18539901 0.13248909 -0.03520598 -0.007475405 0.018131502 0.016970877 -0.045431457 -0.14461051
-0.061653845 0.0064161187 -0.108105354 -0.0013333353 0.011549351 -0.025274789 0.008098714 -0.021271473
0.10618398 -0.021614194 -0.044180285 -0.017439257 -0.03136766 -0.05799757 -0.21314603 0.0239373
0.0072293454 -0.040596385 -0.004533664 0.028859083 -0.36831787 0.0025940156 -0.0036212455 -0.033706672
-8.624467e-05 0.026818058 -0.039078545 0.001754541 -0.07994214 -0.1910379 -0.09423599 0.041647643
-0.0020864066 -0.0011056501 -0.028760115 -0.021020642 0.006096224 0.096756674 0.1887691 -0.21027882
-0.0069650575 0.016720388 -0.04279504 -0.016476545 -0.060975462 -0.027535714 -0.07802624 -0.0467577
-0.04673369 -0.034909345 -0.057995994 -0.008451484 0.0117883235 -0.109267995 0.02583546 -0.060701814
0.06845995 -0.057212494 -0.050848104 -0.14259961 -0.020934682 -0.013406463 0.09161796 -0.07464067
-0.0060672504 0.08372727 0.1041308 0.012968158 0.031633563 -0.019399516 0.07633656 0.12096398
0.09967745 -0.1131811 0.04392839 -0.036122274 -0.01396906 0.0274949 -0.019834172 -0.044960175
-0.03168913 0.0024951673 -0.035343245 -0.34477168 -0.10439002 -0.013502215 -0.05737026 -0.019384366

body.0.body.0.b1.bias f4 [16]
00000000: 473f 2d3b a160 2a3f 6a34 c5be 2d56 653e
00000010: 942b c93d 3c8d cf3e d5b9 393e 0545 a93c
00000020: 348b c0bd 8ea7 da3e f84d 3bbe 5c00 abbe
00000030: 6dad 41bd b6d8 42bc 3183 57be 5337 fcbe
0.0026435421 0.66553694 -0.3851655 0.22396155 0.09822765 0.4053744 0.18137296 0.020662794
-0.09401551 0.4270596 -0.18291461 -0.33398712 -0.047284532 -0.011892488 -0.2104614 -0.4926096

body.0.body.0.b2.0.weight f4 [16, 1, 3, 3]
00000000: 19a3 5a3e c47d cabc 2078 0a3d cc96 51bc
00000010: fa7f 463d caae 7d3c babc 933d 2cdb 10bb
00000020: 0ad9 103c a156 92bb 7482 4b3c 9908 3f3c
00000030: e5e0 a0bc 5862 ea3c ddeb 1b3e fe61 5ebb
00000040: dd19 c738 3f5f bebb 522f a7bb 5103 58bd
00000050: 585d 96bb 6ccf e9bc 0c97 78be 5e93 7fbd
00000060: de9c e23c f0ec 313d 18f5 aa3c a9b4 22bc
00000070: c81c 043c ea3d 913a e182 e33c 5bba 9ebe
00000080: d486 9a3c ae3d 75bc aa25 063d 5c85 fbbb
00000090: 80e4 1d3a 8eb5 c7bd a4dc aebd b868 9cbc
000000a0: 3ea8 273e 018b f9bd 13e5 653b 8c01 8fbd
000000b0: 406b 2abd e8e0 8ebc 9e19 763c 4aba 31bb
000000c0: c97a 08bb 3665 90be 7ae3 86bb 317f d3bb
000000d0: 5de0 daba 9868 c0bb 59ec a4ba 22f8 adbb
000000e0: 1e27 193b e16d f43b b6eb 47be 9f71 c439
000000f0: 8eb4 d3bb c67b 373c 767f 02bc 8f75 12bb
00000100: 0c7f 32bc eeb7 39bb 9c7b db3b 9d57 7abc
00000110: 2ecd 91bb 855c 03bd 48d8 01be eb9e a4bb
00000120: a647 e33c 93ee 09bc 2842 b33c d0b8 c23d
00000130: d975 70bd d1f6 fa3d d298 3a3d 4635 3fbd
00000140: 5476 083d bed3 16bd b155 dc3d b958 cbbc
00000150: 15b9 dd3d a7c0 59be cc02 c33d 8841 39bd
00000160: 295f cc3d 6f26 e6bc cc78 29bd 024b 5a3e
00000170: bba3 aebc d225 d2bb 11dd 6f3c bbe3 71bc
00000180: ecf7 0abc c191 973a 000f f63a e0af 25bc
00000190: 2f7f 8bba 4f78 d9bc 9e39 7b3c 1369 3abd
000001a0: 23c3 8d3e b6d1 41bb 1360 843c 61ae d5bc
000001b0: fb7b 8fbc f865 0e3d d030 9c3c 97ed cb3d
000001c0: 8922 dfbc 8ac1 473d 070f 033c d881 a7bc
000001d0: a62f 773d 576c 463c 2515 85bd 2268 0ebc
000001e0: 6cb9 74bb 14fd a7be e753 21bc 3dd7 1abd
000001f0: 6d22 283c 0a7d 95bc 5796 d9bc c74b 533d
00000200: 12ca fa3b e789 413d 10ad 7dbe 519e a73d
00000210: fa86 3cbb 37f8 8d3d f6db 233d 2fd4 dc3b
00000220: fd04 b83b afab 233c b487 243c e24c 983e
00000230: 68da 003c e9eb f9bb a02b 1d3b 97aa 51bb
0.2135128 -0.024718173 0.033805966 -0.0127923 0.04846189 0.0154835675 0.07213731 -0.0022103293
0.008840809 -0.0044658934 0.012421239 0.011659765 -0.019638488 0.028611347 0.15226693 -0.003393292
9.493877e-05 -0.005809694 -0.0051020766 -0.052737538 -0.004588764 -0.02854129 -0.2427637 -0.0623964
0.02766269 0.04343885 0.020868823 -0.009930768 0.008063503 0.0011081074 0.027772369 -0.31001553
0.01886312 -0.014968319 0.032750763 -0.00767581 0.0006023124 -0.09751426 -0.085381776 -0.019092903
0.16372773 -0.12184716 0.0035079166 -0.06982717 -0.041606188 -0.017441228 0.015020756 -0.0027119094
-0.0020825139 -0.28202218 -0.004116473 -0.0064543714 -0.0016698946 -0.0058718435 -0.0012582644 -0.0053091208
0.0023369263 0.0074593876 -0.1952351 0.00037468688 -0.006460733 0.0111989435 -0.007964959 -0.0022347902
-0.010894548 -0.002833839 0.006698085 -0.015279678 -0.004449508 -0.032070655 -0.12680161 -0.0050238273
0.027744126 -0.008418697 0.021882132 0.095079064 -0.05870614 0.12254108 0.045555897 -0.046681665
0.03331597 -0.036823027 0.10758532 -0.02482258 0.10826317 -0.21264897 0.09522018 -0.04522851
0.09979088 -0.028094498 -0.041374967 0.21317676 -0.021318307 -0.0064132 0.014640109 -0.014763768
-0.008481961 0.0011563824 0.0018772781 -0.010112733 -0.0010642762 -0.026546625 0.015333561 -0.045510363
0.2768794 -0.002957446 0.016159093 -0.026084127 -0.017515173 0.034765214 0.019066244 0.09957426
-0.027238147 0.048768558 0.007999188 -0.020447657 0.060348175 0.012110791 -0.064981736 -0.008691819
-0.0037341965 -0.3281027 -0.009846664 -0.037802923 0.010262114 -0.0182481 -0.026560945 0.05158594
0.007653483 0.047250655 -0.2477305 0.08184493 -0.0028766976 0.06932109 0.040004693 0.0067391614
0.005615829 0.009989663 0.01004212 0.29746157 0.007864572 -0.0076269996 0.0023982301 -0.0031992549

body.0.body.0.b2.0.bias f4 [16]
00000000: 8224 d4bf ef3f 473f 3183 9a3f e5ab b4bf
00000010: 740f 1cc0 cd15 62bf e0b6 3840 0a24 cf3f
00000020: b3ea 183d 0ed0 91be 49e1 38bf f9c3 b03f
00000030: 3900 a7be 919f 7fc0 1a4b 8cbe 2da3 9cbf
-1.6573641 0.7783193 1.2071286 -1.4114958 -2.4384432 -0.88314515 2.8861618 1.6182873
0.0373332 -0.28479046 -0.7221876 1.3809806 -0.32617357 -3.9941142 -0.27401048 -1.2237297

body.0.body.0.b3.0.weight f4 [16, 1, 3, 3]
00000000: 1434 0fbb ce2e a63b a775 f7bc a422 b43a
00000010: db08 bdbb 42aa 613e f307 4bbb 810d 10bc
00000020: ea92 073d 4c25 efbb dc0e 52bc 8cad 263d
00000030: 4162 0bbd 61ea cdbd 6f3f 7dbd 0018 bd3c
00000040: 621e 5fbd 9a84 a4bc 6776 743d 9f91 4f3d
00000050: dc6d 263d 71ff 203b a9fb f63d 141f 423d
00000060: 0ca1 143d bd52 dc3c b8f5 f83c ac68 283d
00000070: 24bb b4bd b817 133a ab29 103e 9685 1bbe
00000080: 9c6f 8a3c bed7 403d 6c45 0c3c 0421 56bc
00000090: d6f1 d3bc 0589 343d 9900 3b3d 502d 4339
000000a0: 71d0 51be 4b97 9cbb 3c09 593d d8db 9f3d
000000b0: a7c1 01bd 26a8 d63d f398 02bd 966b 513d
000000c0: 6613 b5bc 095d f2bc eec3 82bc fa64 3e3c
000000d0: 748c 8cbb 8371 173d 643f 523e 36d1 e53c
000000e0: 1dee 8b3b c679 80be b77d 1cbe c750 973c
000000f0: d4dd f63b 0cf3 913c aa34 01bc 9eaf 19bd
00000100: 4ffc b53c 1d9c 9dba 5e66 c73c 2be7 2e3e
00000110: 6cc4 2d3d f6ab d9bb 51f8 4a3d a3d8 163c
00000120: e70f 2abe 6145 84bd 4709 a0bb 7bb6 0d3e
00000130: df3e a33d 13ab 0e3c 4d3d 9bbc ac98 6f3c
00000140: a162 24bc cfd0 a7bc c79f 1e3d 8ca6 77bd
00000150: d8df 64bc 037a e73c f927 b0bc 8de6 e6bb
00000160: 3028 183d cfaf b2bd 3a93 d2bb 57b4 6b3d
00000170: 746a 893c 897e 5a3d 592b d33e 6a84 b53c
00000180: 150e 33bd 191e f4be bf3a 03bd b916 4d3b
00000190: 6769 5f3c 60e4 63bc ef98 563b fa6e 773b
000001a0: e3b1 613e 9864 283a 08b9 b13b 5092 6ebe
000001b0: f67e f9bb a590 8c3b 69cb a73c f245 4d3b
000001c0: 5e04 593e 832a 1bbd a1ab bfbb c571 24bc
000001d0: 30e1 aa3c fde8 70bd bd50 29be b2bf f83c
000001e0: 8d7b 703e fd5c 173d e347 6bbd f7f9 f5bd
000001f0: 29f3 113e 4fac d039 353e 98bb d3d0 8abd
00000200: addc a33c 9570 0e3d bba9 2ebe 0ff2 97bd
00000210: 2cd2 19bc df17 79bc 526c 3ebc 2dcb 563c
00000220: d013 ecbc d2ae 83bc 9ccd 193d 1faa 5fbe
00000230: 0692 97bc 1172 4a3c 46a7 8fbc 3cd9 80bc
-0.002185111 0.0050714975 -0.030207468 0.0013743234 -0.005768878 0.22037604 -0.003098008 -0.008792282
0.033099093 -0.0072981473 -0.012820926 0.04069285 -0.03402925 -0.1005447 -0.061828073 0.023082733
-0.054472335 -0.02008276 0.05968323 0.050675984 0.040632114 0.0024566317 0.12059719 0.04739292
0.0362864 0.026894921 0.030390605 0.041115448 -0.08824757 0.00056111393 0.14078395 -0.15187678
0.016898923 0.047080748 0.008561473 -0.013069395 -0.025872152 0.044075985 0.045654867 0.0001861353
-0.2048967 -0.0047787777 0.052987322 0.07805604 -0.031678822 0.104812905 -0.031884145 0.051127993
-0.022103976 -0.029585378 -0.015962567 0.011620754 -0.0042892043 0.036973488 0.20531994 0.028053861
0.0042703287 -0.25092906 -0.15282331 0.018471135 0.007533768 0.01781609 -0.007886091 -0.037520997
0.022215037 -0.0012024675 0.024340805 0.17080371 0.04242365 -0.006642814 0.04955322 0.009206924
-0.16607629 -0.064585455 -0.0048839184 0.13839142 0.07970976 0.008707779 -0.018950129 0.014623802
-0.010033281 -0.02048531 0.038726594 -0.060461566 -0.013969384 0.028256422 -0.021503435 -0.0070465268
0.0371477 -0.08724939 -0.006426242 0.057545032 0.016774394 0.05334333 0.4124401 0.022157867
-0.0437146 -0.47679213 -0.032038447 0.0031294061 0.01363597 -0.013909429 0.0032744964 0.0037755356
0.22040515 0.0006423681 0.005423669 -0.23298001 -0.007614012 0.004289704 0.020482736 0.0031322208
0.21193072 -0.03788234 -0.005849317 -0.01003689 0.02085933 -0.058815945 -0.16534705 0.030364845
0.23484631 0.036953915 -0.057441603 -0.12010568 0.14252914 0.00039801231 -0.0046460875 -0.06778111
0.020002687 0.034775335 -0.17056935 -0.07419216 -0.009388488 -0.015203445 -0.011622505 0.013109964
-0.028818041 -0.016074572 0.0375496 -0.2184224 -0.018502247 0.012356297 -0.017535817 -0.015728585

body.0.body.0.b3.0.bias f4 [16]
00000000: 1993 de3f 5c09 1040 bcc2 e7be fc8e a9be
00000010: 7b2e 6abf a598 483f 7aa3 88bf 9265 ebbd
00000020: 8b13 823f 363c 113f 91e0 6e3f 2de6 dabf
00000030: 38d9 82bf e726 a9bf 7940 83bf c9e3 d93d
1.7388641 2.2505713 -0.45265758 -0.331169 -0.91477174 0.7835792 -1.0674889 -0.114939824
1.0162214 0.567325 0.9331141 -1.7101494 -1.022254 -1.3214997 -1.025405 0.1063915

body.0.body.0.b4.0.weight f4 [16, 1, 3, 3]
00000000: 2d1d 363d b454 cfbd 2caa b8bc d890 943d
00000010: a656 0d3e 508c 4ebd 10dc fabd be63 7b3d
00000020: c473 e03c b979 b83c eb04 b43c c8a1 4f3c
00000030: 5e1c 193d 8cfa 6a3e d99f 0b3d bf6e a1bc
00000040: 4b62 3e3d 2256 d43c be8c 8d3b 3422 b2bc
00000050: 5049 7bbd 3c49 e5bc f933 513e 48ef 36be
00000060: 3626 513c ce7b a1bc e4e3 0cbd 37b5 963c
00000070: 5f7f abbc 6ec6 153d 9c7b 323d bc3d 693e
00000080: fd40 a7bb 9cec af3c 0d5e 933c 4e85 20bc
00000090: 3d62 8d3c 11d9 4d3e c545 e33c 4070 5a3d
000000a0: 423c cebd 7898 003d b0fe 9b3b 4b7c 363a
000000b0: 8d4e 2abb 2987 583d c66c 913e 4ab3 83bc
000000c0: d61c 2b3d 920b dcbd 0633 3c3d a1e9 393b
000000d0: 1ec2 86bc 9474 1d3c 8401 503c a2cf 71bd
000000e0: 6b2d 493d 801b cabb 922f 963c 211b cdbd
000000f0: 2ca2 31bc 11cf 70bd b8c9 ffbc 067e 233d
00000100: 6964 04be c52b 273d 7187 d2bd 7dfc 713e
00000110: e238 f5bd f33e 153d ea35 b4bd 9604 023d
00000120: fe41 b43c 7651 27bd c2ef 98bc 4f6d c7bd
00000130: 6aff edbd 151e 463c 9e36 2dbd 227a 6b3d
00000140: 4315 f2b9 fdb9 973c 4250 a3bb f4cd 2f3e
00000150: ce6f 25bc 4836 33bd 1db3 09bc 0eb7 6abb
00000160: 8556 4dbc 0b9f 153d e84d 66bc 78e2 65be
00000170: c6f3 803c c46e c9ba e571 7d3c 1f0f 76bc
00000180: 82f8 64ba 5c47 433a b8e2 eeb9 5be9 babc
00000190: e1ee bdbc 96d1 fbbc 32a3 2cbc 72fb 9cbb
000001a0: aff5 cebb 6305 60bd 7b3d febc 626a a6bd
000001b0: 60f2 37bd 4381 9a3d 160d b43c 0206 d03d
000001c0: aeee ac3d b0fb b5bc 7ce0 6b3d 6dbe 96bd
000001d0: fbca 1e3c cd73 55b9 e377 13bd fd56 42bc
000001e0: ef20 4fbd 8582 72bd 97b0 a3bc ec37 70bc
000001f0: 0428 fbbc ef55 c0bb 3695 d53c 1526 8dbc
00000200: 4ca3 d63d cb97 32bc ffc8 4c3e e4ea 46be
00000210: 3985 023d 7a03 8bbd 02dc 573d 0f36 3abc
00000220: 1e3a 0a3e 09bf 0ebd 5f14 233c daf6 02be
00000230: 6806 04be 4c20 963b 2eff babc 44fe b43d
0.044461418 -0.10123578 -0.022542082 0.07254189 0.13802585 -0.05042678 -0.12249005 0.06137442
0.027398951 0.02251898 0.021975001 0.012672849 0.03738057 0.22947139 0.03408799 -0.019706128
0.04648046 0.025919978 0.0043197563 -0.021744825 -0.061349213 -0.027989022 0.20429982 -0.17864716
0.012765458 -0.019712355 -0.03439702 0.018396957 -0.020934759 0.03656619 0.043574914 0.22777456
-0.0051041828 0.021475129 0.017989183 -0.009797407 0.017258758 0.20102336 0.02774323 0.053329706
-0.10070087 0.031395406 0.0047605857 0.000696127 -0.0025986761 0.052863274 0.284033 -0.016076703
0.041775547 -0.10744394 0.045947097 0.0028368013 -0.016449984 0.009610314 0.012695674 -0.059035905
0.04911558 -0.006167829 0.01833323 -0.1001494 -0.010841887 -0.058791224 -0.031224117 0.039915107
-0.12928928 0.040813226 -0.1027974 0.23631473 -0.1197374 0.036436986 -0.08799346 0.031742655
0.022004124 -0.04084917 -0.018669013 -0.09737646 -0.11620982 0.012092133 -0.042288415 0.05748952
-0.00046173678 0.018521303 -0.0049839327 0.17168409 -0.010097457 -0.04375294 -0.00840452 -0.0035814676
-0.012532835 0.03652863 -0.01405666 -0.22449672 0.01574124 -0.0015368094 0.015469049 -0.015018254
-0.00087345403 0.0007449293 -0.00045563816 -0.02281635 -0.023185195 -0.030739587 -0.010536956 -0.004790717
-0.006315909 -0.054692637 -0.031035176 -0.0812576 -0.04490888 0.07544186 0.021978896 0.10157396
0.08443962 -0.02221474 0.05758713 -0.073605396 0.009691949 -0.00020356402 -0.036003005 -0.01186156
-0.050568517 -0.059206504 -0.019981666 -0.01466177 -0.03065873 -0.005869619 0.026072126 -0.017230073
0.10480365 -0.010900448 0.19998549 -0.19425541 0.031865332 -0.067877725 0.05270005 -0.011365428
0.13498732 -0.034850154 0.009953587 -0.12789479 -0.12893069 0.004581487 -0.022826757 0.0883756

body.0.body.0.b4.0.bias f4 [16]
00000000: 97dd e9bf 2753 bf3f 3dd6 42bf b76f 0dc0
00000010: 63cf 253f d614 f03e e9d6 993f dac7 8bbe
00000020: 365a 4abf 1266 5a3f e686 8bbf c3bb 9d3d
00000030: 5925 7fbf 2594 0040 5df0 c13d dd3a ccbe
-1.8270749 1.4947251 -0.7610815 -2.2099435 0.6476957 0.46890897 1.201871 -0.27300912
-0.790439 0.85311997 -1.0900543 0.07701828 -0.99666363 2.009042 0.09469674 -0.3988866

body.0.body.0.sa.conv_y.weight f4 [16, 16, 1, 1]
00000000: 6616 dcbd 6b40 febd c2ed 113e 6785 983c
00000010: 9583 04bd 22fc 36be abad 1e3c cebe e5bc
00000020: 630a c1bc 31de ed3c 72cb 3c3d 94c5 c83d
00000030: 0544 2dbd 6694 643d 867d d43d 989e b53d
00000040: 4893 603e 3483 163d 2ca9 473f f96a f73b
00000050: 5974 233c 5805 bc3d 31e2 ebbd 9422 203d
00000060: 5daf ae3b 6eb8 a13d 8bf3 9cbd fac1 bdbd
00000070: 5cd4 423c 0fc4 2ebd 8e88 9abd 4321 03be
00000080: 419e 393e 464f b63c 5bbf 71be 88bd 5f3d
00000090: 187e 78bb 225f 41be b69d 12bd 63a8 abbd
000000a0: 9a2e 1e3f 0d38 fd3d bdd1 923e 8e49 92bd
000000b0: 3bce aabc 8b4f 0abf 2f61 88be ba71 363d
000000c0: 3c2b 0d3e 612d bf3c df5d e73d 64a6 83bd
000000d0: 0258 27bd f4cb 99bd de54 87bd f8f5 c5bd
000000e0: c902 b7be 79ab e8bc 243a e03d 9c4c 243e
000000f0: bf22 793c 30a1 473e 0575 cfbd 87eb 27bd
00000100: 433a cebd cd7d a9be 52e9 ee3c ede2 39bd
00000110: 36db 91be 324e 65bb a26d d7bd ed1d a43e
00000120: 900e d03d 5a95 d63c b97b d33d 69b1 adbd
00000130: 10d4 073e de66 3bbf 9f51 983d 29ea e9bc
00000140: 8b74 c13c 973b 7c3e 966b d0bc 0a2f 443e
00000150: a06f 7f3e 0b19 eebd 0669 803f 0406 ca3e
00000160: 39ca 95bd c6b4 a53c 9ec5 6fbd 048e a83d
00000170: cd52 903e d9ad 7e3e 62dc 30bd ef27 703b
00000180: 7804 b13d a0f3 663e 0dad c1bd cfd9 82bd
00000190: 8194 c13e 84d1 e8be 2213 d13e 6c91 333e
000001a0: de35 0abf 32ed 6a3d 5f7e d73e a867 fe3d
000001b0: b2bc 863d e4bf 943e 79a1 003e 4c28 733e
000001c0: 1fdc f13d a5da f3bd 14f7 7c3d 93be 46be
000001d0: fcd6 3dbd 0a75 79bd cbd4 3dbf c26b 28be
000001e0: 4a42 02bd 3b50 953d 10e8 cb3d 8a9b 9bbb
000001f0: bb1f 06bd 283c c43d 7687 053e 5f6a 1dbd
00000200: 031d 543d dff1 09bf b3c9 6c3d cae3 36bf
00000210: ea0f 803e a2eb 8ebc 0641 debd bdfc 8ebe
00000220: b1b6 afbe b409 58bc 9f1d 47be ec4f b1be
00000230: 8765 49bc 7dc6 43bd 5ebe 473e a9a9 e33d
00000240: 95f4 623e c20c 533e ba7a 2a3d 4f76 d03e
00000250: 6249 323e 8335 923c 4c7f 7d3e 64ad 56bd
00000260: d4de 85be 4fe8 8d3e 3c0c b23e 459d 1c3f
00000270: 21a4 703e 73d3 653c 9db4 e93d a25f a23d
00000280: 9ecc c13c 5776 463e c7e5 2dbd 67a7 f03d
00000290: 2c6e 103e 7516 57be d950 623c 9109 caba
000002a0: a97b d0bc 27fc 883b 30c5 2e3f 002c 913f
000002b0: a182 27bd 127c cdbd de58 96bd 5bf2 07be
000002c0: 69b0 2abe 9c96 e9bd 9cfc 2c3d 7137 933e
000002d0: 5f4b 0a3f 12d4 00bc 8810 e9be 7bfc 0fbf
000002e0: 1534 eb3e e128 9b3a 4377 093e 639c 40be
000002f0: ca04 6abe 0d3c b7bd ebbe e03e bb90 86bd
00000300: 10f6 c4bc 0e73 35be 0016 323e cf77 0abe
00000310: 8d01 91bd 5679 4c3f c33f d9bd 5c48 98ba
00000320: d304 7dbd 1d99 723f 52a1 3fbe fd09 db3d
00000330: 6367 e7bd 95cc 1d3f d4c8 913e d49f 193e
00000340: c223 e93c 695a b9be 30c6 833d ffbd a23b
00000350: 889c 213e 5b0b 983e 4391 a43f bc9f 8e3d
00000360: d895 bb3e ebb1 94bd 22f5 a5be 4ff7 c23e
00000370: fbef 853e 0fde 443f 59b8 973d ca87 dd3d
00000380: 3e8c 813d 9fb5 02be eeed 3bbe a45d b3be
00000390: ac51 8d3d faac 8abe 6393 583c d027 7bbe
000003a0: 07ec ad3c 7aae 23be 8034 5dbc c281 6dbd
000003b0: 68fb c3be 8dfd 58bd fd4a 94be 1166 83be
000003c0: 313a 993d f834 3d3e 569c 813e 4e69 a83d
000003d0: 4195 f1bb ceaf 52bc 2be6 5cbf 5cc6 d4bc
000003e0: 8198 4ebc 36a3 62bd f487 783e d97b 57be
000003f0: 6a1e 573d 02a5 89bd 4a55 d33b 9e45 b63d
-0.1074646 -0.124146305 0.14250854 0.018618299 -0.03235205 -0.17869619 0.00968496 -0.028045084
-0.023564523 0.029036613 0.046092458 0.0980331 -0.042301197 0.055805586 0.10375504 0.0886814
0.21931183 0.03674622 0.7799251 0.007550594 0.00997647 0.09180707 -0.11517752 0.039095476
0.0053309635 0.07896505 -0.0766364 -0.09265514 0.011891451 -0.042667445 -0.07545577 -0.12805657
0.18126775 0.022254597 -0.23608153 0.05462411 -0.0037916955 -0.18883947 -0.035794936 -0.083817266
0.6178986 0.123642065 0.28675643 -0.07142936 -0.020850291 -0.5402762 -0.26636645 0.04454205
0.13786024 0.023337068 0.11297201 -0.06428221 -0.040855415 -0.07509604 -0.06607984 -0.096660554
-0.35744312 -0.028402077 0.109485894 0.16044849 0.015206038 0.19495082 -0.101297416 -0.0409961
-0.10069706 -0.3310379 0.02916399 -0.04538243 -0.28487557 -0.0034989235 -0.10518958 0.32054082
0.101590276 0.026194263 0.103263326 -0.08481104 0.13264489 -0.7320384 0.07437443 -0.02855404
0.023615142 0.24632107 -0.025441926 0.19158569 0.24944925 -0.1162587 1.0032051 0.39457715
-0.073139615 0.020227801 -0.05853807 0.08230212 0.28188172 0.24871005 -0.043178923 0.0036644896
0.086434305 0.22553873 -0.09456835 -0.063892 0.37808612 -0.45472348 0.4083491 0.17535943
-0.53988445 0.057355113 0.420886 0.124221146 0.065789595 0.2905265 0.12561597 0.23745841
0.11809563 -0.119069375 0.06175907 -0.19408636 -0.046347603 -0.060902633 -0.7415282 -0.16447356
-0.0318015 0.07290693 0.09956372 -0.0047487663 -0.032745104 0.095817864 0.13039955 -0.03843152
0.05178548 -0.5388469 0.057809543 -0.7144133 0.2501214 -0.017446343 -0.10852246 -0.279272
-0.3431907 -0.013185907 -0.19444893 -0.34631288 -0.012292272 -0.047796715 0.19506213 0.111163445
0.22163613 0.20610335 0.041620947 0.40715262 0.17410806 0.017847782 0.24755591 -0.052411452
-0.26146567 0.277163 0.3477496 0.61177474 0.2350011 0.014027464 0.114114024 0.07928397
0.02365714 0.1938108 -0.04245546 0.117506795 0.14104527 -0.2100466 0.013813221 -0.0015414228
-0.02544959 0.0041804495 0.68269634 1.1341553 -0.04089606 -0.1003343 -0.07341169 -0.13276045
-0.16668858 -0.114056796 0.042233095 0.28753236 0.5402126 -0.0078630615 -0.45520425 -0.5624463
0.45938173 0.0011837744 0.13424401 -0.18809657 -0.2285339 -0.08947001 0.4389566 -0.06570574
-0.024043113 -0.17719671 0.17391205 -0.13522266 -0.07080374 0.79872644 -0.10607865 -0.0011618244
-0.06177218 0.9476488 -0.18713883 0.106952645 -0.11299016 0.6164029 0.28473532 0.15002376
0.028459433 -0.3620179 0.06434286 0.004966497 0.15782368 0.29696164 1.285683 0.06964061
0.3663776 -0.07260498 -0.32413584 0.38079306 0.26159653 0.76901335 0.074082084 0.10816915
0.06325577 -0.12764595 -0.18352482 -0.3503238 0.06900343 -0.27085096 0.0132187335 -0.24526906
0.02123071 -0.15984526 -0.0135012865 -0.057985075 -0.38277745 -0.05297618 -0.28963462 -0.25663808
0.07481802 0.18477237 0.25314587 0.0822321 -0.007372529 -0.012859298 -0.8628871 -0.025973491
-0.012609602 -0.05533143 0.24270612 -0.21043338 0.05251924 -0.06720926 0.0064493762 0.08899997

body.0.body.0.sa.conv_z.weight f4 [16, 16, 1, 1]
00000000: 6205 e0bd 2bab 243d 3c55 1f3e debb 4cbe
00000010: 425a 643d 39ac 98bd 2ae3 3bbc 36ac 41bc
00000020: 3cb2 87bb 2351 3c3d 3156 c43c 45b0 123d
00000030: 6bbe 1e3d 830d 143c ed76 ad3d dd6a 713d
00000040: a84e c83d b6c7 893d 7dec ef3d 0484 0f3e
00000050: 7466 babc 2ab5 d43d 5f7b e93c 6cbe 2cbe
00000060: 18ed dd3c d966 d3bb 33c4 4f3c 25dc 04be
00000070: 5083 2cbc 7145 a13c 0800 abbc 387f debd
00000080: 0d44 79bd 6430 39bd 992f 2e3d 7d1d 66bd
00000090: cef6 c83c 148f 603b 52c1 ff3a cb48 e03c
000000a0: 65d9 fd3c fa62 ff3c 1233 14bb b7e5 3dbc
000000b0: ed2d 12bc 53cc d0bd d1c3 a3b9 71af de3d
000000c0: f13b 1f3d 9f66 933d d2b0 38be 5c78 303d
000000d0: bd61 15bd 5c12 a2bc 51b4 4abc ab3f e83d
000000e0: 53cc 753e 3503 533d 3332 e2bd f91a 0e3e
000000f0: 9d34 4dbc 34df e4bd 5336 8e3a cd53 95bd
00000100: 19e4 e9bd ecbe b33d 466c b0bd 7f0f f9bd
00000110: 1676 a8be 479a 80be 8455 7a3f 4cb2 f9bd
00000120: b6aa 08be 87b6 27bd 7128 d8bd c7ee 82bc
00000130: 17f0 283d 194b fcbe c316 ec3c fb49 2e3c
00000140: 0d93 063e 0300 a4bd 646c a53e d604 99bd
00000150: d577 e63e b068 e93c 73e1 473e 4cb2 9ebd
00000160: 97d8 593e faa5 0b3d 3c87 333c b113 1b3c
00000170: ad01 303e dc20 aa3e d3c6 1d3c f818 5abc
00000180: 8d47 233e f16f 3d3d e5a7 1bbe 6b80 c7be
00000190: 0278 b43e b32a 72be 1dec a13e 3c78 40be
000001a0: b195 343e 7271 90bd 6ec2 013c b86a 2abe
000001b0: f09a 83be bf2f 5f3e 697a 3b3e 1909 a13d
000001c0: f4be 343e d4bc c9bc 0eb2 ddbe e723 093c
000001d0: 8d61 87bd 7137 013c 77cd 9a3c a306 933e
000001e0: 7003 34be 89a9 89be ff55 56be 495d d1bd
000001f0: 10fc cebe 0d09 cc3e 5650 03bd b00b 9cbd
00000200: 45f5 403c 8194 d4be 7476 84bb 7a74 203d
00000210: 20bb 333e 5477 07be c124 22be 09ed 05bf
00000220: 84c3 d7bd fd76 c13d 0a94 963e bec1 10be
00000230: 4ed5 ae3d 577e 223d 3aed d6bd 93f3 4dbe
00000240: 146b 333e 0304 553e 12c1 4f3d 2c76 433e
00000250: 99de 98bd 5459 e53d c8b8 043d c3ef c53e
00000260: c429 213d 0496 923e e775 16be 2b27 ee3d
00000270: 7edb 093e e75d 053e 3885 6c3c 5a58 623d
00000280: c3cd e73c f810 383e 17cf b63c a1fa 5c3d
00000290: 72bc 6bbd 7585 263e e64b 6cbd 15f8 31bf
000002a0: e36a 64bc fb3d 78bb 1d59 c3bc 37c3 7a3d
000002b0: cff3 50bd 12de 0dbc 2975 2c3e c087 403d
000002c0: bdbe 5ebe 7f49 0c3e a8eb 0dbf 2730 b0be
000002d0: fabc b13e b49a a53e 9b99 db3c db2a e73e
000002e0: 1d6e 563d 34c1 65bd 1b75 143e 5a11 13bf
000002f0: afd1 cebd ea8b 6dbe 779c 74be e565 443e
00000300: af62 723d b487 65be 4105 4cbf 350f bebd
00000310: d6ab f23c f212 093d f314 64be b94d b9bd
00000320: 5a02 b23d 9eea 38bf 73a1 97bd 0120 e73c
00000330: 4dcc 903d d2c8 04bf f6a3 98bd 83bd 00bd
00000340: 1880 9f3d e872 f8be 66f7 50bf 0217 9a3d
00000350: 07cb 99be 7066 79bd aa0b bebe 247e 323d
00000360: 459c a7be d80a 123e ca26 dabb 6f6a 18bf
00000370: 2c18 72bd b9de 643c 01e0 e03d 9c80 153d
00000380: a692 94b9 3372 113e 5b1c 493d ba69 d13d
00000390: f0b4 1f3d a8a4 1cbe 672c 72be 5bc1 b5be
000003a0: b4e6 9dbd 0a5a edbe 26a5 533d d807 e03d
000003b0: 1ddc 18bd 7ca9 9dbe 0ae4 bbbe 8f5d 96bd
000003c0: 4dba a8bc 45de 033f 89f4 5b3d 2ef0 f7bd
000003d0: 01a0 a0bd 60bf 2a3c 3e15 acbe a6c4 edbc
000003e0: a27b 09be 3ef8 3dbe be37 bbbe 176e 833e
000003f0: 022e 1bbe 495a 933e 8fb2 c4bd d273 08be
-0.10938527 0.0402023 0.15559858 -0.1999354 0.05575014 -0.07454724 -0.011467734 -0.011820843
-0.0041411202 0.045975816 0.02396688 0.035812635 0.038755815 0.009036425 0.08469949 0.058939803
0.097806275 0.06727545 0.117150284 0.14015204 -0.022753932 0.10386117 0.02850121 -0.16869515
0.027090594 -0.0064514694 0.012681055 -0.12974603 -0.010529354 0.019686433 -0.020874038 -0.10864109
-0.060855914 -0.045212165 0.04252586 -0.056180466 0.024531748 0.0034264969 0.001951257 0.02737846
0.03098745 0.031175125 -0.0022613448 -0.011590413 -0.008922082 -0.10195222 -0.00031235677 0.108733065
0.038875524 0.07197308 -0.18036202 0.043083534 -0.036470164 -0.019784145 -0.012372092 0.11340269
0.24003725 0.05151673 -0.11044731 0.13877477 -0.012524751 -0.11175385 0.001084993 -0.07291374
-0.11420459 0.0877665 -0.086144015 -0.12161159 -0.32902592 -0.25117704 0.97786736 -0.121922106
-0.13346371 -0.040945556 -0.105545886 -0.015982999 0.041244593 -0.49276045 0.028819447 0.0106377555
0.13142033 -0.08007815 0.32309258 -0.074716255 0.450133 0.028492302 0.19519596 -0.07748851
0.21274029 0.034093834 0.010957535 0.009465144 0.1718814 0.33228195 0.009629923 -0.013311617
0.15945263 0.046249334 -0.15200765 -0.38965163 0.3524781 -0.23649101 0.31625453 -0.18795866
0.17635228 -0.07052888 0.007919891 -0.16642272 -0.25704145 0.21795557 0.18308415 0.07863063
0.17650968 -0.024626173 -0.43299907 0.008370376 -0.06610403 0.007886753 0.018896801 0.28716
-0.17579436 -0.26887158 -0.20931242 -0.10222871 -0.40426683 0.39850655 -0.032059036 -0.07619417
0.011777227 -0.4151955 -0.004042441 0.03917358 0.17551851 -0.13229114 -0.15834333 -0.5231481
-0.105353385 0.09446523 0.2940982 -0.14136407 0.085367784 0.03967127 -0.10494466 -0.20112447
0.17521316 0.20802312 0.050721236 0.19088048 -0.07464332 0.111986786 0.032402784 0.38659486
0.03934647 0.28630078 -0.14693414 0.116285644 0.13462636 0.13024102 0.014436059 0.05526004
0.028296357 0.17975223 0.022315545 0.053949956 -0.057552762 0.16261847 -0.05768957 -0.6951917
-0.013941499 -0.003787874 -0.023846203 0.061221328 -0.051013764 -0.008658903 0.16841568 0.04700446
-0.21752448 0.13699912 -0.5543771 -0.34411737 0.3471449 0.32344592 0.026806643 0.45149884
0.052351106 -0.056092456 0.14497797 -0.5744835 -0.10098588 -0.23197904 -0.23887812 0.19179495
0.059176143 -0.22415048 -0.79695517 -0.09280244 0.029622953 0.033465333 -0.22273616 -0.090480275
0.08691855 -0.72233 -0.07403841 0.028213503 0.07070217 -0.5186893 -0.07453148 -0.031430732
0.07788104 -0.48525167 -0.816275 0.0752392 -0.3003771 -0.060888708 -0.37118274 0.04357733
-0.32736412 0.14261949 -0.006657456 -0.59537405 -0.059105083 0.013969117 0.10980225 0.036499605
-0.0002833802 0.1420372 0.049099308 0.10225244 0.038990915 -0.15297186 -0.2364975 -0.3549908
-0.07710019 -0.46357757 0.05167117 0.10938996 -0.03731929 -0.3079337 -0.36697417 -0.07342064
-0.020596648 0.5151103 0.053700004 -0.121063575 -0.07843018 0.010421604 -0.33609957 -0.029024433
-0.13426068 -0.18551728 -0.36565965 0.2566993 -0.1515427 0.2877982 -0.0960437 -0.13325432

body.0.body.0.sa.conv.weight f4 [64, 4, 1, 1]
00000000: c696 b5bd 1df9 4d3d 574c 7a3d d4d6 36bd
00000010: 159c 31bc 22db 0fbd af8b 4dbc 5543 533d
00000020: 2b58 2abd 1d17 2a3e 7bc5 643e 32ad afbd
00000030: 8182 51bd bb5f e8bc 4caa a63b 8805 ba3d
00000040: ef37 8dbb ca0d 523b 0f5a 4abb 1993 f1b7
00000050: 306b f5bd 6313 a73d 39c1 3a3d c43f 0abe
00000060: c18d 57bc 7a7a 193d 3902 adba 6ced 31bd
00000070: e047 48be cd1e 9b3e 88ec 923d 393d 3bbe
00000080: 89a3 2dbd fdbe 3e3d 3dd7 c5bb 8d46 36bf
00000090: ee1d 29bc d14b bfba ffcb 8c3c e75c a0bc
000000a0: cc40 debd 359d 813d b6e3 b63c 6762 ebbf
000000b0: 74f0 69bd 4e8a 4c3e a1d7 dc3d 1e86 34bd
000000c0: ab96 bdbd 6472 9a3c a9d9 933c 97a3 0bbd
000000d0: 1a41 2cbc aae9 c4be 6609 94c0 163e 5ebe
000000e0: 9d6e 41bc d6f3 ccbe e000 a93e 5dfc 54bd
000000f0: c56a 6ebd 2a36 9cba 3f6f 81bc ec81 c33c
00000100: 1295 243e 9fad fabd 8247 213d 870c fdbd
00000110: 99e9 673e 1c94 b53e 5627 78be 93a3 2ebd
00000120: 2467 07be 5ee8 993c 660a 05be 616b 49bf
00000130: d8de 153e e4e7 c73d bc80 58bd 5a05 99bc
00000140: e6a5 003f 4a38 0bbf e325 7bbe 58c7 c53d
00000150: d36f fabd 46ae ae3d 4f5f 95bd c6e8 55be
00000160: 541f 62bd c3fc 55be 79a4 63bd 661a 15bb
00000170: 696e 3ebe ed9c 72be 5803 1a3f aaea 1f3d
00000180: d7cd 86be 92bb 523e 2e25 59be 5f6d 9f3d
00000190: 3179 9dbd 5f2c d8bd 7c62 f9bd 3424 03be
000001a0: 2659 663e e9fa 3abe afd9 a23d 5833 403e
000001b0: 7030 a43c 0174 d3bd b2c8 fa3d 1ec3 44be
000001c0: a93b 8f3d 1c80 31be e5eb 9dbf 4e32 03be
000001d0: 6635 883e 5beb 73be 4730 88bc 118f 13be
000001e0: d1c6 8f3f 6ab0 703f 3407 273f 004a 5640
000001f0: 5e6c b73c 145e 4ebc 1615 3a3e 8649 613e
00000200: 0d1b f93d 9807 41be c2d1 00bd face 73bc
00000210: 757b 2a3e 5597 73bc b08c 5cbf fb67 2f3d
00000220: df81 85be 835b bbbd 9f69 d0bb 8ec2 7fbf
00000230: 49f5 12bd a7a2 02bc dce3 0cbd efc2 68be
00000240: 3394 69bd d671 753d 54ed 86bd c5cb d23e
00000250: 6aae d2bd c022 0b3c 5953 87bd dcda 56be
00000260: 9511 6cbd feae 8cbf 0ea5 8cbd 2913 0cbe
00000270: b9f5 12be 3889 96bc 22c3 973e f95a 023c
00000280: 1dbd 56be 4521 cebe 717c 7ebd a90c 05c0
00000290: 2def 1c3d b881 9ebe 3675 b93d 31cd 993d
000002a0: ce36 1f3f a7df a43c ef29 f2bc 2bfd f7bc
000002b0: fe7c 55bf 8de6 76bd ee8c f5bd 6428 843d
000002c0: eecd 873d c9eb 043e c483 8fbd 9fc7 863d
000002d0: 420e 013d 85be c9be 57d2 87bc bcff 313f
000002e0: a472 8fbe 1f24 bcbe 6f72 3cbe bbda fd3e
000002f0: 3fc2 a2bb 48a7 793d 5b8d 32be de58 d9bc
00000300: 8c6b 2b3e af7f 443e 3f6d a0bd 1527 bbbe
00000310: fc4e 78bd ec2f fbbd 1f0b 24bc d79b 03bd
00000320: e120 04be bc7d 883d 9cb8 b7bd 8765 02bd
00000330: 88fd 0f3e 92ee 323e 1f27 8bbd 407e c73d
00000340: 4501 95be 283b 653e e12a 33be 5594 0a3e
00000350: 4ae9 97be 6c39 12bd 19fd 56be 7e29 323e
00000360: 5e41 44bf 4acd 6b3f f583 0fbe f38c 15bf
00000370: 6719 3bbe 8dd2 a2bc 7d5c 1ebe 2a0f 83bd
00000380: 7afb 4ebe bae0 09bf b104 c3bc d7a6 e1be
00000390: 7170 403f 0646 533b 0d6a 513d 9ae6 cc3d
000003a0: 8198 c03d 3ff0 efbc 099e 043d bbf8 23bf
000003b0: c15e 2b3e a647 183e d803 403d eb25 94bf
000003c0: ada4 0a3f 474e f9bf 8ec6 023d cf31 71be
000003d0: 199f bcbd d5f4 57be ddc0 69bf 89c2 61be
000003e0: 4a88 99bf 51dd 17bf 976b ddbe d0ef 78be
000003f0: e22d 693d 804e b0bc fefe 13bc 6aef 8dbe
-0.088666484 0.0502864 0.06110796 -0.04463847 -0.0108404355 -0.03512109 -0.01254551 0.051577885
-0.04158799 0.1661038 0.22340958 -0.08577956 -0.05114985 -0.02836596 0.005086219 0.09083086
-0.0043096463 0.0032051676 -0.0030876433 -2.8797936e-05 -0.11983335 0.081579946 0.045594428 -0.13500887
-0.013156355 0.03747032 -0.0013199515 -0.043439314 -0.19558668 0.30296937 0.07174021 -0.18285073
-0.042392287 0.04656886 -0.0060376213 -0.712014 -0.010322077 -0.0014594739 0.017187117 -0.01957555
-0.10852203 0.06328813 0.022325378 -1.8389405 -0.05711408 0.19974634 0.107833154 -0.044073217
-0.09257253 0.018853374 0.018048124 -0.03409156 -0.010513568 -0.38459522 -4.6261473 -0.21703371
-0.011806157 -0.40029782 0.3300848 -0.051998485 -0.058207292 -0.0011917998 -0.015800117 0.023865663
0.16072491 -0.12240147 0.039374836 -0.12355905 0.22647704 0.3546456 -0.24233755 -0.042636465
-0.13222939 0.01878756 -0.12992248 -0.7867947 0.1463579 0.097610265 -0.052857146 -0.01867931
0.5025314 -0.54382765 -0.24526171 0.096571624 -0.1222836 0.08529334 -0.07293569 -0.20889577
-0.055205658 -0.20897202 -0.055576775 -0.002275133 -0.18596806 -0.23692675 0.6016135 0.039042152
-0.26328918 0.20579365 -0.21205589 0.07784533 -0.07689131 -0.10555338 -0.121769875 -0.12806779
0.22494945 -0.18259777 0.07951676 0.18769586 0.020042628 -0.1032486 0.12245311 -0.19215056
0.06993801 -0.17334026 -1.2337614 -0.12812158 0.2660324 -0.2382025 -0.016624583 -0.14410044
1.1232549 0.94019186 0.65245366 3.3482666 0.02239054 -0.012595672 0.18172106 0.22000703
0.12163363 -0.18850553 -0.03145004 -0.01488089 0.16648658 -0.014867623 -0.8615217 0.042823773
-0.26075646 -0.09148314 -0.0063602473 -0.9990624 -0.035878453 -0.00797335 -0.03439699 -0.22730611
-0.0570261 0.059923016 -0.065882355 0.4117109 -0.10287173 0.008492172 -0.06607694 -0.20981926
-0.057633955 -1.0990903 -0.06867419 -0.13679184 -0.14351548 -0.018375978 0.29641062 0.00795626
-0.20970578 -0.40259758 -0.062130395 -2.0788977 0.038314033 -0.30958343 0.09055559 0.0750984
0.62193 0.020126177 -0.029561011 -0.030272087 -0.8339385 -0.060278464 -0.11989771 0.064530164
0.06631075 0.1298057 -0.07007554 0.065810435 0.031507738 -0.39403167 -0.01657979 0.69530845
-0.2801715 -0.36746308 -0.18403028 0.4958094 -0.0049670036 0.060950547 -0.17436735 -0.026531633
0.16740245 0.19189332 -0.07833337 -0.36553255 -0.0606222 -0.12265 -0.010012417 -0.032131042
-0.12903167 0.06664607 -0.08970758 -0.031835105 0.14061558 0.1747382 -0.06794571 0.09740877
-0.2910253 0.22385848 -0.17496826 0.13533147 -0.29670173 -0.035699293 -0.20994987 0.1739864
-0.7666224 0.9211012 -0.14015181 -0.58418196 -0.18271409 -0.019875789 -0.15464969 -0.06399377
-0.20213118 -0.5385853 -0.023805948 -0.440726 0.7517157 0.0032237782 0.05112653 0.10004921
0.09404088 -0.029289363 0.032377277 -0.6405141 0.16735364 0.14871082 0.046878666 -1.1574072
0.54157525 -1.9477013 0.031927638 -0.23554157 -0.09210033 -0.2108949 -0.9130991 -0.22046866
-1.1994717 -0.5932208 -0.43246147 -0.24310231 0.056928523 -0.021521807 -0.009032963 -0.2772172
