ESASN_TrainCode/experiment/ESASNS_R4G4F36W64B16g4_BIx3lr8/model/model_best.pt (torch_old, 978932 bytes, 255 tensors)

sub_mean.weight f4 [3, 3, 1, 1]
000000 50 75 80 3f b9 fb e0 bb 7c 90 09 bd 55 df 01 bd
       1.0035801 -0.006865945 -0.033585057 -0.031707127
000010 52 5e 89 3f eb 01 af bd 87 1b d0 3c 88 d3 11 bd
       1.0731909 -0.08545288 0.025403751 -0.035602123
000020 2c ca 74 3f
       0.9562099

sub_mean.bias f4 [3]
000000 9b 10 e3 c2 72 d6 dc c2 4e 5a cc c2
       -113.53243 -110.41884 -102.17638

add_mean.weight f4 [3, 3, 1, 1]
000000 98 1f 0e 3f c2 fd 85 bc 30 12 d8 3c ac 0b 13 bd
       0.5551696 -0.016356353 0.02637586 -0.035899803
000010 95 5f 16 3f f1 a3 84 bc 5f bf a0 3a a7 52 35 bc
       0.58739597 -0.016191455 0.0012264064 -0.011067069
000020 f9 a0 19 3f
       0.6001125

add_mean.bias f4 [3]
000000 70 18 e6 42 0b bb e0 42 86 6c d1 42
       115.04773 112.36532 104.71196

head.0.weight f4 [36, 3, 3, 3]
000000 be fc 62 bc 35 0a ea 3a 55 c8 87 bd d0 ba 1c 3d
       -0.013854204 0.0017855825 -0.06630007 0.038264096
000010 de 3c 05 3e 19 ad 9d 3d 98 59 d7 bd 96 ac de 3c
       0.130115 0.076990314 -0.105151355 0.027181905
000020 ef 16 86 bd f1 03 46 3b f0 90 e1 bd 0f b8 4e 3c
       -0.06547343 0.0030214752 -0.11013973 0.012617125
000030 0d fa 32 3d be c7 00 be df e0 2d 3e 1d 2e 2d 3d
       0.0436955 -0.12576196 0.16980313 0.042280305
000040 8a ef cf bd 29 61 03 3d 03 04 9a bb 04 3e f0 3d
       -0.1015311 0.03207508 -0.0047001853 0.117305785
000050 8f 77 9a 3d 12 f6 a0 bd 6d 9a 06 bf 5e 7f 2c 3d
       0.07542335 -0.07859434 -0.52579385 0.042113654
000060 94 b6 c2 3d 0c cb 68 3e 28 4e 88 3d 2d 53 87 ba
       0.0950748 0.22733706 0.06655532 -0.0010324471
000070 2c 60 98 3d f0 cf 1b ba 79 26 09 3e 94 86 24 bd
       0.07440218 -0.0005943766 0.13393582 -0.040167406
000080 06 e7 f3 bd b3 5d 61 3a 0e 72 73 bd 42 ad 88 3c
       -0.119092986 0.0008597031 -0.059434943 0.016684178
000090 4f a7 8d ba 71 df cb bd d2 52 3d bd 9a 6a 4d 3d
       -0.0010807308 -0.099547274 -0.04622156 0.05015049
0000a0 45 0c 98 3d 98 44 5e be 52 29 aa 3d 67 0e 51 3e
       0.07424215 -0.21705854 0.083086625 0.2041565
0000b0 23 b7 8e bd f3 41 c7 bc d4 b3 ae 3d 1c 16 9e 3d
       -0.06968524 -0.02432344 0.08530393 0.07719061
0000c0 15 76 6d be 5f 29 0f 3e 5e 23 93 3d 3e aa 0b 3d
       -0.23189576 0.13980626 0.0718448 0.034097902
0000d0 49 46 21 be 67 fc 74 3c d3 c6 32 3d 16 53 61 bd
       -0.15749468 0.0149527555 0.043646645 -0.055010878
0000e0 6a db ec 3c 49 0e f5 bd 8d 61 9f 3d f3 ce 60 bd
       0.028913219 -0.11965615 0.07782278 -0.054884862
0000f0 75 3a 54 3d 74 16 09 bc 76 28 b8 3c 20 03 8e bc
       0.05181356 -0.00836717 0.02248023 -0.017335474
000100 e5 f4 2d 3d d2 b4 23 3b 2b 6c 0d be 0a a6 7a 3e
       0.042469878 0.0024979603 -0.13810794 0.24477401
000110 6a 1f 6c bd 1e af 46 bd 4a 1f 22 bd d9 55 bc 3b
       -0.057647146 -0.04850685 -0.03958062 0.0057475385
000120 f5 84 24 3b 22 41 97 39 7b 35 46 bd 40 dd 6c 3e
       0.0025103663 0.00028849492 -0.048390847 0.23131275
000130 a6 5c 9b be 07 58 0e 3e 53 16 4a bc 1a a8 a5 3b
       -0.30344123 0.13900767 -0.012334424 0.0050554397
000140 99 9b 1a bc ca 49 c7 3c 77 27 a8 bd da b2 7a 3d
       -0.009436511 0.024327178 -0.08210652 0.061205722
000150 6f aa 8b 3d c8 ba e6 bd 2c 1c 5c bd b5 28 e5 bc
       0.06819617 -0.112660944 -0.053737804 -0.027973512
000160 22 5d 10 3e cb 75 8a bb 4d 79 04 bd d3 38 0f bd
       0.14098027 -0.004225468 -0.032342244 -0.0349663
000170 d9 84 b7 bc 4b 1c 26 be 4c fe ba 3d 36 1f 89 3b
       -0.022402214 -0.1622173 0.091305345 0.004184629
000180 dc 58 80 3d ad 3d aa bc e6 d5 92 3d e1 bd 45 3d
       0.062669486 -0.020781362 0.07169704 0.048276786
000190 e2 12 f8 3d 8a 47 00 be 83 ea 1b bd 68 7a 20 3e
       0.121129766 -0.1252729 -0.038065445 0.15671694
0001a0 32 4d 86 3d 96 6f 5f 3d 86 dd 66 be e1 48 21 bd
       0.065576926 0.054549776 -0.22545442 -0.039376143
0001b0 19 8f 5a bc 6d ea 2c 3e ea 93 2b 3d 17 a5 1e be
       -0.013339781 0.16886301 0.04188911 -0.15492664
0001c0 f8 e2 27 3e 9e 7b ce bd eb eb 91 bd 79 df 4d bd
       0.16395175 -0.10082172 -0.07125076 -0.05026195
0001d0 69 1c 00 bb e1 4f 55 3c a1 a7 37 be 34 6d 29 bd
       -0.0019548184 0.013019533 -0.17935039 -0.04136391
0001e0 55 30 a2 3d 90 f9 35 3e 46 f5 bf bc 11 0c 28 3d
       0.07919375 0.17770982 -0.023432385 0.041027132
0001f0 40 2e 1b bd d9 a6 d6 3b 59 2c 33 3d aa 74 ab bd
       -0.037885904 0.0065506515 0.043743465 -0.08371861
000200 aa 30 4c 3d cd 13 e2 3d 0b 4d 9b be dd 09 0b 3e
       0.049851097 0.11038933 -0.30332217 0.13577981
000210 ce 23 8a 3c 92 2c bd b6 2e 7c b6 3b d3 11 dd bb
       0.016862776 -5.6378276e-06 0.0055690026 -0.0067465096
000220 a5 16 b6 3d 7d 79 df bc 22 74 1c bd 28 aa 05 3f
       0.08891038 -0.02727961 -0.03819669 0.5221276
000230 00 78 46 be d7 58 ab 3b 46 ec a8 be 51 7a 0e 3c
       -0.19381714 0.0052290964 -0.32992762 0.008696155
000240 3e 21 ba bb 2d 4d a6 bd c8 00 fd 3c 97 96 e2 ba
       -0.0056802323 -0.08120189 0.030884162 -0.0017287311
000250 16 5c c1 be 7a 8b 06 3e 79 1d 3a 3d 5b c9 78 3e
       -0.37765568 0.13139144 0.045438264 0.24295561
000260 7f d3 0b bd bd c2 3e 3d c3 2b 23 bc c0 a1 06 3d
       -0.034137245 0.046572436 -0.009959164 0.0328691
000270 6e 14 9d bb ad 81 39 be 7c aa c7 3c 83 b7 1c bd
       -0.004793695 -0.18115874 0.024373285 -0.038260948
000280 ca da f1 3d fa e0 00 3d 7f 87 02 bc 52 a8 96 3e
       0.11809309 0.031464554 -0.007966875 0.29425293
000290 e2 52 c6 bb 98 72 e0 3d 67 99 42 be cc b6 42 3e
       -0.006052361 0.10959357 -0.19003831 0.19015044
0002a0 c5 a1 2d bd 8e 39 96 be 33 7a 69 bd 54 44 f7 3c
       -0.042390604 -0.29340786 -0.057001304 0.030183949
0002b0 ac d4 bc bd 14 47 64 3d 62 e9 30 be d5 75 51 be
       -0.092202514 0.055731848 -0.17276528 -0.20455106
0002c0 16 00 03 3e 56 9f 5e 3c 9f 75 1a 3e a9 8c 8e 3d
       0.12793002 0.013587793 0.15083931 0.069604225
0002d0 95 f9 4d bb 9a f4 26 be 4d 14 e6 bc 45 aa 20 be
       -0.003142928 -0.16304246 -0.028085852 -0.15689953
0002e0 4b 2f 1a 3e f4 6a 1a 3e e8 26 0a 3d d7 61 cd 3c
       0.15057103 0.15079862 0.03372851 0.025071068
0002f0 1d 38 43 3c 1f 95 64 bc 26 2c 83 3d 9f f0 a9 bc
       0.011915234 -0.013951569 0.06404905 -0.02074462
000300 4e 08 6c bd c1 7d a4 3d 86 9e 71 be 75 16 6d 3c
       -0.057625107 0.08031798 -0.23595628 0.014470686
000310 be 81 bd 3d b6 4f 85 3d 9a 7e ce bd 57 63 2b bd
       0.09253262 0.06509344 -0.10082741 -0.041842785
000320 17 3b db bd 6e 92 f0 3d 22 4b c3 3e 4b 23 f9 3d
       -0.1070463 0.11746679 0.3814326 0.12164935
000330 34 83 86 3c 7f 71 87 be dd a1 b1 bd 20 6b e5 3d
       0.016419984 -0.26453778 -0.08673451 0.11202073
000340 81 d3 8a bb e5 39 08 3e de 8a 06 be 66 19 b1 be
       -0.004236639 0.13303335 -0.13138911 -0.3458969
000350 51 f1 24 3e 89 ee 80 bc ac ba 16 3d 4a 7d fe 3c
       0.1610768 -0.015738742 0.036799118 0.031065602
000360 2c cb 9b bb 92 00 82 3e 5a 79 c3 bc 46 b1 59 bd
       -0.0047544446 0.2539106 -0.023861576 -0.053147577
000370 1d 54 16 3e d8 07 62 be b7 9a 43 bc b5 5b b4 bd
       0.14680524 -0.22073305 -0.011938742 -0.08806554
000380 74 7c 80 3b b3 ba 00 3b be 82 fd 3d 27 28 a8 3c
       0.003921086 0.0019642531 0.12378453 0.020526959
000390 64 9c 9b bd b3 27 a1 bc 4d 9e bc 3d dc ed f3 3c
       -0.075981885 -0.01967225 0.09209881 0.029776506
0003a0 96 1f 1c be c6 92 c4 bc 91 30 30 bd 95 13 62 be
       -0.15246424 -0.023995768 -0.043015067 -0.22077782
0003b0 35 73 d6 bd 95 db 37 bc 0b b6 c0 3e a7 30 d1 bd
       -0.10471193 -0.011221786 0.37638888 -0.10214358
0003c0 36 f8 14 bd 0e 5b 0e 3e 61 72 d7 3b 32 3b 89 3c
       -0.036369525 0.13901922 0.0065749143 0.01675186
0003d0 47 ad 82 3d a4 d7 11 3c 4d 48 3e 3d 9b c2 c2 be
       0.06380706 0.00890151 0.04645567 -0.38039097
0003e0 1a 84 69 3e c4 5a ee 3d 5e 5e 54 be b0 45 9d 3d
       0.22804299 0.11638406 -0.20739123 0.076793075
0003f0 59 e7 63 bd b9 c3 cb bb 82 64 1d bd f2 db 31 be
       -0.055640552 -0.0062184003 -0.03842593 -0.17369059

head.0.bias f4 [36]
000000 87 00 6e bf 63 a5 ca 3c 31 2b c0 bf 1b 08 5b be
       -0.92969555 0.024737066 -1.5013181 -0.2138981
000010 aa a1 45 3f 9d f1 42 3e fc ed 4f bf 8a 77 b1 be
       0.77199805 0.1903748 -0.8122251 -0.34661514
000020 05 a7 1d 3f 90 8e 10 3f 6b e4 d9 3e f7 df 06 3f
       0.61582977 0.56467533 0.42557082 0.52685493
000030 ee 3c 6e be 1d 1e 8c 3e 2c 3a df be 02 68 fd 3b
       -0.2326543 0.27366725 -0.4359907 0.007733346
000040 3b 60 94 be 5d bc 42 3e 99 ff b6 bf ae 81 66 3d
       -0.28979668 0.19017167 -1.4296752 0.056276016
000050 b2 8e b6 be 92 03 06 be a6 3d 98 3f a0 5e 21 be
       -0.35655743 -0.130873 1.1893814 -0.15758753
000060 86 a9 09 3f 88 71 62 be 8c 71 1b 3f 7d ad 14 3f
       0.537743 -0.22113621 0.60720134 0.5807722
000070 6e db e3 bc 9b e8 9b be 57 fa 91 bf 69 4d 7b 3f
       -0.027814593 -0.304509 -1.1404523 0.98164994
000080 9d da 49 3e 94 d6 a2 3e cd 70 24 3f 80 1b c0 be
       0.197123 0.31804335 0.6423462 -0.3752098

body.0.body.0.widen.weight f4 [64, 36, 1, 1]
000000 38 14 0a bc be 12 0e bd 94 d4 2f 3e 19 a4 0b 3e
       -0.008427672 -0.034685843 0.17170936 0.13636817
000010 2f d0 d1 bc 12 d8 cc 3d 2e 0a 85 bd 3f 96 90 3d
       -0.025611965 0.1000215 -0.06496082 0.07059907
000020 cb a5 31 3c f3 9f f7 3c eb 75 1d 3d ed 88 a8 be
       0.010842751 0.030227637 0.038442533 -0.32916966
000030 b7 d1 6c 3e b6 8e 16 3c 1e 07 8f 3d bc a8 b0 3e
       0.23126875 0.009189298 0.06983779 0.34503734
000040 ee 04 7f be 19 13 26 3e 4e 4d 02 ba 1a 63 0e 3e
       -0.24904224 0.16218223 -0.0004970626 0.13904992
000050 52 7c 1d be 94 f4 4e 3e dc d0 53 3c 29 53 6f bd
       -0.15379456 0.20210487 0.012928214 -0.058428917
000060 8d fe 46 bd 1b 00 fe bb 2e 84 a9 bd b3 74 b3 3e
       -0.048582602 -0.0077514774 -0.082771644 0.35049972
000070 0a 56 e7 bd 93 b3 cb bd c0 f9 02 be e2 2b 73 3e
       -0.112957075 -0.099463604 -0.12790585 0.23747209
000080 10 d1 5f 3e fa 0e c4 3e a5 a8 85 be 4b 78 8e 3c
       0.21857095 0.38292676 -0.26105228 0.017391345
000090 07 ac 9f 3d 5b 1d 96 3e 49 f8 41 3d 54 97 e4 3d
       0.077964835 0.2931927 0.047355924 0.11161676
0000a0 e3 45 9b bd 72 48 1b be 46 61 95 bb 86 88 de bd
       -0.07581689 -0.15164354 -0.004558715 -0.108658835
0000b0 b9 56 09 3e d5 9f 37 3e 19 31 3d bb 42 ab 0a be
       0.13411988 0.17932065 -0.0028868376 -0.13541892
0000c0 e2 8a 38 bc 7e 1d 85 3e 5e 34 09 bd 1d 1c 7f be
       -0.011263581 0.25999063 -0.033497207 -0.24913068
0000d0 1e 1b 0b be d5 c9 2d be 18 ed 1f be e7 bb 51 3e
       -0.13584563 -0.16971524 -0.15617788 0.20481835
0000e0 e2 32 a6 3c b1 ed 25 be e4 fd 00 bd ed e9 81 bd
       0.020287935 -0.16203953 -0.03149213 -0.06343446
0000f0 80 f5 06 3e 32 99 77 3e 64 9e ae 3d 0e 74 b7 3d
       0.13179588 0.24179533 0.08526304 0.089576825
000100 1e 4f de 3a b5 ba df 3c d9 0c a2 3d 2e 16 9a bc
       0.0016960835 0.027310709 0.07912607 -0.018809404
000110 98 ca 2a bd 7b ba 2a 3e 3b 75 d2 3c bd f0 27 b9
       -0.041697115 0.16672699 0.025690665 -0.00016016043
000120 62 d4 f2 3c 92 d7 ae 3c fa 3f 17 3e 7b da 2a 3d
       0.029642288 0.021343026 0.14770499 0.041712265
000130 84 7f 05 3c 98 9b bb 3d 60 fe b0 be fd d4 82 bd
       0.008148078 0.091605365 -0.34569073 -0.063882805
000140 f7 28 37 3b 12 e0 ab bd 29 3e cf 3d 92 47 50 bd
       0.0027948 -0.083923474 0.10119278 -0.050849505
000150 32 1f 97 bd 14 f7 5c 3d a4 4b 71 be 09 12 37 3e
       -0.07378997 0.05394657 -0.23564011 0.17877974
000160 af ec 8b be bd 33 dd 3d 8e a0 b9 bd 97 0d 36 3e
       -0.27329013 0.10800884 -0.090638265 0.17778622
000170 94 a3 83 3e 2f 44 fe bc 06 42 45 be 73 e8 5c 3d
       0.25710738 -0.031038372 -0.19263467 0.05393262
000180 45 d5 63 3d d4 e8 b0 bd 89 3b a5 3c f3 1d 90 3e
       0.05562331 -0.086381584 0.02016999 0.2814785
000190 46 ea 1f 3d 42 8a 91 3c 14 2a 3b 3d 50 8c c6 3e
       0.03904178 0.017766122 0.045694426 0.38778925
0001a0 5f 44 9b 3d 01 e6 78 be 10 ac 0a 3e ab 3d 1b bc
       0.075814 -0.2430649 0.13542199 -0.009475152
0001b0 86 af 88 bd 2c b9 35 3e 49 43 96 3e 8b a9 17 bc
       -0.066741034 0.17746419 0.2934821 -0.009256731
0001c0 61 02 2f 3d 00 93 d0 bc 89 15 91 3e b9 a3 c9 bd
       0.042726878 -0.02546072 0.28336743 -0.09845681
0001d0 d6 95 b1 3e 06 ab 02 bd 28 1d ce 3e e0 3b 09 be
       0.34684628 -0.031901382 0.4025662 -0.13401747
0001e0 54 27 90 3d 76 0d 8d 3d b3 c1 2d 3e 5d 69 04 3e
       0.07038751 0.06887333 0.16968422 0.12930818
0001f0 10 e1 e6 3e cc c2 7d 3d d6 8d 1c bb 20 60 0b be
       0.45093584 0.06195335 -0.0023888252 -0.13610888
000200 df 8f db bd 2b 15 01 3d 47 15 53 3e 6d f3 8d 3e
       -0.107208006 0.031514328 0.20613585 0.27724782
000210 30 30 92 bd 63 12 fa bc 1a 94 8d 3b bc d4 b6 bc
       -0.07138097 -0.030526346 0.0043206336 -0.022318237
000220 22 d3 e4 bc a4 12 bc bd ec 50 2c bd b2 18 52 bc
       -0.027932707 -0.09183243 -0.04206936 -0.012823271
000230 03 8f e2 bb ba c6 83 3b a6 82 9e bd dd e4 81 3e
       -0.006914021 0.004021493 -0.07739763 0.2536992
000240 c9 fb 98 3e 5d a2 cb bd 99 f5 95 bb 21 29 cc bd
       0.29879597 -0.09943078 -0.0045763967 -0.09968782
000250 3d 73 ce bd 7e 22 de 3d 3e f6 b4 3d a0 49 03 3e
       -0.10080574 0.108464226 0.088360295 0.12821054
000260 4f 6f 8b be ac 5a 51 bd 66 67 29 3e 82 f1 75 3a
       -0.2723336 -0.051111862 0.1654335 0.0009381996
000270 8c 82 a5 3e d3 fa 40 3e 9e e8 0e 3e bf fc df 3c
       0.32326162 0.18845682 0.13955924 0.027342198
000280 06 c2 e6 3d eb ca 40 3e 19 85 88 bd 48 ad 05 3e
       0.11267476 0.18827407 -0.06666011 0.13054383
000290 b5 90 b2 3c a4 c0 d3 3d 46 be 65 bd 8b b3 a4 bd
       0.021797517 0.10339478 -0.056089662 -0.080420576
0002a0 ff 30 a4 3d 24 2c cf 3d 46 89 6c 3e 2f c4 a3 bd
       0.08017158 0.10115841 0.2309924 -0.079964034
0002b0 71 5c 7f be 4b c9 c9 bc e5 86 b5 bd e9 ba ae bd
       -0.24937607 -0.024632117 -0.0886362 -0.08531744
0002c0 7a 38 b2 3b 48 22 a0 3c 05 b5 1d 3e 3a 20 97 bd
       0.0054388614 0.019547597 0.15401085 -0.073791936
0002d0 11 ba 49 3e c0 37 9a 3e 82 3d 84 3d 20 c1 59 3e
       0.19699885 0.3012066 0.06457044 0.21265078
0002e0 46 84 bb bc b3 fa 16 3e 3e 6b 89 be da 74 32 bd
       -0.022890221 0.14744072 -0.26839632 -0.04356847
0002f0 43 9f 78 3e 10 6b de be c8 5b da be 54 f9 75 3e
       0.24279504 -0.43441057 -0.4264815 0.24020892
000300 26 54 10 3e ab b6 3d be 7f a2 6d 3e 81 cf 7b bd
       0.140946 -0.18526714 0.23206519 -0.061477188
000310 eb 04 37 be 4d b7 c4 bd 3e cc 34 3c d4 7a 14 bd
       -0.1787297 -0.09605274 0.011035023 -0.03624995
000320 1c ab 23 3e 71 61 0d be e5 0a c7 3d cb 71 c1 bd
       0.15983242 -0.13806702 0.09718875 -0.094455324
000330 85 96 28 3d 9e 4e 33 3d 0b 8b a9 3c 23 62 91 be
       0.04115917 0.043776147 0.020696184 -0.28395185
000340 f5 de c1 3d 3b 92 b9 bd 4e 3e 16 3e 77 12 b9 3d
       0.09466354 -0.090610944 0.14672205 0.09036725
000350 2b 5d 84 3c 37 f3 8b 3e 73 87 e2 3d a9 be 99 bd
       0.016157707 0.27333996 0.11060991 -0.07507069
000360 9d 4b e6 be 5a 5f a9 bd 97 87 fc 3d 0f 6f 36 be
       -0.44979563 -0.0827014 0.12330549 -0.17815803
000370 44 3d 60 bd d9 35 db be cf 01 93 bd 5e 99 61 3e
       -0.054745927 -0.4281452 -0.07178079 0.22031161
000380 4a 05 b0 bc 25 f4 c5 3e f9 94 f2 3d f4 f9 9f be
       -0.021486897 0.3866283 0.118448205 -0.31245387
000390 12 94 86 bd 81 36 02 be 4a 75 6a bc be e4 c3 3b
       -0.06571211 -0.12716104 -0.01431019 0.005978196
0003a0 c9 f0 d7 3e a6 16 47 be 45 4f 2e bc 74 cb a5 3d
       0.42175892 -0.19442233 -0.0106390165 0.08095446
0003b0 92 e6 b8 be 9f d9 e7 bb cc 14 3c 3e 05 2c 20 be
       -0.3611341 -0.007075503 0.18367308 -0.15641792
0003c0 89 aa 9c 3d b4 45 69 bc 5b 8e 70 3d 11 a9 a2 bd
       0.076497145 -0.01423781 0.05872951 -0.07942403
0003d0 08 6d 93 ba fb ca 05 3e e6 57 04 be 36 11 fd 3c
       -0.0011247704 0.13065712 -0.12924156 0.030891996
0003e0 98 cb ab 3e 1f 1a 11 be df 41 71 3e cc 32 6e 3e
       0.33553767 -0.1417012 0.23560284 0.23261565
0003f0 87 c3 02 3c e1 d3 74 3e 1f 6f f9 bd 6d ac 47 3a
       0.007981188 0.2390895 -0.12179398 0.0007616941

body.0.body.0.widen.bias f4 [64]
000000 4e 22 22 bf c6 5d c4 be ce 48 24 bf 97 91 34 3f
       -0.63333595 -0.38352793 -0.6417359 0.7053465
000010 f1 d6 e8 3e 0c f3 1d 3d 00 d0 0f 3f d4 d8 d6 3e
       0.45476487 0.038561866 0.5617676 0.41962302
000020 98 34 06 3e cd 68 d1 be cb 55 e2 bf 55 85 d3 3e
       0.13106 -0.4090027 -1.7682432 0.41312662
000030 7f 33 e4 bd 64 f6 bb 3e 25 5f 1e bf df 8e e0 3e
       -0.111426346 0.3671142 -0.6186393 0.43859002
000040 74 90 4f c0 37 03 80 3d ec a7 30 bf d2 cc 19 40
       -3.2431917 0.06250613 -0.6900623 2.4031262
000050 5a 55 22 40 7a 09 f3 3f 78 91 10 c0 4e db 00 bf
       2.5364594 1.8987267 -2.2588787 -0.5033463
000060 88 d3 35 c0 dc d1 c2 3d 3f 30 15 bf bd 8e 09 3f
       -2.8410358 0.09512684 -0.5827674 0.53733426
000070 44 5f a9 bf 10 ac 8e 40 0e 27 78 40 eb a5 fd bf
       -1.3232198 4.4585037 3.8773837 -1.9816259
000080 15 8d 00 bf 70 ae 1e be 32 ab 43 bf 45 a9 21 3f
       -0.50215274 -0.1549623 -0.764331 0.6314891
000090 0d 22 78 3f 3f aa 01 c0 fc ee cb be 68 9d b8 3d
       0.9692696 -2.026016 -0.39830768 0.09014398
0000a0 58 39 09 3f e3 fb ea be 80 bd e8 bd 23 38 e1 3f
       0.53603125 -0.458953 -0.11364269 1.7595257
0000b0 40 bc 7c bc eb db 94 be bb fb 95 3f c9 75 25 3f
       -0.015425742 -0.29074034 1.1717447 0.6463285
0000c0 7d 4f 06 bd e2 f2 4a 3f a0 9f d4 3f 9f ec fc bf
       -0.03279065 0.7927686 1.6611214 -1.9759711
0000d0 77 1c fa be 50 00 88 3d 1e a2 2c bf 70 3e 1f c0
       -0.48849842 0.066406846 -0.6743487 -2.488186
0000e0 4a 90 b6 3f c4 8d 97 be d4 90 fa 3f 4c 11 86 3f
       1.4262784 -0.29600346 1.9575448 1.0474029
0000f0 28 10 19 c0 8c d6 9c bf fa 39 a6 be 62 c5 35 bf
       -2.391611 -1.2252975 -0.32466108 -0.7100431

body.0.body.0.b1.weight f4 [16, 1, 3, 3]
000000 a8 f8 0d bc 14 b4 ca bc 85 e0 21 3d 28 42 3a bc
       -0.008665241 -0.024744071 0.03952076 -0.011368312
000010 63 db 2d 3d ff 23 63 3e 05 5c 73 3a 4c 15 03 3d
       0.04244555 0.221817 0.00092834263 0.032002732
000020 58 43 e4 3c 89 7c 88 bd d3 ff c5 bd bc 43 04 be
       0.027864143 -0.06664378 -0.09667935 -0.12916464
000030 04 63 04 be 3e c3 a8 ba 3c 4f a6 ba 8d 13 3b 3c
       -0.12928396 -0.001287557 -0.0012688409 0.0114182355
000040 1b 38 5b bd ac 9b ad bd 50 aa b9 3a 52 f8 b5 3b
       -0.053520303 -0.08476958 0.0014165137 0.0055532837
000050 46 ca e3 ba 47 69 11 3d 42 c5 89 3e b1 c2 9c 3b
       -0.0017379008 0.03550079 0.26908308 0.004783951
000060 d6 a1 0e bb 1e 6a 7f 3c ca 57 33 3c 70 66 c2 3b
       -0.0021763942 0.015589265 0.0109462235 0.0059326217
000070 f0 d2 bb bc 37 de 56 3c 84 4f e8 ba 68 dd 4a 3c
       -0.022927731 0.013114504 -0.0017723893 0.012381889
000080 19 25 4d bc c6 ff 40 bd 28 76 72 be a6 00 81 bd
       -0.012521052 -0.047118925 -0.23677886 -0.06298952
000090 84 95 98 3b 93 2e 74 bc 87 1b 4a bb f4 df 62 3e
       0.0046564955 -0.014903682 -0.0030839161 0.22155744
0000a0 3f 06 72 bd 03 47 96 bb 9f c4 f4 3d 32 3b bf 3d
       -0.059087988 -0.004586102 0.11951565 0.093374625
0000b0 8f 8f c7 3b 8c e6 66 3d 3d c5 90 3c f5 dc 19 3c
       0.0060901116 0.05637221 0.017672176 0.009391059
0000c0 7f 90 3d 3e 24 12 07 3e d8 6a 0c bd 66 6f c1 bb
       0.18512152 0.13190514 -0.03428158 -0.0059031723
0000d0 5b 97 8d 3c 01 bd 86 3c 3c 93 41 bd 74 f9 13 be
       0.017284086 0.016447546 -0.047259554 -0.14450628
0000e0 5e 5b 80 bd 4f d0 8e 3b 82 df d9 bd 9c ae b5 ba
       -0.06267427 0.0043583284 -0.10638334 -0.0013861242
0000f0 b1 d4 25 3c 60 fa d1 bc 85 73 08 3c d9 8d b9 bc
       0.01012151 -0.025632083 0.008328323 -0.022650646
000100 7d 79 d8 3d 76 ba b2 bc 48 37 3a bd 99 2e 96 bc
       0.10570047 -0.021817427 -0.045462877 -0.018332766
000110 e4 70 02 bd a9 54 6b bd 32 15 59 be 84 6a cb 3c
       -0.031845942 -0.057453785 -0.21199492 0.024831064
000120 c4 d0 df 3b f4 0f 2b bd 12 88 2f bb 6a cd e9 3c
       0.0068303067 -0.04176326 -0.0026783985 0.028540332
000130 a1 87 bc be dd 77 2d 3b 4d 4a 7d bb 3e f7 09 bd
       -0.36822227 0.002646915 -0.0038649023 -0.033683054
000140 93 05 69 39 f3 24 d5 3c 28 f9 1d bd 0f d3 5f 3a
       0.00022222688 0.026018595 -0.038567692 0.0008538225
000150 60 65 a5 bd 93 62 44 be 97 f8 c3 bd 44 cb 2f 3d
       -0.08075976 -0.19178228 -0.09568899 0.04291846
000160 63 e6 61 ba 07 6b 34 39 8e 93 ea bc d3 7c a6 bc
       -0.0008617399 0.00017206008 -0.028634813 -0.020323193
000170 e6 b1 eb 3b 09 5d c6 3d 6a 90 3f 3e 19 83 57 be
       0.007192838 0.09685714 0.18707433 -0.21046104
000180 a9 5e f7 bb a4 fc 80 3c 9c ae 33 bd b6 4f 8a bc
       -0.007549126 0.015745468 -0.043867692 -0.016883712
000190 73 32 82 bd a4 f0 f3 bc 1e e2 a0 bd 5f b5 42 bd
       -0.06357279 -0.029777832 -0.078556284 -0.04753625
0001a0 1e 76 4c bd e4 52 10 bd 62 e3 72 bd 7f 56 0d bc
       -0.049917333 -0.0352353 -0.05929888 -0.008626579
0001b0 29 f4 67 3c 16 b2 de bd c1 6f e6 3c d9 4d 7a bd
       0.014157333 -0.10873811 0.02812946 -0.061109398
0001c0 b0 f1 8b 3d cf 46 65 bd c7 69 4d bd a6 92 12 be
       0.068332076 -0.05597573 -0.050149705 -0.14313754
0001d0 7c b6 a7 bc 0f c9 6d bc 0a b2 be 3d 59 a9 99 bd
       -0.020472758 -0.014513268 0.09311302 -0.075030036
0001e0 e9 7f aa bb c4 8e ab 3d 04 9b d7 3d f3 92 76 3c
       -0.0052032364 0.0837684 0.10527614 0.015049684
0001f0 1a 5c 00 3d 9e f6 a3 bc c5 63 9a 3d 3d 81 f5 3d
       0.031337835 -0.020015057 0.07538561 0.11987541
000200 5e 33 cb 3d 29 34 e8 bd 90 41 2f 3d 28 12 13 bd
       0.09921907 -0.11338074 0.042787135 -0.035905987
000210 67 43 73 bc 5c 53 da 3c 66 9e 9e bc ac 97 3b bd
       -0.014847613 0.026651077 -0.01936264 -0.045798942
000220 41 bc 00 bd 26 21 1c 3b a1 22 0d bd 8c 3f b0 be
       -0.031429533 0.002382347 -0.034456853 -0.34423482
000230 f7 83 d4 bd 92 7f 6c bc 82 a4 6a bd d7 7c a2 bc
       -0.10376733 -0.014434712 -0.057285793 -0.019834919

body.0.body.0.b1.bias f4 [16]
000000 7f f7 ec 3a a3 a3 2a 3f 54 a5 c6 be 61 88 64 3e
       0.0018079131 0.6665594 -0.3879801 0.2231765
000010 bb c2 c8 3d 3c a5 cf 3e 0e 0b 38 3e ae 30 aa 3c
       0.09802767 0.4055575 0.17972967 0.020775165
000020 0d d9 c1 bd 25 6a da 3e 3d 3e 3e be 6e 43 ab be
       -0.09465227 0.42659107 -0.1857843 -0.33449882
000030 85 32 2e bd a6 3b 3f bc 4e 76 59 be b4 9c fc be
       -0.042528648 -0.011671936 -0.21236536 -0.49338305

body.0.body.0.b2.0.weight f4 [16, 1, 3, 3]
000000 29 3c 5a 3e ba da d0 bc d6 85 08 3d 71 b3 42 bc
       0.21312012 -0.025494922 0.03333076 -0.0118836025
000010 f1 77 3d 3d 70 bb 87 3c 9d af 92 3d ce 3d a5 bb
       0.046256963 0.01656887 0.07162402 -0.005042768
000020 bb e6 13 3c 10 a6 9d bb e8 5e 76 3c f6 17 66 3c
       0.009027178 -0.004811056 0.015037276 0.014043799
000030 a2 12 ad bc da bc e9 3c 3d d1 1a 3e 65 a8 49 bb
       -0.021127049 0.028532434 0.1511888 -0.0030770537
000040 eb 5b 46 ba 97 f9 a3 bb 3c 69 ae bb 94 08 5b bd
       -0.00075667974 -0.0050041187 -0.0053226035 -0.053474978
000050 a8 80 99 bb d5 23 f9 bc 31 17 79 be 0a 9e 7b bd
       -0.0046845265 -0.030412594 -0.24325253 -0.061430015
000060 ce ff d0 3c bf 8d 33 3d b0 2d aa 3c 98 de 34 bc
       0.025512602 0.04383635 0.020773739 -0.011039399
000070 e3 46 17 3c 18 7f 8d 3a 62 48 d7 3c 27 77 9f be
       0.009233209 0.0010795323 0.026279632 -0.31145594
000080 87 7b 8f 3c 9b 47 81 bc 0b 7b 05 3d b0 95 f5 bb
       0.017514957 -0.015781214 0.032588046 -0.007494651
000090 5a f4 91 ba f4 98 c7 bd 39 ce ae bd f8 ef ad bc
       -0.0011135445 -0.0974597 -0.085354276 -0.02123259
0000a0 84 09 29 3e ce ed fb bd 57 ff 26 3b 42 25 8e bd
       0.16507536 -0.12301217 0.0025481784 -0.069407
0000b0 c6 20 28 bd 6b 78 8f bc db 1a 7b 3c 0e df 13 bb
       -0.04104688 -0.017513474 0.015326227 -0.002256337
0000c0 29 bb d6 b9 de f1 8f be 75 69 61 bb f2 e5 b1 bb
       -0.00040956706 -0.28114218 -0.0034395133 -0.005429023
0000d0 6f 01 19 bb cf 44 8e bb d6 30 0c bb 4f 00 95 bb
       -0.0023346802 -0.0043416987 -0.0021391413 -0.004547156
0000e0 b4 9e d6 3a 36 0a f5 3b 82 a0 46 be 84 0a 02 3b
       0.0016374202 0.007478024 -0.19397166 0.0019842694
0000f0 e6 66 d6 bb 55 a9 2e 3c 08 33 f3 bb 12 54 76 bb
       -0.006543028 0.010660489 -0.007421855 -0.003758673
000100 11 83 43 bc 32 33 73 bb 8b 35 e1 3b be 73 59 bc
       -0.011933104 -0.0037109372 0.006872838 -0.013272224
000110 b1 ab 53 bb 89 31 06 bd ba 55 fe bd 8e b1 81 bb
       -0.003229838 -0.032762084 -0.12418695 -0.0039579337
000120 f6 a0 ee 3c 5d 5f d9 bb 21 6c be 3c 3d fe b8 3d
       0.029129487 -0.0066336826 0.02324492 0.09032867
000130 5a 07 80 bd c0 53 fa 3d e4 05 3c 3d 1a fe 37 bd
       -0.06251402 0.12223005 0.045904055 -0.044920065
000140 4e 76 10 3d 5f 80 14 bd 15 e4 da 3d fb cc b9 bc
       0.035269074 -0.036255237 0.106880344 -0.02268075
000150 72 9a dc 3d 8b 5d 5c be c0 06 bb 3d 10 ce 26 bd
       0.107716456 -0.21520059 0.09132147 -0.04072386
000160 13 8d c5 3d 76 fb d2 bc e3 d0 48 bd df af 58 3e
       0.096460484 -0.025754672 -0.049027335 0.2116084
000170 fb d3 96 bc 97 7e c4 bb d3 e2 76 3c 3f 4e 53 bc
       -0.018411627 -0.005996536 0.015068728 -0.012897073
000180 d9 57 f0 bb 72 25 75 3b 70 56 17 38 36 48 34 bc
       -0.007334691 0.0037406352 3.6081707e-05 -0.011003545
000190 fd 0a 4b ba 53 3e cc bc e9 bc 76 3c 59 95 3b bd
       -0.0007745473 -0.024932062 0.015059688 -0.045796726
0001a0 43 ac 8d 3e 97 ae ad ba e4 84 8e 3c 4b 8d be bc
       0.27670488 -0.0013250884 0.017397352 -0.023260733
0001b0 cf 45 7c bc 77 fd 10 3d f8 22 9f 3c a7 c4 cd 3d
       -0.015397503 0.035397973 0.019425854 0.10047274
0001c0 c5 7c e3 bc f6 37 4f 3d 99 1a 00 3c 30 08 b1 bc
       -0.027769456 0.050590478 0.007818841 -0.02161035
0001d0 cb cd 80 3d 6a f1 3e 3c a7 9f 84 bd ed be 1b bc
       0.06289252 0.011654237 -0.06475764 -0.0095059695
0001e0 42 3a 99 bb ee c2 a7 be 67 fc 3a bc a6 ce 17 bd
       -0.0046761343 -0.32765907 -0.0114127165 -0.03706231
0001f0 cb a4 25 3c 25 4a 96 bc 2c 12 d7 bc 3a ea 50 3d
       0.0101100905 -0.018345902 -0.026253782 0.051004626
000200 da 12 12 3c f4 dd 46 3d 28 29 80 be dd 74 a5 3d
       0.008915627 0.048551515 -0.250314 0.080789305
000210 f4 2b 28 bb 7f f0 91 3d a1 b7 27 3d 9d 5e 18 3c
       -0.0025660964 0.07125949 0.040946607 0.009299901
000220 2a 19 8c 3b 00 9d f6 3b d7 c3 14 3c 78 12 98 3e
       0.0042754607 0.00752604 0.009079895 0.2970159
000230 e5 9a d8 3b 3a 25 f8 bb fc 20 69 3b f1 d2 16 bb
       0.0066102617 -0.007572797 0.0035572639 -0.0023013914

body.0.body.0.b2.0.bias f4 [16]
000000 70 aa d4 bf f9 b8 46 3f 6a fb 99 3f a7 3a b4 bf
       -1.6614513 0.77625996 1.202985 -1.4080399
000010 fb f1 1b c0 f6 67 62 bf ec 79 38 40 33 1d cf 3f
       -2.4366443 -0.8843988 2.8824415 1.6180786
000020 3b 5c 21 3d 16 a7 92 be 1b 9a 39 bf ab 30 b1 3f
       0.0393946 -0.286431 -0.7250077 1.3842977
000030 08 63 a6 be f2 7a 7f c0 91 8a 8d be 3b 34 9d bf
       -0.3249743 -3.991879 -0.2764478 -1.2281564

body.0.body.0.b3.0.weight f4 [16, 1, 3, 3]
000000 9c 1e 1a bb 2d a2 b3 3b 15 91 ee bc e9 0d 8f 3a
       -0.002351678 0.0054819793 -0.029121915 0.001091418
000010 c3 75 d4 bb 5c a6 63 3e 47 5d 85 bb 31 f0 0b bc
       -0.006483765 0.2223143 -0.0040699574 -0.008541153
000020 00 28 03 3d 99 39 13 bc c7 db 3b bc a9 aa 2a 3d
       0.03202057 -0.0089859 -0.011465973 0.04166666
000030 7e 5a fe bc b0 b2 c7 bd 85 d8 7b bd 37 64 d0 3c
       -0.03104901 -0.09750879 -0.061485786 0.025438411
000040 bd 8d 5e bd 85 53 a3 bc b0 a8 7d 3d cf 59 57 3d
       -0.05433439 -0.019937286 0.06192845 0.052575883
000050 05 ca 38 3d f4 d8 38 3b d4 59 f5 3d f4 14 41 3d
       0.045114536 0.0028205486 0.11980024 0.047139123
000060 7e 05 14 3d 8d 12 bb 3c 2b 1c f5 3c 3a 7d 20 3d
       0.03613805 0.022835994 0.029920658 0.039181925
000070 5b ee b5 bd 08 72 2c b9 00 ea 0e 3e 16 c4 1a be
       -0.08883353 -0.00016445678 0.13956451 -0.15113863
000080 46 6a 8c 3c 74 5a 3d 3d d3 72 19 3c 0d eb 4e bc
       0.017140519 0.04622884 0.009365755 -0.012629283
000090 0c ae c7 bc 08 aa 43 3d ce dc 2f 3d 5b 7b 8d 3a
       -0.024374984 0.047769576 0.042935185 0.0010794209
0000a0 a9 4e 51 be a3 9f b3 bb 00 1c 5e 3d af c0 a4 3d
       -0.20440163 -0.0054816767 0.05422592 0.08044564
0000b0 fd 1b 01 bd eb e5 d7 3d 69 4b f8 bc c3 47 51 3d
       -0.031520832 0.105419 -0.030309396 0.051093828
0000c0 05 89 ae bc f2 ce f7 bc 7e d0 84 bc fc a0 68 3c
       -0.02130557 -0.030250046 -0.016212698 0.014198538
0000d0 3a 31 b7 ba 1f 61 1f 3d 82 6b 52 3e e9 13 ec 3c
       -0.0013976463 0.03891098 0.20548823 0.028818088
0000e0 c3 5a 78 3b da c4 80 be 8f 2e 1c be f1 3e 84 3c
       0.0037895895 -0.25150186 -0.15252136 0.016143294
0000f0 ad b8 26 3c 74 c3 a7 3c 83 dc c3 bb 7c 92 1e bd
       0.010175866 0.020478942 -0.005977215 -0.038713917
000100 c7 06 b5 3c de 7b 22 ba 21 8d b6 3c 2f 8f 2d 3e
       0.022097958 -0.0006198267 0.022284092 0.16949151
000110 5b fa 31 3d 06 f7 e0 bb 33 d8 4e 3d 66 f8 14 3c
       0.04345165 -0.006865385 0.050499152 0.009092426
000120 49 71 29 be 8d 63 81 bd 25 e6 9c bb ba 6c 0e 3e
       -0.16547121 -0.06317816 -0.0047881776 0.13908663
000130 52 a2 a3 3d 59 39 1c 3c cb da 96 bc 2a 48 6c 3c
       0.079899445 0.009535157 -0.018414875 0.014421502
000140 78 9b 1e bc 56 65 b2 bc 25 25 17 3d 82 32 71 bd
       -0.009680621 -0.021776836 0.03690066 -0.05888606
000150 d5 f6 72 bc 42 a1 ee 3c 75 a9 b9 bc 9b 49 81 bb
       -0.014829357 0.029129628 -0.022663811 -0.003945542
000160 e1 eb 12 3d 38 fc b6 bd bd 74 c2 bb 84 b7 68 3d
       0.035869483 -0.08934826 -0.0059343264 0.05681564
000170 a1 f9 85 3c 3b 8f 5e 3d 42 f4 d2 3e 64 20 b6 3c
       0.016354384 0.054335814 0.4120198 0.022232242
000180 33 68 32 bd ff 8f f4 be ff 85 03 bd 10 a7 af 3b
       -0.043556403 -0.4776611 -0.03211021 0.0053604916
000190 9c f1 6b 3c e7 d3 37 bc 24 fb 81 3b be 5b 6a 3b
       0.014400866 -0.011219955 0.003966706 0.003576025
0001a0 ab 1d 62 3e 28 2d 4c bb 94 6c d6 3b 0d 72 6d be
       0.2208163 -0.0031154845 0.0065437052 -0.23188038
0001b0 1b de d0 bb 30 a6 c1 3b 9b 74 a3 3c 15 44 85 3b
       -0.0063741333 0.0059097037 0.019953063 0.004066954
0001c0 0a e0 5a 3e 09 c2 27 bd 88 11 a4 bb f9 f5 08 bc
       0.21374527 -0.04095653 -0.0050069727 -0.008359426
0001d0 df 9b 89 3c 95 b6 75 bd 9e 6e 26 be 34 05 b9 3c
       0.016797958 -0.059988577 -0.16253135 0.022585489
0001e0 2d f0 71 3e da 45 1f 3d d3 36 7c bd 92 81 f4 bd
       0.23626776 0.038884975 -0.061575722 -0.11938776
0001f0 c3 5a 13 3e 3a 9b d8 b9 73 ff fe bb 09 c8 93 bd
       0.14390092 -0.00041314383 -0.0077819168 -0.07215888
000200 fe 6e 8d 3c d3 6c e9 3c d2 cd 30 be 3d 91 96 bd
       0.01726484 0.028494274 -0.17266014 -0.07351921
000210 bf 89 b5 bb 59 b7 6f bc 59 1a 0f bc 37 86 77 3c
       -0.0055401023 -0.014631116 -0.008734309 0.015107683
000220 3b cf cb bc 5d 6f 73 bc 03 f1 1c 3d 0d 71 5f be
       -0.024879089 -0.014858094 0.038315784 -0.21820469
000230 b0 cc 9c bc 17 96 4f 3c d8 59 84 bc fc 34 64 bc
       -0.019140571 0.012670062 -0.016156122 -0.013928648

body.0.body.0.b3.0.bias f4 [16]
000000 97 6f de 3f e4 ea 0f 40 aa 66 e7 be e7 73 aa be
       1.7377805 2.2487116 -0.45195514 -0.3329155
000010 d4 3c 69 bf d4 35 49 3f f1 a5 88 bf 19 1d eb bd
       -0.9110844 0.7859776 -1.0675641 -0.11480159
000020 03 00 82 3f 4d c2 10 3f 5b 02 6f 3f c3 9b db bf
       1.0156254 0.5654648 0.9336297 -1.715691
000030 b8 4e 83 bf 66 e3 a9 bf fe 9c 82 bf 8c 0c d5 3d
       -1.0258398 -1.3272521 -1.020416 0.10402784

body.0.body.0.b4.0.weight f4 [16, 1, 3, 3]
000000 c0 d2 3c 3d 83 b1 d0 bd 15 7d bb bc 50 c2 8f 3d
       0.046099424 -0.10190108 -0.022886792 0.07019484
000010 21 cc 0f 3e 62 d5 38 bd a6 7f 02 be a3 11 80 3d
       0.14042713 -0.045125373 -0.12744007 0.06253364
000020 48 86 ac 3c 0d 77 af 3c 81 98 b4 3c 5a 9a 57 3c
       0.021060124 0.021419073 0.022045376 0.013159359
000030 7d e3 12 3d 1d 4e 6b 3e 39 71 13 3d 2e 5e ab bc
       0.03586148 0.22979017 0.03599665 -0.020918932
000040 7c 1b 3f 3d 7e 75 cc 3c 5f 65 e4 3b f1 ed b6 bc
       0.04665707 0.024958368 0.006970092 -0.022330256
000050 32 e7 71 bd f0 86 e4 bc 6e a4 52 3e c3 8c 36 be
       -0.059058376 -0.027896374 0.20570537 -0.17827134
000060 08 65 7a 3c 3d d2 91 bc b4 d4 0e bd 2f 0b 90 3c
       0.015282877 -0.017800445 -0.03487082 0.017583458
000070 d7 a1 a6 bc ab cc 0e 3d 56 bd 2f 3d a3 19 69 3e
       -0.020340843 0.034863155 0.042905174 0.22763686
000080 fe bc be bb 47 fe a8 3c b7 b7 92 3c 33 12 30 bc
       -0.0058208695 0.020629061 0.017909868 -0.0107465265
000090 7e 98 65 3c 34 bd 4e 3e 6b 81 e1 3c ec e3 61 3d
       0.014013408 0.20189363 0.027527532 0.055149004
0000a0 21 2f c9 bd 81 95 07 3d 68 c9 f7 3b ac 0a e8 b9
       -0.09823442 0.033101562 0.0075618513 -0.0004425844
0000b0 49 d5 0d b8 aa 9a 5b 3d c2 83 90 3e c9 dc 86 bc
       -3.3815657e-05 0.053614296 0.28225523 -0.0164627
0000c0 77 09 2b 3d 83 73 dc bd a4 50 41 3d 4f 5c 03 3b
       0.041757073 -0.107642196 0.047196046 0.0020044034
0000d0 da 7d 94 bc ee f4 0c 3c ee 97 66 3c a0 27 72 bd
       -0.018126417 0.008603318 0.014074309 -0.05911982
0000e0 c4 9d 4c 3d cf 2a c2 bb 87 55 96 3c 15 64 cc bd
       0.049955145 -0.0059255133 0.01835133 -0.09980027
0000f0 3d a2 5a bc a5 35 79 bd ff 7d f8 bc e1 30 25 3d
       -0.013344345 -0.060842175 -0.030333517 0.040329818
000100 b9 cb 01 be ac 2a 20 3d 83 5d d3 bd cb 34 70 3e
       -0.1267537 0.039103195 -0.1032057 0.23457639
000110 f0 f3 f8 bd ac 17 0e 3d ee 03 b5 bd f2 cd fc 3c
       -0.121559024 0.034690544 -0.0883864 0.030859921
000120 e2 ee ac 3c c8 2d 1c bd 20 01 83 bc e0 9a c8 bd
       0.021110002 -0.038129598 -0.015991747 -0.09795165
000130 20 8e f1 bd de 6c 1c 3c b2 16 25 bd 55 a1 6e 3d
       -0.11794686 0.00954744 -0.040304847 0.058259327
000140 e8 47 2b ba ed 05 98 3c 58 7e 9b bb 23 39 30 3e
       -0.0006533847 0.018557513 -0.004745286 0.17209296
000150 f3 46 51 bc b2 bc 33 bd ae 38 bb bb 08 84 aa bb
       -0.012773263 -0.043881126 -0.005713544 -0.0052037276
000160 91 51 6b bc a0 07 08 3d c1 5a 63 bc 44 ee 65 be
       -0.014362709 0.033210397 -0.013876618 -0.22454172
000170 08 ce 62 3c d4 dd ef ba 96 24 69 3c 86 4c 81 bc
       0.013843067 -0.0018300363 0.014229914 -0.01578356
000180 30 e8 f7 b9 3a d5 e0 3a a1 a7 9c 39 d9 9f b7 bc
       -0.00047284504 0.001715339 0.00029879532 -0.022415088
000190 38 72 d1 bc ef b6 f9 bc 92 f6 3d bc 27 ff d1 bb
       -0.025567159 -0.030482737 -0.0115944315 -0.0064085904
0001a0 d6 f6 bc bb b5 bd 63 bd 5c ba 07 bd ab 13 a5 bd
       -0.00576673 -0.05560084 -0.03313671 -0.08060392
0001b0 a2 07 35 bd 00 3e 9f 3d b1 46 9d 3c 8c 92 cd 3d
       -0.044196732 0.077754974 0.019198747 0.10037717
0001c0 5d 59 af 3d 6f 22 b7 bc 91 ee 5c 3d 6e d5 97 bd
       0.085619666 -0.022355286 0.053938452 -0.07413755
0001d0 18 25 08 3c c6 a4 de 3a c3 04 0e bd b3 bc 36 bc
       0.008309625 0.0016986362 -0.03467251 -0.011153388
0001e0 ec 96 4a bd 80 78 71 bd df 21 a3 bc d5 10 79 bc
       -0.049460337 -0.05895281 -0.019913612 -0.015201767
0001f0 b7 e1 f0 bc 7c 57 9e bb e2 24 e1 3c 32 a1 80 bc
       -0.029404504 -0.0048322063 0.027483407 -0.015701864
000200 1d 8f d6 3d cb f5 cf bb 2e 89 4c 3e 35 2e 43 be
       0.104765154 -0.0063464395 0.19974205 -0.19060595
000210 f2 77 00 3d 62 a6 8e bd 1e a1 51 3d ef 02 14 bc
       0.03136439 -0.06965329 0.051179044 -0.009033903
000220 26 64 06 3e 13 53 f6 bc 3e fa 1e 3c 77 8c 00 be
       0.13124141 -0.03006891 0.009703217 -0.12553583
000230 4a 7a 01 be e7 39 16 ba 54 46 a4 bc e1 90 b8 3d
       -0.12644306 -0.0005730674 -0.020053066 0.090120085

body.0.body.0.b4.0.bias f4 [16]
000000 6b 7e e9 bf 32 32 bf 3f 65 1c 43 bf 47 72 0d c0
       -1.8241705 1.4937193 -0.762152 -2.2101
000010 6c c2 25 3f 26 c5 ef 3e ad fd 99 3f cb fd 8b be
       0.6474979 0.468301 1.2030541 -0.27342066
000020 3b b7 4a bf ef f1 5a 3f 21 7c 8c bf ba d4 99 3d
       -0.7918584 0.8552541 -1.0975381 0.075112775
000030 e1 f5 7f bf 7a 88 00 40 07 ef be 3d 90 d9 cd be
       -0.99984556 2.0083299 0.093229346 -0.4020505

body.0.body.0.sa.conv_y.weight f4 [16, 16, 1, 1]
000000 26 ab d9 bd 0c d7 fe bd 3f 81 11 3e 51 58 92 3c
       -0.10628347 -0.12443361 0.1420946 0.017864378
000010 a3 20 09 bd c0 10 36 be 98 05 2f 3c f0 e5 ee bc
       -0.03347839 -0.17779827 0.010682486 -0.029162377
000020 1c 2a b0 bc f8 78 d6 3c 6b cf 42 3d 76 5a cd 3d
       -0.021504454 0.02618073 0.04756109 0.1002702
000030 e2 40 2e bd a6 a0 5a 3d c0 51 d4 3d a8 2b b7 3d
       -0.042542346 0.053375863 0.10367155 0.08943874
000040 07 58 65 3e 5f f2 14 3d ef 87 47 3f 80 b9 c7 3b
       0.22396861 0.036363956 0.77941793 0.0060951114
000050 1e ac 12 3c 1b 41 bd 3d 09 39 ec bd de c2 25 3d
       0.008952169 0.092409335 -0.11534316 0.040469043
000060 0f f6 d0 3b 7b 88 a2 3d 62 25 9d bd 2f e4 bf bd
       0.0063769887 0.07936188 -0.07673146 -0.093696944
000070 a8 d4 58 3c 04 dc 31 bd d7 97 98 bd f2 f3 02 be
       0.013234295 -0.043422714 -0.07450836 -0.1278837
000080 3f 7b 37 3e 95 b2 be 3c 71 a8 72 be 54 f8 52 3d
       0.17918108 0.023278514 -0.23697068 0.051506355
000090 83 bb 55 bb a8 d8 3e be ef 8d 18 bd 8b de af bd
       -0.0032612986 -0.18637335 -0.037244733 -0.085873686
0000a0 a2 11 1e 3f cf 62 02 3e 97 54 92 3e 83 3e 8f bd
       0.61745656 0.12733005 0.28580162 -0.06994345
0000b0 d6 b1 99 bc 4c 79 0a bf 57 a6 87 be f6 50 36 3d
       -0.018761557 -0.54091334 -0.26494095 0.044510804
0000c0 40 0d 0b 3e 83 28 ce 3c 6f 98 e6 3d a6 8d 7c bd
       0.13579273 0.025165802 0.11259543 -0.061658524
0000d0 7d b8 22 bd e9 a4 9b bd 4e 2a 88 bd 58 7b bf bd
       -0.039726723 -0.075998135 -0.06648694 -0.09349698
0000e0 42 3e b8 be 43 ae e5 bc 16 1e dc 3d 1e 96 23 3e
       -0.35985 -0.028037196 0.10747926 0.15975234
0000f0 d8 f9 72 3c 9f 4d 49 3e 05 62 d2 bd b9 c2 2c bd
       0.014830075 0.19658516 -0.10272602 -0.04217789
000100 08 dd d1 bd b7 fd a8 be 9e ce e8 3c 4d 6b 3d bd
       -0.102472365 -0.3300607 0.028418835 -0.046244908
000110 06 47 91 be db c7 b1 bb dd d8 d4 bd 69 e4 a5 3e
       -0.283745 -0.005425436 -0.10392926 0.32400826
000120 29 6e d1 3d 9c 75 ee 3c bc 2a d2 3d f2 15 aa bd
       0.102260895 0.029108815 0.10262057 -0.08304967
000130 04 65 0a 3e 77 f2 3a bf 80 b7 8e 3d 15 71 fc bc
       0.13515097 -0.7302622 0.069685936 -0.03081564
000140 50 26 bd 3c 9a 5d 7b 3e 8b 22 cf bc 8e ce 46 3e
       0.023089558 0.24547425 -0.025285026 0.19414732
000150 f1 50 80 3e af b8 f2 bd dc 48 80 3f 45 86 ca 3e
       0.25061753 -0.11851632 1.0022235 0.39555565
000160 01 4e 94 bd 43 06 b5 3c 20 c5 78 bd 2f 8e a9 3d
       -0.072414406 0.022097712 -0.060734868 0.082790725
000170 8f ef 8f 3e db 0b 7f 3e d0 31 31 bd 06 df 59 3b
       0.28112456 0.24906866 -0.043260396 0.0033244505
000180 4d ed b4 3d a7 7f 62 3e 86 b3 c6 bd 90 f2 84 bd
       0.08834324 0.22119008 -0.0970221 -0.064915776
000190 9f d8 c0 3e 59 c1 e7 be e5 35 cf 3e 75 d3 31 3e
       0.3766527 -0.452647 0.40470806 0.1736582
0001a0 5a ff 0a bf 60 35 53 3d 33 e7 d6 3e 50 f3 f2 3d
       -0.54295886 0.051564574 0.41973266 0.118628144
0001b0 f5 71 78 3d f0 77 95 3e 3c 40 04 3e 1c 23 75 3e
       0.060655553 0.29193068 0.12915128 0.23939174
0001c0 60 96 f7 3d 03 d6 f9 bd 3d 16 83 3d f0 cc 4b be
       0.12089229 -0.121990226 0.06400726 -0.19902396
0001d0 01 12 39 bd 98 79 89 bd d4 60 3d bf 62 d2 27 be
       -0.045183185 -0.06712645 -0.73975873 -0.16388848
0001e0 e4 7d 01 bd 8c 5e 8a 3d 8e 99 c2 3d 11 9a e7 bb
       -0.0316142 0.06756315 0.095019445 -0.0070679267
0001f0 b0 a7 10 bd c9 75 d2 3d 2e 4d 02 3e 61 95 24 bd
       -0.03531617 0.10276372 0.12724754 -0.04018152
000200 b7 2d 4f 3d 0d 9a 0b bf 20 85 6f 3d 37 f0 34 bf
       0.050580706 -0.5453194 0.058476567 -0.7067904
000210 88 30 7e 3e 11 43 a2 bc 44 85 dd bd 5f 72 8f be
       0.248232 -0.01980737 -0.10816434 -0.28016946
000220 7e eb af be 60 d2 7a bc 49 a0 48 be f9 6c b0 be
       -0.34359354 -0.015308946 -0.19592394 -0.3445814
000230 11 10 40 bc fc 16 4f bd c8 21 42 3e 4b 77 e4 3d
       -0.0117225805 -0.05055903 0.18958199 0.11155566
000240 0d 29 64 3e 9b 65 52 3e 41 08 1a 3d db 93 d0 3e
       0.22281285 0.20546572 0.037605528 0.40737805
000250 31 f3 2f 3e a9 70 97 3c 9c 7a 7d 3e cb 2f 4d bd
       0.17182614 0.018486338 0.24753803 -0.050094407
000260 79 3f 85 be 52 09 91 3e 2f 25 b0 3e 59 0f 1d 3f
       -0.26024988 0.28327423 0.3440337 0.61351544
000270 b8 8d 75 3e 57 d1 54 3c de c1 e4 3d 0a 33 a3 3d
       0.23979843 0.012989364 0.1116979 0.07968719
000280 75 91 c7 3c 5f 83 41 3e 94 26 39 bd fc 54 f0 3d
       0.024361352 0.1889777 -0.045202807 0.117349595
000290 b0 30 14 3e 04 1f 56 be d1 89 5c 3c 9a c3 09 3a
       0.14471698 -0.20910269 0.013460592 0.0005255282
0002a0 c4 39 ce bc 50 26 53 ba 73 ba 2f 3f 83 c0 90 3f
       -0.02517403 -0.000805472 0.68643874 1.130875
0002b0 97 7d 16 bd 79 26 c9 bd 0c 2c 92 bd 74 51 07 be
       -0.036740866 -0.09821791 -0.071373075 -0.13214666
0002c0 58 88 30 be 2b 18 de bd f3 74 2d 3d d3 69 92 3e
       -0.17239511 -0.108444534 0.04234786 0.28596362
0002d0 86 93 09 3f 30 07 3c bc 3d ca e6 be 6e 4d 11 bf
       0.5374073 -0.011476323 -0.4507617 -0.56758773
0002e0 db 43 ec 3e e1 7d b2 3a a7 e9 09 3e 62 18 39 be
       0.4614552 0.0013617837 0.13468038 -0.18075708
0002f0 49 53 6a be 2d 8c ab bd 78 5a de 3e 40 22 90 bd
       -0.22883333 -0.08376346 0.43428397 -0.07037783
000300 68 5d b0 bc f0 f5 38 be bd 3e 2f 3e 5d ea 0d be
       -0.021528915 -0.18062568 0.17113777 -0.13858934
000310 3a 21 95 bd 1c 13 4c 3f 56 b3 e5 bd 8c c2 91 ba
       -0.07281728 0.7971666 -0.11215846 -0.0011120602
000320 a3 4b 62 bd 0c 45 72 3f 67 3e 3f be 08 ce dd 3d
       -0.055247914 0.9463661 -0.18676148 0.10830313
000330 81 9d f1 bd f9 cf 1b 3f 42 2d 94 3e 47 61 1d 3e
       -0.117976196 0.60864216 0.2894078 0.1536914
000340 1c 18 d7 3c 78 cd b9 be d6 ce 80 3d fa 5d c1 3b
       0.026256613 -0.36289573 0.06289451 0.0059010955
000350 96 d8 1b 3e 1d 92 97 3e 9b 50 a4 3f eb 41 8c 3d
       0.1521934 0.29603663 1.2837099 0.0684851
000360 41 39 bd 3e 79 b3 91 bd f8 c8 a5 be de 6d c2 3e
       0.36957744 -0.0711431 -0.3237989 0.37974447
000370 a1 20 86 3e b7 58 44 3f e5 77 94 3d dc e4 e2 3d
       0.2619677 0.7669787 0.072494306 0.11078808
000380 3e 87 86 3d 79 9e 04 be b1 91 3d be 35 96 b3 be
       0.06568764 -0.12951078 -0.18512608 -0.35075536
000390 aa e9 93 3d 0d 46 8c be 16 01 1a 3c 63 c5 80 be
       0.07222302 -0.27397195 0.009399673 -0.25150594
0003a0 f1 cb c5 3c a3 ff 24 be 8c 4a 49 bc 3b e7 5d bd
       0.024145098 -0.16113143 -0.01228584 -0.054175597
0003b0 60 ea c6 be e6 66 5e bd be 6d 93 be f6 d2 7c be
       -0.3885069 -0.05429735 -0.28794664 -0.2468985
0003c0 75 3c 97 3d 27 af 3d 3e ab 1d 82 3e 58 ea ad 3d
       0.07384578 0.18523847 0.2541326 0.08491963
0003d0 bc 2f 38 bc e3 0b 1b bc f8 5a 5e bf e7 fc 06 bd
       -0.0112418495 -0.009463283 -0.8685756 -0.03295603
0003e0 ef c2 b2 bc 6d 40 68 bd 5c 24 79 3e a1 d0 53 be
       -0.021821467 -0.056702066 0.24330276 -0.20685054
0003f0 d1 37 55 3d d9 59 8d bd d0 4f 36 3c fe 10 b8 3d
       0.052055184 -0.06901903 0.011127427 0.08987616

body.0.body.0.sa.conv_z.weight f4 [16, 16, 1, 1]
000000 53 5b e1 bd ce 6c 24 3d ab db 1f 3e 98 85 4d be
       -0.11003747 0.040142827 0.1561114 -0.20070493
000010 c5 6f 62 3d fd 33 96 bd 73 36 66 bc a9 90 15 bc
       0.055282373 -0.07334135 -0.014051068 -0.009128728
000020 e3 22 58 bb c4 89 46 3d d8 63 b1 3c be 9b 17 3d
       -0.0032979778 0.048471227 0.021654055 0.03701376
000030 5c 7f 1d 3d cf bf 22 3c be 2a ab 3d ba 80 72 3d
       0.038451537 0.009933426 0.08357762 0.059204794
000040 2d 56 cd 3d cd 0e 8d 3d d8 b5 f7 3d fa 47 0f 3e
       0.10026202 0.06887589 0.12095231 0.139923
000050 fb fa c0 bc a2 c0 db 3d 11 77 cf 3c 5b 19 29 be
       -0.023557177 0.10730101 0.02532533 -0.16513579
000060 56 8a d9 3c c5 fc 19 bc f0 1e 84 3c 18 3a 09 be
       0.026555222 -0.009398644 0.016128033 -0.13401067
000070 f5 2a 1b bc 63 57 c1 3c 36 9a a9 bc c9 6c e1 bd
       -0.009470691 0.02360124 -0.020703416 -0.11007077
000080 3c d7 76 bd c3 1b 2b bd 1e 57 2b 3d 72 6e 73 bd
       -0.060263857 -0.041774523 0.04183113 -0.0594315
000090 7e 03 d0 3c ce ed 2a bb c9 b6 ef 3b 1b 80 bb 3c
       0.02539229 -0.0026081684 0.007315491 0.022888234
0000a0 bb 54 05 3d 32 a9 f2 3c 71 06 2a ba 85 b3 35 bc
       0.03255151 0.029621694 -0.0006485945 -0.011090164
0000b0 6b 46 1d bc 98 df d3 bd 93 d2 e7 ba 88 8c dd 3d
       -0.0095993085 -0.103453815 -0.0017686657 0.1081782
0000c0 dc 81 29 3d b5 c5 8f 3d 68 c3 38 be 37 03 30 3d
       0.04138361 0.070201315 -0.18043292 0.042971816
0000d0 44 96 1b bd bd 5f a4 bc 34 86 4b bc 26 45 ee 3d
       -0.0379851 -0.020065183 -0.012422133 0.11634283
0000e0 9c 20 77 3e a4 60 62 3d 3b 39 eb bd da b5 0f 3e
       0.24133533 0.055267945 -0.11485525 0.14034215
0000f0 80 91 85 bc 62 c9 e6 bd 75 77 c9 3a 38 15 97 bd
       -0.016304731 -0.112688795 0.0015370684 -0.07377094
000100 54 b9 e7 bd 86 fb b6 3d 26 c3 b0 bd 82 ab f7 bd
       -0.113146454 0.08934693 -0.086309716 -0.120932594
000110 21 11 a9 be bf 6e 7f be 00 7c 7a 3f 72 92 f4 bd
       -0.3302088 -0.2494459 0.9784546 -0.11941995
000120 fa b2 08 be 7b 68 1a bd 27 86 db bd ba db 87 bc
       -0.13349524 -0.037697297 -0.10718947 -0.016584266
000130 ec 51 27 3d bf b5 fb be e3 ef e7 3c 60 0a 47 3c
       0.04084961 -0.491621 0.02831263 0.01214847
000140 c6 f4 07 3e ae ba a0 bd e6 0c a6 3e 1b 09 a1 bd
       0.13276967 -0.07848106 0.32431716 -0.07863065
000150 dc aa e5 3e da 0a ed 3c 59 7b 47 3e bf 40 a1 bd
       0.44856918 0.028935838 0.19480647 -0.078736775
000160 16 fb 58 3e 46 a2 0c 3d 2e b0 48 3c cb 15 0c 3c
       0.21189532 0.034334444 0.012249036 0.008550118
000170 0d 7f 2e 3e ff 6f aa 3e 3a 4b 26 3c 65 b3 14 bc
       0.17040654 0.3328857 0.010149771 -0.009075974
000180 96 cf 26 3e b3 fa 2d 3d 31 e7 1e be bb ac c2 be
       0.16290125 0.042475414 -0.1551788 -0.38022408
000190 bf e0 ae 3e e0 ce 70 be 5b 04 a1 3e 04 c2 47 be
       0.34155843 -0.23516417 0.31448635 -0.19507605
0001a0 94 4b 3a 3e 19 7a 8d bd 75 5f 82 3c fe cb 2a be
       0.18192893 -0.06908054 0.015914658 -0.1667938
0001b0 a0 a4 86 be f0 ee 5e 3e 05 9b 45 3e 8f d6 a0 3d
       -0.26297474 0.21770835 0.19297417 0.07853424
0001c0 30 62 36 3e 0b ef b4 bc 61 59 dd be f0 9a 7a 3b
       0.17810893 -0.02208664 -0.43232253 0.0038239323
0001d0 78 5d 92 bd 72 b5 a9 3b b3 bd ab 3c fb cf 93 3e
       -0.07146734 0.0051791007 0.02096448 0.28869614
0001e0 1d 7a 34 be 0b 3d 8b be 85 de 51 be 15 31 d4 bd
       -0.17624708 -0.2719501 -0.2049504 -0.10360924
0001f0 57 b6 cd be d0 16 cc 3e 9f cf 1b bd ac 66 a5 bd
       -0.40178177 0.39861155 -0.0380398 -0.08076224
000200 62 46 87 3c e9 45 d3 be dd c3 d5 bb 74 f0 2a 3d
       0.016513053 -0.41264275 -0.006523593 0.04173322
000210 32 f2 32 3e d3 a8 09 be 39 53 22 be 50 eb 05 bf
       0.17475203 -0.13443308 -0.1585206 -0.52312183
000220 ad d1 d1 bd 9d 01 c5 3d 3e ed 96 3e 28 d8 12 be
       -0.102450706 0.09619448 0.29477876 -0.1434027
000230 ee 98 b9 3d 78 2a 16 3d 76 61 d9 bd 4d 29 52 be
       0.09062372 0.036661595 -0.10614292 -0.20523567
000240 ff d6 2f 3e 98 fd 4b 3e 50 36 32 3d 5c d4 44 3e
       0.17171858 0.19920957 0.043508828 0.19221634
000250 d6 73 a1 bd 87 e1 e6 3d f5 ac ee 3c 10 1a c5 3e
       -0.07883422 0.11273485 0.029135207 0.38496447
000260 e0 4c ef 3c 90 39 95 3e a9 4f 19 be 4c c3 f2 3d
       0.029211462 0.2914548 -0.14971794 0.11853656
000270 12 c6 0e 3e 03 ad 08 3e 86 a7 9d 3c 8a 68 73 3d
       0.13942745 0.13347249 0.01924492 0.059425868
000280 3c 9b d1 3c 39 c6 37 3e 26 ae ae 3c ee fb 62 3d
       0.025586717 0.1794671 0.021323275 0.05541604
000290 0d 2a 76 bd 9a ab 20 3e 96 ec 69 bd 6a d3 31 bf
       -0.060098697 0.15690461 -0.05711039 -0.6946322
0002a0 c7 a6 5f bc 1c 28 31 bb d4 51 da bc 27 14 6b 3d
       -0.013650603 -0.0027031964 -0.026650347 0.057392266
0002b0 26 7d 47 bd 43 47 8b bb d1 1b 29 3e 8c 43 3c 3d
       -0.048703335 -0.0042504384 0.16514517 0.045962855
0002c0 fd 0a 5b be ae 7a 13 3e de 7b 0f bf 85 e1 ae be
       -0.2139091 0.14402267 -0.5604838 -0.34156433
0002d0 be e8 b4 3e da e4 a9 3e 82 01 cc 3c 13 5d e7 3e
       0.35333818 0.33182412 0.024903063 0.45188197
0002e0 3f 8c 4c 3d 7a 6a 55 bd 29 92 18 3e fd 16 11 bf
       0.049938437 -0.052103497 0.14899506 -0.566757
0002f0 9d 09 de bd 27 0d 70 be cd 6c 7a be 49 59 40 3e
       -0.10841677 -0.23442517 -0.24455567 0.1878406
000300 2e 8f 6f 3d 47 30 66 be 90 ff 4b bf 0f 46 bd bd
       0.058486156 -0.22479354 -0.7968683 -0.09241878
000310 f5 ec e8 3c 88 82 02 3d d3 11 61 be fa fa b1 bd
       0.028433302 0.031862766 -0.21979456 -0.08690448
000320 31 1f b3 3d 38 1e 38 bf 84 46 a5 bd 4d c1 c7 3c
       0.08746184 -0.7192111 -0.080700904 0.024384165
000330 76 ea 84 3d 8d 45 05 bf 54 cd 94 bd 31 90 f5 bc
       0.064900324 -0.5205925 -0.07265726 -0.029975982
000340 cb 30 9b 3d 10 dd f5 be 71 c4 51 bf 4f 33 99 3d
       0.07577666 -0.4802022 -0.8194037 0.074804895
000350 02 23 9b be 5e 13 64 bd 05 3a bc be e5 a4 58 3d
       -0.30300146 -0.055682532 -0.36763015 0.05289163
000360 31 0c aa be 9c f2 15 3e 3f 8c de bb 9d 30 16 bf
       -0.33212426 0.1464333 -0.006791621 -0.5866793
000370 8b 63 73 bd fb 99 89 3c de 4a e9 3d 07 20 1a 3d
       -0.059421103 0.016797056 0.11391233 0.0376282
000380 a3 53 d3 3b 30 5d 11 3e 4f 07 3a 3d ea fe cb 3d
       0.0064491793 0.14195704 0.045417126 0.099607304
000390 67 6e 28 3d b8 1a 20 be 40 b2 71 be 2a d0 b8 be
       0.041120913 -0.15635192 -0.23603153 -0.36096317
0003a0 b1 9e a1 bd b2 e2 ef be 59 f9 4e 3d 45 4e e5 3d
       -0.07891596 -0.46852642 0.050530765 0.11196569
0003b0 de 6a 35 bd c8 c1 9d be a6 ee b9 be 24 08 90 bd
       -0.04429137 -0.30811906 -0.36314887 -0.07032803
0003c0 30 30 6f bc 0f f8 03 3f 0d 40 6c 3d 8b 99 fa bd
       -0.014598891 0.5155038 0.05767827 -0.12236317
0003d0 cb 46 a8 bd cc 75 96 3c d8 48 ac be 1c ba 0b bd
       -0.08216628 0.018366717 -0.33649325 -0.034113035
0003e0 1b b5 07 be 01 c2 3b be 34 34 bc be 37 14 88 3e
       -0.1325268 -0.18335725 -0.36758578 0.26577923
0003f0 3a ad 1b be 10 1a 92 3e 4c 7f ac bd 36 3f fc bd
       -0.152028 0.2853551 -0.084227175 -0.12316744
