ESASN_TrainCode/experiment/ESASNS_R4G4F36W64B16g4_BIx2lr8/model/model_latest.pt (torch_old, 744927 bytes, 255 tensors)

sub_mean.weight f4 [3, 3, 1, 1]
000000 6f bb 80 3f 34 ca de b8 94 f9 1d bd 0b fe 52 bd
       1.00572 -0.00010623448 -0.038568094 -0.051511806
000010 52 a8 89 3f 91 69 73 bd 00 9a d1 3c ee bc 1d bd
       1.0754492 -0.059426848 0.025586128 -0.038510256
000020 ac 53 77 3f
       0.9661205

sub_mean.bias f4 [3]
000000 13 15 e3 c2 77 ff dc c2 45 6c cc c2
       -113.54116 -110.498955 -102.211464

add_mean.weight f4 [3, 3, 1, 1]
000000 ed ed 14 3f d7 b7 4b bd 68 d8 c3 3b 1c ac 03 39
       0.58175546 -0.04973587 0.0059767254 0.0001255725
000010 3d 48 16 3f de 04 51 bc d0 45 01 3d e1 58 a4 bb
       0.58703977 -0.012757508 0.03156072 -0.005015478
000020 1a 09 19 3f
       0.5977951

add_mean.bias f4 [3]
000000 15 31 e6 42 99 76 e0 42 e1 2e d1 42
       115.09586 112.231636 104.59156

head.0.weight f4 [36, 3, 3, 3]
000000 70 35 8c 3d 0b 4e 35 bd a5 7f b1 bc 09 98 4a 3d
       0.0684613 -0.04426388 -0.021667311 0.0494614
000010 40 7d 71 3d f7 63 f4 bd fd 58 dc 3c d5 91 93 3d
       0.05895734 -0.11933129 0.026897902 0.0720555
000020 a7 47 cd bd 2e c1 55 3c 62 d7 f9 bd 53 40 ce bc
       -0.10023432 0.013046546 -0.12199284 -0.025177157
000030 78 97 2f bc c8 99 5b bd e7 bd ed 3d 27 94 1d 3d
       -0.010717265 -0.053613454 0.116084866 0.038471367
000040 4a 09 80 ba a1 93 71 3d f6 9a e0 3b 34 73 06 3e
       -0.0009768393 0.05897868 0.0068544103 0.13129884
000050 94 7f 08 3d 9b c7 e7 bd 3e c8 ee be ec 89 f8 3d
       0.033324793 -0.113173686 -0.46637148 0.121356815
000060 05 c4 db 3d e2 16 f0 3d 27 fb 87 3d c2 e9 58 bc
       0.10730747 0.117231146 0.066397004 -0.013239326
000070 ce a1 69 3d 23 6b 29 3c bf 0b 0b 3e 46 21 66 bc
       0.057039075 0.010340485 0.135787 -0.014046019
000080 7b cd b3 bd 77 a1 d9 3c c5 6a d1 bd a0 32 39 bc
       -0.08779427 0.02656625 -0.10225443 -0.011303574
000090 92 d4 c2 3b 3b aa 8d bd 83 a3 b0 bd c6 f2 1c 3c
       0.0059457505 -0.069172345 -0.086249374 0.009579366
0000a0 a6 60 e9 3d 8f 4a 42 be f6 c4 9b 3d cc 61 2f 3e
       0.11395387 -0.18973754 0.07605927 0.1712715
0000b0 3e 36 3c bd 4f c4 6c bd 7a a5 75 3d 08 0f 57 3d
       -0.045950167 -0.057804402 0.059972264 0.05250457
0000c0 5a 76 ac be 21 95 94 3e 4b 42 ee 3d 3c ff 1a 3d
       -0.33684045 0.29020026 0.11633738 0.037841067
0000d0 40 46 2b be 89 7c f9 3b 80 8b ef bc b9 36 99 bd
       -0.16726017 0.0076137227 -0.029241323 -0.07481141
0000e0 27 7b 92 bd a9 34 b8 3d 6f 6e bc bd 26 3a c8 3c
       -0.07152396 0.08994419 -0.09200751 0.02444179
0000f0 08 13 82 3d 38 cc 9a 3d 96 79 05 3d 44 22 03 3d
       0.06351286 0.07558483 0.032586657 0.0320151
000100 aa 60 2e 3e 33 70 a9 3d 01 6c 8e be 6d dc 61 3d
       0.17029062 0.082733534 -0.27816775 0.055141855
000110 a2 07 08 be cd 93 28 bd 08 2d c2 3d a8 53 84 bb
       -0.13284162 -0.04115658 0.09481245 -0.004038293
000120 1c 3d dd bb 84 96 8b bd 0e f6 71 bd c4 9c 05 3e
       -0.0067516696 -0.06815818 -0.059072547 0.13048083
000130 72 78 36 3d e3 25 0a 3e 7e b2 8b 3c ef ff 33 be
       0.04454846 0.13491015 0.017052885 -0.175781
000140 45 5d 5c bc ac 1b cd 3d 20 a9 4a be 0c 0c 8d 3d
       -0.013449972 0.100150436 -0.19791079 0.068870634
000150 d7 01 0b 3e 0c 51 69 be 61 e9 ef bd b3 84 6d 3d
       0.1357492 -0.22784823 -0.11714435 0.05798788
000160 e9 de 20 3e 82 5b b0 3c e5 b0 4e bd 0e 7e be 3c
       0.15710033 0.02152801 -0.05046167 0.023253467
000170 f8 cc c9 bb 4b 7b 57 be 74 58 87 3e b3 76 f2 3c
       -0.0061584674 -0.21043126 0.26434672 0.029597616
000180 c9 a5 63 3d 65 45 bc bd b1 4d 8d 3b 04 0c 84 3c
       0.055578027 -0.091929235 0.00431224 0.01611901
000190 59 07 f0 3d 49 e4 a5 bd b0 36 b1 bd ee dc a0 3e
       0.117201515 -0.081001826 -0.08653009 0.31418556
0001a0 2a 54 bd 3c 09 70 18 3d c3 11 89 be 95 f6 bf bd
       0.023111422 0.03721622 -0.26771364 -0.09373204
0001b0 7a da be bb 7d 75 99 3c dd e4 d5 3d 24 77 04 be
       -0.0058243843 0.01873278 0.10444043 -0.12936074
0001c0 f8 9e 15 3e 6a 8f 2a be 1c 41 98 bc ab 76 cf bc
       0.14611423 -0.1665627 -0.018585734 -0.02532514
0001d0 b9 8c 63 3d 27 0f 43 3d 86 bb de bd 83 43 5a bd
       0.055554125 0.047621872 -0.10875611 -0.05328704
0001e0 04 dc ae 3d f2 e4 a5 3d 28 74 e7 bb be 41 06 3d
       0.085380584 0.081003085 -0.0070634075 0.03277754
0001f0 b4 0b aa 3a 30 42 b4 bc a2 3f 2c bd b3 9e 40 3d
       0.0012973459 -0.022004217 -0.042052872 0.047026347
000200 d5 9c 1c bd 3c d3 04 3d 14 7c 6e be 14 0d 4b 3e
       -0.038235504 0.03242801 -0.2328952 0.19829208
000210 09 73 cb bc 67 4b e0 3c 9f 09 5e b9 2e 7f a6 3b
       -0.024835126 0.027379705 -0.00021175154 0.005081079
000220 00 c0 d7 3b da 48 a5 3b 2e 12 f1 bc 74 78 e2 3e
       0.0065841675 0.005044085 -0.029427614 0.44232523
000230 ab b2 0d be de 70 f2 3c e2 5b 79 be 2b bc a3 bd
       -0.13837688 0.029594835 -0.24351457 -0.079948746
000240 f8 17 91 bd 96 e5 ca 3c 1c d4 b6 bc 79 59 ca bb
       -0.0708465 0.024767678 -0.022317939 -0.0061752168
000250 33 19 3f be b2 b7 8e 3d 6e 92 43 3c f8 23 09 3e
       -0.18661956 0.06968631 0.011936767 0.13392627
000260 ef d9 dc 3c ad b5 34 3d ba 4a 08 bd 6c fa 9e 3d
       0.026959388 0.044118572 -0.03327439 0.07762608
000270 e6 f9 ba bd f3 61 41 be 35 f0 92 3d c1 a1 f5 3c
       -0.091296956 -0.18885021 0.07174722 0.029984357
000280 91 35 6b 3d cf da 25 3d 64 4d 77 3d 59 bd 7b 3e
       0.05742413 0.040491875 0.06037654 0.24583949
000290 67 e5 33 3a f9 3d 93 3d f8 87 69 be cb dc 2e 3e
       0.0006862492 0.07189555 -0.22805774 0.17076413
0002a0 ab 71 c2 bc 9a 10 0a be f3 bd 0a be c5 b6 94 bc
       -0.023735842 -0.13482895 -0.13549022 -0.018153558
0002b0 b5 78 8d bd ee 9c 6c 3d a6 ba 27 be e0 48 44 be
       -0.06907789 0.057766847 -0.16379794 -0.19168425
0002c0 98 e4 fc 3d 8c c6 7f bc 5e 0d 12 3e 8a ea c0 3d
       0.12348288 -0.015611302 0.14262912 0.09419735
0002d0 cb 11 72 bd 32 09 0e be 9e 03 6c bc 91 da 28 be
       -0.059099 -0.13870695 -0.014405159 -0.16489626
0002e0 ee b0 06 3d e0 57 8b 3e e5 fe 90 3d a8 f4 91 39
       0.032883577 0.2721548 0.07079867 0.00027838838
0002f0 c6 66 78 3c 9c a7 92 bd 11 fd cd 3d b1 0f a0 bd
       0.015161222 -0.07160875 0.10058034 -0.07815493
000300 d3 a1 01 bd 9f 94 10 3c c0 74 c1 bd 24 06 c8 bc
       -0.03164847 0.0088244965 -0.094460964 -0.02441699
000310 1c 52 3e 3e 7a cc 2a bc 4c f2 ba bc a2 f7 16 bc
       0.1858601 -0.010424728 -0.022820614 -0.009214314
000320 c2 af 96 bd 1b fc 04 3e 01 7d 89 3e 7e e1 29 bd
       -0.07357742 0.12986796 0.26853183 -0.04147481
000330 a5 c5 90 3c 4d 20 ff bd dc ad 12 be a4 e0 a2 3d
       0.01767237 -0.12457333 -0.14324135 0.07953003
000340 db 00 b8 bd be 70 2f 3e a0 99 e2 bd 22 c2 97 be
       -0.08984538 0.17132851 -0.11064458 -0.296403
000350 8a 2e 1e 3e a3 0c f9 bb 97 fd fe bc bc ff 11 3e
       0.1544744 -0.0076003834 -0.03112678 0.14257711
000360 f5 59 a6 3c 79 d8 23 3e 52 0e 9c bd 20 53 ff bd
       0.020306567 0.16000547 -0.07619919 -0.12467027
000370 bd b1 d9 3e b6 96 84 be 44 13 e8 bc 58 a4 9f bd
       0.42518416 -0.25896233 -0.028329499 -0.07795018
000380 ae de fa bc 6e 59 a6 3d 70 8e 14 3e 11 7d b8 3d
       -0.03062376 0.08122526 0.1450746 0.090082295
000390 1e 37 96 bd 4a a8 2e bd 32 87 01 bc 2a cc e8 3c
       -0.073347315 -0.04264096 -0.007905768 0.028417666
0003a0 1b f1 77 be a5 31 5d 3c f0 b5 28 be b6 0d 3a be
       -0.24213068 0.013500606 -0.16475654 -0.18169293
0003b0 10 c7 d0 bd 1e 31 23 3d 3e 8f c3 3e 16 97 bc bd
       -0.10194218 0.039841764 0.38195223 -0.09208505
0003c0 ac a9 9d bc 1b d5 36 3e 9f 8a 46 bd 5a 7d 71 bd
       -0.019245945 0.17854731 -0.048472043 -0.058957435
0003d0 a0 ca 01 3e f1 25 90 bc cd 32 c8 3d 06 0b 8c be
       0.12674952 -0.017596217 0.097753145 -0.2735216
0003e0 7a b6 62 3e 9e 3c 28 3d c9 c8 bd bd 09 f6 8c bd
       0.22139922 0.041073434 -0.09266812 -0.06882865
0003f0 e0 ac 12 3d cf 84 cc bd a2 da 43 3c b5 e0 19 be
       0.035809398 -0.09986269 0.011953982 -0.15027125

head.0.bias f4 [36]
000000 2e dc 4c be dc 62 4b 3e 5f 9e d7 bd e2 92 de 3e
       -0.20005867 0.1986193 -0.10528254 0.43471438
000010 75 05 e5 3d 03 b8 74 bf 1a a7 80 bd 86 71 27 bf
       0.111826815 -0.9559328 -0.06281872 -0.654076
000020 2d 4d a2 3e 9a e8 75 be 00 e7 a0 3e 91 69 f2 be
       0.31699505 -0.24014512 0.3142624 -0.47346166
000030 15 b5 c8 be e3 e8 e5 be 07 74 2f bf 3e 5e fd 3e
       -0.39200655 -0.4490424 -0.6853642 0.49485964
000040 c5 53 91 be fe 03 75 3f 81 50 af bf 86 b7 2c 3e
       -0.28384224 0.95709217 -1.3696443 0.16866884
000050 69 bb 4d be c9 07 09 bc 7a 72 7c 3f a3 8a 40 bc
       -0.20091023 -0.0083636725 0.9861218 -0.011751804
000060 c0 05 92 3e bb c9 df be c0 13 2f bf 05 09 6c be
       0.28520012 -0.43708596 -0.6838951 -0.23050316
000070 02 21 85 be 88 9e 9e bd 01 48 c9 3e 54 6d 19 3e
       -0.26001745 -0.07745081 0.39312747 0.14983112
000080 ea 57 c9 3e eb da 9c 3e 1b 4e 93 3e 30 95 80 bf
       0.39324886 0.3063577 0.28770527 -1.0045528

body.0.body.0.widen.weight f4 [64, 36, 1, 1]
000000 77 a6 43 be 23 f3 f1 3e fd fa 60 be 00 cd 12 be
       -0.1910647 0.4725581 -0.21970744 -0.14336014
000010 5e 4e 1a be 84 fa 1f 3d 39 d8 74 bd ef e7 a6 be
       -0.15068957 0.03905727 -0.05977652 -0.32598826
000020 51 4a 5b bd a0 e2 33 be 74 7b c8 3c 7c 1e e7 3d
       -0.05353767 -0.1756692 0.02447293 0.11285111
000030 97 2b a3 bd 79 1f be be 93 de a3 3d 19 75 a6 bd
       -0.079672985 -0.37133387 0.08001437 -0.08127803
000040 fd da 2a be b9 ab 54 be 8a f6 fa bc 4a 15 4a 3e
       -0.166851 -0.20768632 -0.030635137 0.19734684
000050 36 50 a7 be 9d f2 1b be 21 15 ed be 72 6e 21 bd
       -0.32678384 -0.15229268 -0.46305183 -0.03941197
000060 31 18 a6 3c c1 41 0a 3d 5d 35 6e 3e 65 be 5e 3d
       0.020275207 0.033754114 0.23262544 0.054380793
000070 9c c3 a0 3e af e8 80 3e 19 7b 46 3e 61 65 66 3e
       0.31399238 0.25177523 0.19382896 0.2249961
000080 cf 9d 2e bd f2 f6 ab 3e dc a7 3d 3e 60 0c 1d be
       -0.042630967 0.33586842 0.18521065 -0.15336752
000090 86 8f 9f bd 39 b3 86 3d 86 16 d7 3d 44 0b cd bc
       -0.07791047 0.06577153 0.10502343 -0.025029786
0000a0 1d 09 9a bd 19 4c 01 3e 93 fc f6 bd 3c 7e 3d be
       -0.075212695 0.12626685 -0.120598935 -0.18505186
0000b0 fa 66 0f be 3a 5b 0d bf 18 55 f4 bd fd 39 8f be
       -0.14004126 -0.55217326 -0.11930293 -0.2797393
0000c0 02 9e ea 3d d4 46 0d 3e 0a 10 54 3f 68 01 98 bd
       0.11455919 0.1379655 0.82836974 -0.07422143
0000d0 e5 e8 0f 3e ce 1b ea bd 5e 29 38 3c 18 32 84 be
       0.14053686 -0.114310846 0.011240331 -0.25819468
0000e0 ef 97 1e bd 69 52 4b 3f 81 fb 24 be 48 a9 22 be
       -0.038719114 0.7942262 -0.16111566 -0.15884888
0000f0 58 b3 6f bd 40 55 07 bd 9b 04 11 bd b2 87 c0 bd
       -0.058520645 -0.033040285 -0.035404783 -0.09400882
000100 d8 13 06 3f 2d 15 52 3e 5d 84 ed be 9e 71 19 3f
       0.5237403 0.2051589 -0.46390048 0.5993899
000110 0c 94 71 3d a4 cf 0b 3e 7a cb 7c bd 63 9a a9 3d
       0.05897908 0.13653427 -0.061717488 0.082814
000120 d6 5d 2d bd 46 60 a7 3d ad d4 1d 3d 1f 77 1f 3e
       -0.042325817 0.081726596 0.0385329 0.15572785
000130 a1 a8 43 bd 4e 59 bf bd 98 85 e8 3b 5e 83 08 be
       -0.04776824 -0.093432054 0.0070960037 -0.13331363
000140 78 ec 5b 3e e5 21 80 bd 46 2f 26 3d 08 71 e3 bd
       0.21476924 -0.06256465 0.040572427 -0.111055434
000150 77 e1 f5 3d 39 66 79 3e f6 33 a0 3d d7 4f ce bd
       0.12005895 0.24355401 0.07822411 -0.10073822
000160 3d bf 70 be 5b f1 37 be 87 67 90 be 17 cf 82 bb
       -0.23510452 -0.17963164 -0.28203985 -0.003991972
000170 9c 45 0f 3d 46 1a 99 3d d5 0c d1 3d 65 07 88 bd
       0.034978494 0.074757144 0.10207526 -0.066420354
000180 89 80 4a 3e 67 4d 7a 3e 70 b7 3c be 7b 27 6a 3c
       0.19775595 0.24443589 -0.18429351 0.014291639
000190 01 b8 2f bd 5d 8f c9 3d 0b 98 8d 3d ca 73 0b be
       -0.04290009 0.098417975 0.069137655 -0.13618389
0001a0 4c 62 34 bd a9 22 53 3d 17 59 8d bc 81 63 ee bb
       -0.044039056 0.051546726 -0.017254395 -0.0072750454
0001b0 2a bf 01 bd 86 cd 48 bd 62 7e 34 3e 8f 79 b1 3d
       -0.03167645 -0.049024127 0.17626336 0.086657636
0001c0 10 0a b7 be 95 b6 c4 be ef c5 97 3e 36 c6 ca 3d
       -0.35749865 -0.3842055 0.296432 0.09901087
0001d0 e6 49 cd 3b 3e 78 e3 3d 89 c3 31 bc 57 8a b5 3c
       0.006264913 0.11106919 -0.010849842 0.022160692
0001e0 97 2f 4e 3e f0 6b 07 3e 30 32 38 bd 92 32 16 3e
       0.20135342 0.13224769 -0.044969738 0.14667729
0001f0 97 8c cd bc 7f 0e 8a 3e c0 f7 f9 bc ae 5b d4 bd
       -0.025091453 0.26964185 -0.030513644 -0.10369049
000200 c0 a0 20 be 27 62 8b be 97 03 18 be 60 17 19 be
       -0.15686321 -0.27223322 -0.1484512 -0.14950323
000210 fd 79 d0 3d 58 ff 50 be 04 a0 a9 3e 0e 4c 9a be
       0.101795174 -0.20409906 0.33129895 -0.3013615
000220 2f 2f d5 3d db 79 94 3e aa d5 6b be ed 0e ac 3d
       0.1040939 0.28999218 -0.23030725 0.08401284
000230 68 0e bc be 78 f5 16 bd 8f 2c 1c 3d 85 30 fd 3d
       -0.3672974 -0.03685519 0.038128432 0.1236277
000240 f9 ac 3d be 3d 00 01 3d af d7 e6 be 1b 52 92 3d
       -0.18523015 0.031494368 -0.4508643 0.071445666
000250 c5 4d 08 bf d7 b4 17 bf 3f 90 44 3e d0 61 e5 be
       -0.53243667 -0.59260315 0.1919565 -0.44801188
000260 3d 8a fb bd be d7 d6 3e 17 5c cc 3d 42 43 98 be
       -0.12282226 0.41961473 0.09978502 -0.29738814
000270 d5 97 03 bd 8d a3 8a 3c c5 d2 c0 3e 2a 53 b8 bd
       -0.03212722 0.01692369 0.37660804 -0.09000237
000280 ed a0 ca bc 30 1f 91 be cf 5d 1e bb f5 70 a7 3e
       -0.024734939 -0.28344107 -0.00241648 0.32703367
000290 d3 1c b1 be 5f 66 e7 3d 58 2a e5 bb 80 c6 73 3e
       -0.34592304 0.112988226 -0.006993573 0.2380619
0002a0 c1 04 ab 3c b5 e4 e4 bc 27 1e bc 3d ec bb b1 bd
       0.02087629 -0.027941087 0.091854386 -0.086784214
0002b0 5a 25 e6 3d 41 ef a3 3b 9f 98 74 3e d3 43 65 be
       0.11237593 0.0050028865 0.23886345 -0.22389154
0002c0 8e 69 dc bd 43 ff 52 bf 54 ef 1f be 3e 46 6c 3e
       -0.107623205 -0.8242075 -0.1561864 0.2307367
0002d0 5f 9e d9 bb 2a fb d2 3e 1a 8b cf bd b3 0c fa 3d
       -0.0066411938 0.41207248 -0.101339534 0.122094534
0002e0 f5 6a 16 be 3f 61 c4 3d 5a 8f 7c bd 96 99 85 be
       -0.14689238 0.09588861 -0.06166015 -0.2609374
0002f0 f8 83 86 bc bf 07 60 be e7 40 fe 3d f0 ab 6a be
       -0.01642035 -0.21877955 0.12414723 -0.22917151
000300 eb 3b 86 bc a6 92 fb ba 22 fe c6 3e 43 36 80 be
       -0.016385993 -0.0019193485 0.38865763 -0.25041398
000310 67 11 3c 3d f1 b0 9c be 22 b5 90 3d 9e d0 22 be
       0.045915034 -0.30603746 0.07065798 -0.15899894
000320 b8 12 88 be c3 50 2d be 53 44 0c bd fb 45 9c 3d
       -0.2657678 -0.1692534 -0.034244847 0.07630535
000330 fd 65 a6 3d 6f 65 a3 bd b8 10 83 3d 03 83 9e 3d
       0.081249215 -0.07978331 0.06399673 0.07739832
000340 9e 66 84 be 04 88 00 be dd 1a 67 3e 59 9d a6 3d
       -0.2585954 -0.12551886 0.22568841 0.081354804
000350 a7 d0 c0 bd 96 18 3e 3d a0 91 a2 be b7 b4 d6 3e
       -0.09414797 0.046410166 -0.31751728 0.4193475
000360 0a e0 07 3e b1 56 d7 be a1 43 a8 3c 73 d9 f5 3d
       0.13269058 -0.42058328 0.02054006 0.12004366
000370 4d 8f 21 3f dd 33 00 3f cb d7 10 bd 70 8b e5 be
       0.63109285 0.5007914 -0.035362046 -0.44832945
000380 aa c3 d6 bd c1 71 57 be c5 8e c8 3c 9f 54 ee bc
       -0.10486539 -0.21039487 0.02448214 -0.029093085
000390 4d 63 71 bd b7 fd b0 be 66 a3 d4 bd bb 08 b0 be
       -0.05893259 -0.3456857 -0.10382728 -0.3438166
0003a0 9f 58 19 3d c5 e6 2b be 1a 08 03 bc 0e 85 d7 be
       0.03743803 -0.1678725 -0.007997537 -0.420937
0003b0 94 24 5e bd ce 06 be 3e 3a a3 9f 3d 08 3d 12 3d
       -0.054234102 0.37114567 0.07794805 0.035702735
0003c0 cf 45 4a 3e c1 8a b2 bc bb 73 4d 3d e6 62 ad 3e
       0.19753192 -0.021794679 0.050159197 0.33864516
0003d0 73 26 f4 3e df bd c3 3c 2d a2 93 be 72 9b 77 bd
       0.47685584 0.023894249 -0.28834668 -0.06045098
0003e0 7f 37 fc 3c 1d c3 2b be 18 c1 23 bd 23 eb 9d 3d
       0.030788181 -0.16773649 -0.03997907 0.077108644
0003f0 54 39 96 3b 13 75 ba bc dc 85 eb bd c4 c8 23 be
       0.0045844708 -0.022760903 -0.11500141 -0.15994555

body.0.body.0.widen.bias f4 [64]
000000 4d c1 5c be fc 0d 88 3f 45 9a 87 bf a4 e5 bf 3e
       -0.21558113 1.0629268 -1.0593954 0.3747989
000010 49 fb 92 be 2e ec 5e 3f 6b 5c 1b 3e 86 84 4a bd
       -0.2870734 0.8707913 0.15171973 -0.04944279
000020 69 a5 b3 3e 43 ef be 3e ef 66 2c be 95 1a 7f bd
       0.35087135 0.37291917 -0.16836141 -0.06228121
000030 0c 78 8b bf 66 7b 79 3f fb 0d bd 3c 24 7c 86 3d
       -1.089601 0.97453916 0.023077955 0.06566647
000040 f0 b3 da 3f 0e cd 01 c0 a1 38 a7 be 20 9c f4 3f
       1.7086163 -2.0281405 -0.32660392 1.9110146
000050 1f 92 ed bf 89 9b 99 3f 88 85 ce be 3d 68 36 bf
       -1.8560218 1.200059 -0.4033625 -0.71252805
000060 9d e2 f4 3e 5f 65 ab bf 8e 09 5c 3e b2 77 28 3f
       0.47829142 -1.3390311 0.2148802 0.6580764
000070 6c 61 a1 bf e5 67 54 3f 9e fb d6 3f 64 6c 17 3d
       -1.2607856 0.8297103 1.6795537 0.036968604
000080 59 b3 3b c0 0c 57 eb 3f d4 5c ce 3f 21 ca 67 40
       -2.9328215 1.838594 1.6122079 3.621712
000090 14 31 80 bf be 62 a2 3f b5 ad b4 be 88 5e d5 3f
       -1.0014977 1.2686384 -0.35288778 1.6669474
0000a0 7f 99 00 3f 0e e8 3e bf 53 d2 f4 bf 47 60 5a bf
       0.50234216 -0.7457284 -1.9126686 -0.8530316
0000b0 a1 f2 b3 bf d2 ec 31 be 28 2e f5 3f 8f c7 8f bf
       -1.405842 -0.17375496 1.9154711 -1.1232775
0000c0 4b 97 27 c1 67 e6 25 3f ec ee ca bf e2 86 8d bf
       -10.474437 0.6480469 -1.5854163 -1.1056788
0000d0 ab a3 81 3f e1 63 4d c0 aa 27 79 3f 47 0c b2 bf
       1.0128073 -3.2092211 0.9732615 -1.3909997
0000e0 a0 2c af 3f 37 07 ad bf 3c 83 16 40 fa d7 85 3f
       1.3685493 -1.3517827 2.35176 1.0456536
0000f0 da d7 b1 be 61 f3 7d bf d7 29 43 3f 99 53 0f bf
       -0.34734994 -0.9919949 0.7623572 -0.55986935

body.0.body.0.b1.weight f4 [16, 1, 3, 3]
000000 4d 32 ed 3c 86 af 77 bd ba 55 57 3c 2b da e8 bc
       0.02895465 -0.060470127 0.013142997 -0.028424343
000010 bb 25 53 3e f6 3c d6 3d 00 ba dc bc 03 51 cc bc
       0.20619862 0.10460846 -0.02694416 -0.024940973
000020 c1 53 07 3d 89 73 1e 3d 67 dc 03 bd 15 63 10 3e
       0.03303886 0.0386844 -0.032192614 0.14100297
000030 b6 53 a5 bd 53 5f ce bd 58 ab d9 bc 6c f4 b3 3d
       -0.08072607 -0.100767754 -0.02657096 0.08786854
000040 c9 1e d8 bc d5 91 3a bd d0 ca 4a 3d d1 f3 21 3d
       -0.026381867 -0.045549233 0.049509823 0.039539162
000050 db 84 f6 3c fa 1f da 3d f4 3c ab 3e ab 2a 54 3d
       0.030092647 0.1065063 0.3344494 0.051798504
000060 fd c2 d7 3b 03 77 63 3b 55 f6 d2 3c 5f 53 9d bc
       0.0065845237 0.0034708388 0.025752226 -0.019204793
000070 6a 60 81 3d a7 9a a8 bb 9e c4 17 3d 65 5b 7b 3d
       0.06317218 -0.005145389 0.037052743 0.061366457
000080 bb 22 37 3e 79 32 50 ba f6 2f 92 3c 1b a1 4a 3d
       0.17884342 -0.00079420913 0.017845135 0.04947005
000090 5a 41 1a bc f4 e1 62 bb b3 69 0f bc 32 c4 a2 3c
       -0.009414995 -0.0034619542 -0.008753228 0.019868944
0000a0 7e 05 89 3e ca 34 80 3c 60 05 60 bc 81 cb 23 3a
       0.26762003 0.015650172 -0.0136731565 0.0006248281
0000b0 fe e1 0d bc ea 3d 29 3c b5 6f d5 3c e8 e4 98 ba
       -0.008659838 0.010329703 0.026054243 -0.0011664899
0000c0 17 5f 19 3e c8 ec 3e 3e 55 b0 df bb cd ae d0 ba
       0.1497768 0.18645012 -0.0068264403 -0.0015921235
0000d0 04 c0 b8 3c 84 d5 bb ba cf b8 d8 3c 82 7e 8a 3d
       0.022552498 -0.00143306 0.026455311 0.06762411
0000e0 0a 35 0b 3d 6b fb 56 ba e2 79 92 3d 3e 72 0c 3e
       0.03398613 -0.00082009163 0.071521536 0.13715455
0000f0 90 dd 25 3c 94 aa 37 3d 95 30 dc 3c be d2 98 3a
       0.010123625 0.04484041 0.026878634 0.0011659486
000100 f2 14 d8 bd 02 db 64 3d a4 79 0e be 85 ae 5a bd
       -0.1055087 0.055872925 -0.1391359 -0.05338909
000110 27 aa 96 bd 40 3b 26 bd 6d a5 07 be 56 f3 65 3d
       -0.07356673 -0.04058385 -0.13246699 0.056140266
000120 5b 98 f7 3c 58 20 32 bd 35 bb 1c bb 28 ad 54 bd
       0.030224016 -0.043487877 -0.0023915295 -0.051922947
000130 f8 c0 3a be ef 10 a2 bd 6f eb ef 3b bd 95 96 bd
       -0.18237674 -0.07913386 0.007321767 -0.07352779
000140 25 bb 53 3d 3e 95 97 bc 9d 22 c0 bc cc 76 8f 3c
       0.051692147 -0.018503781 -0.023454005 0.017512701
000150 88 0f 22 bd 84 66 1b be 64 4e 84 bd ee 80 01 bd
       -0.039565593 -0.15175825 -0.06460264 -0.031617098
000160 ca 95 15 bc 18 96 ce 3b 6d 76 b2 bb 0b 25 32 bc
       -0.009129951 0.0063045137 -0.0054462464 -0.01087309
000170 dc c9 0e bc 60 eb 94 3c fb d5 88 be 4b 7e 1c bd
       -0.008715119 0.018178642 -0.26725754 -0.03820638
000180 05 36 91 bc a1 79 37 bc ae f3 b8 bb 2d 7f 1f 3a
       -0.017725954 -0.011198432 -0.0056442833 0.00060843193
000190 38 20 f6 bb e3 e3 85 3a d9 35 70 3c e5 81 c9 be
       -0.007511165 0.001021501 0.014661276 -0.39356914
0001a0 a7 8b 59 bb 75 76 e8 bb aa f4 b1 bc 5a 25 be 3a
       -0.0033194812 -0.0070941993 -0.02172311 0.0014506981
0001b0 9e c4 1d ba 5a dc 44 bb 16 2c 21 3c b8 f9 af 3c
       -0.0006018373 -0.0030038566 0.009837171 0.02148138
0001c0 91 0e 66 3e 3f 52 99 be 09 a4 58 bc fb 6d a0 3c
       0.22466494 -0.2994556 -0.013222703 0.019583693
0001d0 fe 02 99 bd 63 18 37 3a c1 86 9f 3c 48 39 60 bd
       -0.07471274 0.000698453 0.019473435 -0.054742128
0001e0 05 bd 31 bc b9 9d 75 3e d8 f1 99 3c 21 65 3a bc
       -0.010848288 0.23985948 0.018792078 -0.01137665
0001f0 67 43 9d bc 7e f7 8f 3b 2a 51 75 3b 15 70 83 3d
       -0.019197179 0.004393517 0.003743241 0.06417862
000200 4a cd b0 3a a4 5a 89 3d 4e f3 5a 3e 8c d0 58 bd
       0.0013488915 0.067067415 0.21381876 -0.05293326
000210 70 4e bd 3c 02 7b 56 3a 47 c3 9c 3c f5 d3 94 3b
       0.023108691 0.0008181782 0.019136084 0.004541869
000220 ab 0f b9 bd 2e ea ff 3b 4a 93 cc bd 46 f1 ba bd
       -0.090361916 0.007809899 -0.09989031 -0.091280505
000230 dc 74 e8 bd 23 c7 33 bc 10 74 96 bd 20 a8 af bc
       -0.11350414 -0.010972771 -0.07346356 -0.021442473

body.0.body.0.b1.bias f4 [16]
000000 81 e9 fc be d7 af 4f be 2f bd ae bf 8c 83 ad 3e
       -0.493969 -0.20281921 -1.3651484 0.33889425
000010 be 81 52 bd 8f 73 03 3f 0d 38 bf bd ef 16 90 3e
       -0.051393263 0.51348203 -0.09336863 0.28142497
000020 83 a7 0d 3c 73 22 a6 3c 28 87 61 bd 01 e0 9b 3b
       0.008645895 0.020280099 -0.055060536 0.004756928
000030 ff ae c4 3d d4 0c 31 3f 96 18 60 bd 69 83 bf be
       0.0960369 0.691602 -0.054710947 -0.37404945

body.0.body.0.b2.0.weight f4 [16, 1, 3, 3]
000000 23 b8 8e 3c 9f 73 bd bc 25 b5 e2 bb 70 df 84 bb
       0.017421788 -0.023126421 -0.0069185668 -0.004054956
000010 49 42 72 bd a8 74 57 be b6 75 8b bb e0 6d ad 3c
       -0.059145246 -0.21040595 -0.0042559756 0.021170557
000020 d5 6e 03 bd ae 5e da 3a c1 41 ec bb 43 10 bb 3b
       -0.03208812 0.0016660297 -0.007209987 0.0057087257
000030 a6 7c 71 bb 51 d9 32 3d 69 9d 81 3e 6c 9d 70 3b
       -0.0036847978 0.04366428 0.25315407 0.0036714924
000040 6d e6 60 bb e7 16 1d bd ab a5 39 3c d5 13 c2 bd
       -0.0034317032 -0.03835192 0.011331002 -0.09476439
000050 c0 81 83 3c 4e 10 60 bd 33 42 cd 3d 7f f1 0c bd
       0.01605308 -0.05470305 0.10022392 -0.034409996
000060 5f 1a 00 bd 91 8e 5f bd 85 06 18 bd 00 34 10 bc
       -0.03127515 -0.05457932 -0.037115593 -0.00880146
000070 b5 4e b7 3b f3 6e 32 bd fe ba aa bd 42 70 d6 bd
       0.0055940994 -0.04356284 -0.08336447 -0.1047063
000080 e4 8e 04 3c fc 1e fb ba ce 50 73 bc 0c e6 07 bd
       0.008090708 -0.0019159014 -0.014850808 -0.033178374
000090 3a 4c 9f ba ff 32 93 3d 3a 67 16 bd 1d 78 74 bd
       -0.0012153455 0.07187461 -0.03671954 -0.05968486
0000a0 81 ee 6e 3e 7e de 06 bd 54 31 21 3c fb 4c 1d 3c
       0.2333317 -0.03292703 0.009838421 0.009600873
0000b0 b4 0e 14 39 d8 53 00 3b 2b 9d dc 3c 61 6f 6e bc
       0.00014119857 0.0019581225 0.026930412 -0.014552922
0000c0 3b 7a 17 bc 73 f8 79 be 00 48 17 bd f7 74 6c bc
       -0.009245451 -0.24411182 -0.0369339 -0.0144321835
0000d0 cb 11 0d 3b 0d 6a 0a bd 76 3b 09 bd f9 5b db bc
       0.0021525498 -0.033792544 -0.033503972 -0.026777254
0000e0 9b 6a f9 3a 48 a9 06 be 1c ba 4d bd f3 86 91 bd
       0.0019028963 -0.13150513 -0.050226316 -0.07105818
0000f0 9f f5 78 bb e2 38 c8 3d 58 1b a7 3c 20 b6 87 bd
       -0.0037988198 0.097764745 0.02039878 -0.066265345
000100 29 aa 21 3d 68 77 32 3c 96 e2 b5 bd 81 3c a1 bd
       0.039468918 0.0108927265 -0.088811085 -0.07872868
000110 67 ee 8b bb 44 cf 54 bd f2 8c ab 3d b3 e9 26 3b
       -0.004270363 -0.051955476 0.083764926 0.0025468885
000120 ee 6c ed 3c 81 5b 47 bd b9 1f 82 bc ed 80 92 3c
       0.028982606 -0.04867125 -0.015884267 0.017883742
000130 39 3d 0b bd 27 50 6f 3c a5 79 13 3e 31 6f c4 bd
       -0.033993933 0.014606512 0.14401872 -0.095915206
000140 9d 88 07 3d 75 ca 9e 3a 02 7a 03 bd 36 9d 4e bb
       0.03308927 0.001211478 -0.032098778 -0.003152681
000150 90 cb 83 3d 1b 1f 5e 3e a1 ee e4 3c 2f 1f 36 b8
       0.06435311 0.21691553 0.027945818 -4.3421223e-05
000160 11 a3 e5 3c 33 21 30 bc e9 ab 3d 3d 47 20 af bd
       0.028031858 -0.010750103 0.046306524 -0.08551078
000170 d3 10 21 3d df 24 e4 bd d1 5d 61 3e c2 0f a4 bd
       0.039322685 -0.11139845 0.22008444 -0.08010818
000180 a9 ae 0c 3d 7b bf 06 be 46 55 06 3d 5a 97 bd 3c
       0.034346256 -0.13158982 0.032796167 0.02314346
000190 59 6a 56 bd 41 7a d9 3c 26 05 3b 3c 38 71 01 3e
       -0.052347515 0.026547553 0.011414802 0.12640846
0001a0 5c f2 49 bc c8 15 99 3c 0b ad b1 3c 87 bd 70 bc
       -0.012325849 0.018687144 0.021688959 -0.014693624
0001b0 45 b4 49 bc ba b6 26 bc 29 42 b7 3c b8 61 c6 bc
       -0.012311046 -0.010175401 0.022370415 -0.024216518
0001c0 f4 d0 90 3e 9e eb 41 bc 13 ed 09 3d cf 23 b7 3c
       0.2828442 -0.011835961 0.033673357 0.022355942
0001d0 e8 77 17 bd 32 ab 99 bc 25 4d 84 3d 88 06 32 3c
       -0.036979586 -0.01875839 0.06460027 0.010865815
0001e0 7a 48 ea bd 1f 1f 24 be 68 6f 5d 3d 13 06 3b 3e
       -0.11439605 -0.16027497 0.054061323 0.18264036
0001f0 d0 bc 00 bd f1 04 6e 3a b5 73 eb bb 74 e3 08 be
       -0.031430066 0.0009079716 -0.007185424 -0.13368016
000200 9b d2 25 3e a9 2e c4 3c 00 4d 11 be 49 4b c1 bd
       0.16193621 0.02394803 -0.1418953 -0.09438188
000210 43 f2 7e 3c fe 70 79 3b ca dc 36 3b c0 74 88 bc
       0.015560689 0.0038061733 0.0027902597 -0.016657233
000220 5d 1e c2 bc 62 b1 83 3c ae 17 15 be 2e 3b 25 3e
       -0.023696119 0.016075794 -0.14559814 0.16135857
000230 3a a7 c0 bc 03 41 06 bd de e2 bf bc f4 b1 28 3c
       -0.02351724 -0.032776844 -0.023423608 0.010296334

body.0.body.0.b2.0.bias f4 [16]
000000 4f 4c 60 bf b0 10 05 bf 06 73 8c 3f 5a 7f 46 bf
       -0.8761644 -0.5197859 1.0972602 -0.77538073
000010 04 17 72 bf b9 dc ea be 50 2f a1 3f a2 92 a0 3f
       -0.9456637 -0.45871523 1.2592564 1.2544749
000020 24 53 77 3f 39 e0 a5 bf 43 2a 0f bf 0a 4c df 3f
       0.9661124 -1.2959052 -0.5592386 1.744508
000030 33 62 2c bf 97 ac 9b bf d4 7b c0 bf bd 2e a2 3f
       -0.6733734 -1.2162045 -1.5037789 1.2670513

body.0.body.0.b3.0.weight f4 [16, 1, 3, 3]
000000 f7 79 a4 3a b8 04 c1 3c c4 81 0f 3b a5 ac d6 3c
       0.0012548555 0.02356182 0.0021897415 0.02620537
000010 48 4d 01 3e 95 27 8f 3c 84 dd 12 bb ba 29 ac 3b
       0.12627137 0.017474929 -0.0022409866 0.0052539976
000020 44 6b 22 3c c5 6a c8 3b b1 23 29 3d 54 16 ff bc
       0.009913269 0.0061162435 0.041293804 -0.031138577
000030 5e d0 3f bd ca 5e 67 bd fe c6 e0 bd 55 a4 eb 3b
       -0.046829574 -0.056486882 -0.10975455 0.0071912208
000040 89 2f b6 3c e5 84 21 bc c6 a6 07 3c 86 5a a6 bc
       0.022239463 -0.009858345 0.008279508 -0.020306837
000050 72 81 f7 3d aa 0a cc 3b ac e1 76 3c e2 12 2c be
       0.120852366 0.006226857 0.015068453 -0.16804078
000060 3d 64 7f bc 2f fa e5 3b e7 fe a4 bb f6 58 7e 3e
       -0.0155878635 0.0070183496 -0.0050352695 0.24838623
000070 41 f3 9c bd 5f f7 99 3d a5 40 9c bd 82 b6 6a be
       -0.076635845 0.075178854 -0.076295175 -0.22921184
000080 5a 16 44 bc 62 3f a0 3d 46 0a 65 bc 1c ae f0 bc
       -0.01196822 0.07824589 -0.0139795 -0.029379897
000090 fa e2 d0 bc 13 a0 4b 3d b6 50 a8 bc d7 44 8e 3d
       -0.025498856 0.049713206 -0.020546298 0.06946724
0000a0 df bd 09 be 77 f0 3a 3d 43 d0 99 bc 6e 28 aa 3d
       -0.13451336 0.04563948 -0.018776065 0.083084926
0000b0 d2 4b 82 bc ad 70 90 bb 56 77 47 3c fc 88 e6 ba
       -0.015905295 -0.0044079632 0.012174448 -0.0017588432
0000c0 96 83 19 3d ba 3c 3f 3e 66 95 05 3d 7c 4e f4 ba
       0.037479006 0.18675509 0.03261318 -0.0018639113
0000d0 8c 19 80 3c 05 a4 81 bb 83 41 c7 3c 85 fc a5 39
       0.015637182 -0.00395632 0.02432323 0.00031659394
0000e0 d1 43 47 3c 27 74 09 3d a3 01 cb 3d 14 fe 46 3c
       0.012162165 0.033558037 0.099124216 0.012145538
0000f0 68 e0 32 3d 72 7a 91 3c 91 1c 36 3d d9 00 69 3c
       0.04367104 0.017758582 0.044460837 0.0142213935
000100 c3 74 c0 3d d5 2b 74 bd 45 4d 7c 3d e0 74 2e be
       0.093972705 -0.059612114 0.061597127 -0.17036772
000110 f2 91 ec bd 99 04 40 bd 01 60 ca bd 20 24 3e 3d
       -0.11551274 -0.046879385 -0.098815925 0.04642117
000120 18 75 54 3c d3 56 62 be 04 20 3f 3c 1a 53 bc 3c
       0.01296737 -0.22103433 0.011665348 0.022988845
000130 cd 04 2c 3d 45 b1 0b 3b d7 4b ee 3b df 06 4c bc
       0.041996766 0.0021315378 0.0072722244 -0.01245281
000140 68 57 84 3b 85 a6 d6 bc 46 89 a3 bb 1d 89 13 3c
       0.00403874 -0.02620245 -0.0049907295 0.009004858
000150 6b fa aa bb 35 53 28 be f4 1d a1 bc d2 8c 52 bc
       -0.0052178404 -0.16437991 -0.019667603 -0.012850957
000160 80 25 ac 3b a5 d1 dc bb 6b 1b 23 b9 9c b7 69 bb
       0.005253494 -0.0067388588 -0.00015555105 -0.0035662418
000170 6a 12 60 bb 85 87 d6 ba 75 f7 b3 bb c5 1a 90 bb
       -0.0034190663 -0.0016367292 -0.0054921457 -0.0043977224
000180 25 40 20 bb 98 d0 7f bb c7 01 f9 ba 4d 70 00 bb
       -0.0024452296 -0.0039034244 -0.0018997722 -0.0019598186
000190 d3 1e 6e bb 31 2c c0 3c 24 73 1f 3b 32 de ad 3e
       -0.003633429 0.023458572 0.0024330104 0.33958584
0001a0 70 0b 72 3b 81 0a df 3a f2 57 63 3b 32 4c f6 3b
       0.0036933087 0.001701668 0.003468987 0.0075164074
0001b0 8b 53 be 3b ac fa 02 3c f6 2b ba b9 4b d0 e1 bb
       0.005808299 0.007994335 -0.00035509438 -0.0068912855
0001c0 c5 bb 8b 3e 42 e5 b2 bc e9 09 47 3b 8d 27 0b 3d
       0.27291694 -0.021837834 0.0030370897 0.033973265
0001d0 c9 43 46 bb ed bb d6 3c dc 00 e1 bc cd 1a 11 3c
       -0.0030252805 0.026212657 -0.02746623 0.008856487
0001e0 c2 ee 87 3e 7a 52 68 be 17 9d 1a bd 3d 05 98 be
       0.26549345 -0.22687712 -0.03774747 -0.29691496
0001f0 74 6d 7e 3e ae 20 1f 3d 03 22 96 bb 3f 1a 0c bd
       0.2484644 0.038849525 -0.004581691 -0.034204718
000200 82 e3 49 bc 1b d5 e7 bc 1f dc 19 be 55 0b 28 3a
       -0.0123223085 -0.028299859 -0.15025376 0.000641038
000210 6e b3 e0 bb e4 78 5f bc dd 55 4f 3c 79 32 ec bc
       -0.006857327 -0.013639662 0.012654749 -0.028832661
000220 c0 48 54 bb d1 d0 3f bb fb a0 17 bc 57 2e cd be
       -0.0032391995 -0.0029268751 -0.009254689 -0.40074417
000230 fd 39 8d bc af 45 6c bc 47 23 fb 3c c0 05 c7 bc
       -0.017239565 -0.014420911 0.03065647 -0.024294734

body.0.body.0.b3.0.bias f4 [16]
000000 00 54 b2 3c df 3f d9 bf e8 cc f0 be 96 50 67 3d
       0.02176857 -1.6972617 -0.4703133 0.056473337
000010 8b d2 d6 be b5 40 2d 40 41 ee e7 3f f9 be f2 bf
       -0.41957507 2.7070744 1.8119584 -1.896453
000020 09 d3 8f 3f 3f 75 8d 3f c3 40 3a 40 4e 5a f2 be
       1.1236278 1.1051406 2.9102027 -0.47334522
000030 b1 8b b0 bf 18 52 a0 bf 16 6f 3b bf 03 a6 db 3f
       -1.379263 -1.2525053 -0.7321638 1.7160038

body.0.body.0.b4.0.weight f4 [16, 1, 3, 3]
000000 25 16 47 bb b0 59 3e bd f7 12 8d bb 26 e9 79 bc
       -0.003037819 -0.04647225 -0.0043052393 -0.015253341
000010 88 cb 94 be b3 45 94 bd 58 74 e8 3b 55 be af 3e
       -0.29061532 -0.072398566 0.0070939474 0.343249
000020 88 95 a2 3d 79 43 02 bd e0 b7 0e 3c bc 21 51 3c
       0.07938677 -0.03180263 0.008710831 0.012764391
000030 ee 79 07 bc bb 9d 0f 3d b3 71 f7 bd a9 d6 ea bc
       -0.008268816 0.035062533 -0.12082233 -0.028666811
000040 08 ef 9b 3d 72 85 cc 3d 8c 64 31 bc b8 5a 00 3d
       0.07613951 0.0998639 -0.010827195 0.031336516
000050 bd 80 e1 bc 06 8d 7a 3c 25 1d 85 3e 08 9c f0 3c
       -0.027527208 0.015292412 0.25998798 0.029371276
000060 0f 45 06 bc 4c 61 fe 3c 50 46 ab bc 72 0a 93 3d
       -0.008195176 0.031052254 -0.020907551 0.07179727
000070 9e 63 a2 3c 84 3a 05 3d e5 d0 58 3d 5d 9f 33 3d
       0.019822892 0.032526508 0.052933592 0.043853153
000080 c4 65 50 3d 99 d0 9a 3d 53 e4 33 3d 4c 79 95 3d
       0.0508783 0.07559318 0.04391892 0.07298526
000090 bd 6f 22 3d 4f 39 ee 3c 54 88 f8 3a c3 d0 f2 3d
       0.039657343 0.029080061 0.0018961527 0.118562244
0000a0 01 b3 69 bd c4 54 f7 bc 19 9c ae 3c 6a 41 09 3d
       -0.057055477 -0.030191787 0.021314668 0.03350965
0000b0 94 45 e8 3b c8 d9 11 3d 81 db ce bc 64 ee 4d bd
       0.0070883725 0.035608083 -0.025251152 -0.050276175
0000c0 2d af 6b 3d d8 23 1f bd d0 fe ff 3d ab 72 a4 bd
       0.057540108 -0.038852543 0.124997735 -0.08029684
0000d0 d9 31 ff 3d 99 56 41 be ee 4b 90 bc da b1 7e 3c
       0.124606796 -0.1888069 -0.017614331 0.015545333
0000e0 08 4b 06 3c 11 cf b5 bd d7 37 62 be 8a 10 e4 bc
       0.0081966 -0.088773854 -0.22091614 -0.027839918
0000f0 ba 39 87 3c e7 b4 23 bd c0 41 15 3c 70 8e d6 bc
       0.016507018 -0.039967444 0.009109914 -0.026190966
000100 0c 70 52 3d 9d d4 18 bc 01 90 c3 bb 27 00 a6 3e
       0.051376387 -0.009328035 -0.0059680943 0.3242199
000110 93 45 22 3d 12 8c 50 bb d2 49 98 3b 4f e5 0c ba
       0.039617132 -0.003182177 0.004647472 -0.0005374746
000120 10 31 63 3d 5a 71 de bd c0 49 e0 3c 31 35 ed bc
       0.05546671 -0.10861464 0.027378917 -0.028956028
000130 47 a4 02 be c5 fa 18 bd ca 4e 44 bc 60 1d 10 3d
       -0.1275798 -0.037348527 -0.011981675 0.035184264
000140 c5 7a 50 bc d9 2f 24 bd 4b 1e 83 3d 87 2d 67 bd
       -0.012724583 -0.040084694 0.06402262 -0.056439903
000150 ec 58 04 3e 62 13 63 be 33 b2 f7 3d 56 14 a6 bd
       0.12924546 -0.22175363 0.12094536 -0.081093475
000160 c2 e6 04 3e 65 57 81 bd 72 83 01 bd 84 77 83 be
       0.12978652 -0.06315497 -0.031619497 -0.2567712
000170 90 48 82 3d 2b 6f f2 3b 19 5b 7d bd 4c 33 f0 ba
       0.063614964 0.007398506 -0.061854456 -0.0018325835
000180 bb fb 1a bb fe 16 90 3c 5c 94 bf bb 54 39 29 bd
       -0.0023648578 0.017589089 -0.0058465432 -0.041314438
000190 69 3e df 3c 76 57 1a 3c a3 b0 bf bc 2c 86 46 be
       0.02725144 0.009420266 -0.023399657 -0.1938712
0001a0 37 be 23 3d b3 57 c7 3d 0c c2 2d bd a7 6e 94 bc
       0.039976325 0.09733524 -0.042421386 -0.01811917
0001b0 a0 d8 cf 3b 71 25 7e 3c ba 26 89 3c 59 7b d3 3c
       0.0063429624 0.015511856 0.0167421 0.025815653
0001c0 52 ba 19 3e c9 9e 6f 3b fa d6 47 3c 1f db 90 3b
       0.15012482 0.003656315 0.0121972505 0.0044206525
0001d0 9d 66 c0 3c 98 6d ba bb c0 7f b5 bd b3 1f a2 bb
       0.02348643 -0.005689334 -0.08862257 -0.0049476265
0001e0 59 fd 0a bd 3d fc 07 3b 1d c9 1d bc 22 1b 1f bb
       -0.033933017 0.002074971 -0.009630469 -0.0024277647
0001f0 81 02 c5 bd c2 e3 fd 3c 2e c2 6b bd 45 4e 8c 3d
       -0.09619618 0.030992392 -0.05755823 0.06850866
000200 00 82 45 3d de 02 8c 3d e1 c3 b5 3d 37 94 ea bd
       0.04821968 0.068364844 0.088752516 -0.11454051
000210 02 be c3 3c 49 d5 05 be ce ef ff 3b f0 62 27 3c
       0.023894314 -0.13069643 0.0078105694 0.01021646
000220 41 d2 b4 3c 98 ad 7e 3c c4 f5 3a bb 8e 6a 59 be
       0.022072913 0.015544318 -0.0028527835 -0.21232054
000230 3a f3 bc 3c c7 29 12 ba 16 0e e3 bb c3 8c 98 3b
       0.023065198 -0.00055756833 -0.0069291694 0.004655452

body.0.body.0.b4.0.bias f4 [16]
000000 2f 0d f9 bf 30 b9 62 3f 0c 5a cc bf bf e1 b7 3d
       -1.9457148 0.88563824 -1.596498 0.089786045
000010 58 55 d0 3f 6b 47 a1 bd 64 3b 3b bf 32 e7 5b bf
       1.6276045 -0.0787495 -0.731375 -0.8589965
000020 a4 9b 2a bf 98 d7 01 3d 63 3f 78 bf 31 42 d4 bf
       -0.6664374 0.031699747 -0.9697172 -1.65827
000030 78 f7 88 3f f7 68 b6 3f a2 4c 6f 3f 49 e2 78 bf
       1.0700521 1.4250783 0.9347631 -0.97220284

body.0.body.0.sa.conv_y.weight f4 [16, 16, 1, 1]
000000 12 d3 48 bd e8 25 02 bd 7f e9 15 bd 76 89 aa bb
       -0.049029417 -0.03177443 -0.036599632 -0.005204375
000010 0a 21 14 3e af f0 fd bd 3a b4 c6 3c e2 15 42 bd
       0.14465728 -0.123994224 0.02425586 -0.04738415
000020 50 5d 0b bc c1 14 76 3d 72 05 33 bd 4f ff 41 be
       -0.008506134 0.060078386 -0.043706365 -0.18945049
000030 20 92 98 3d f8 88 1c 3d 90 87 87 bc ef 24 15 3d
       0.07449746 0.03821656 -0.016544133 0.036412176
000040 68 50 2d 3e 57 2b 36 3d e3 f3 94 3e 79 de bb bc
       0.16925204 0.044474926 0.2909232 -0.022933232
000050 ea c9 7f bd 6c e2 e0 bd 7a cb 3c 3d 0d 99 2a bd
       -0.06244842 -0.109806865 0.046092488 -0.041649867
000060 df c1 fb bc 15 15 43 3c f3 70 6b be 91 b3 b0 3c
       -0.030732093 0.011906882 -0.22992305 0.021569999
000070 34 49 ac be 39 68 61 bc 15 7c 34 be 7c a7 e2 3c
       -0.336496 -0.013757759 -0.17625459 0.027667753
000080 6e 5e 66 3d 32 4e b8 3d 87 49 a2 3c f1 35 70 3d
       0.0562424 0.089992896 0.019810451 0.058645193
000090 6f cd 88 be 97 5d c4 3d 31 fe fd 3d fa 17 f9 3c
       -0.26719233 0.09588163 0.12401999 0.03040694
0000a0 64 58 83 3d 9e 8d 76 bd a8 61 18 3d 1e 07 04 be
       0.064133435 -0.06019365 0.037202507 -0.1289334
0000b0 12 5a 2a be c2 46 d4 bd c2 ea 61 3e 87 d0 59 bd
       -0.16635922 -0.103650585 0.22062209 -0.053177383
0000c0 38 c6 85 3d c8 d9 12 bd 6c 0b f4 3d c8 2a c9 3a
       0.06531948 -0.035852224 0.11916241 0.0015347833
0000d0 91 9a d6 bd 3e 4d d1 3d 97 dd 27 bc 0a 79 04 3e
       -0.104787 0.10219811 -0.010245702 0.12936798
0000e0 27 e0 47 bb ab 9d 14 3c ed 78 f8 bb d2 aa 09 3e
       -0.0030498595 0.009070794 -0.007582775 0.13444069
0000f0 c3 66 0b be 4a 07 c6 bd c5 fc 9c 3c 7d 13 46 3d
       -0.13613419 -0.09669359 0.019163499 0.04835843
000100 6c 6e 4b 3e 40 ae 1c 3d bd 8a f7 3d 4e a5 00 bf
       0.19866341 0.038252115 0.12087009 -0.50252235
000110 1d a6 02 3e e6 ea a7 3d 89 b6 c5 3e b5 8b ac 3e
       0.1275868 0.081991 0.38615826 0.33700338
000120 8a 10 1c 3e 14 83 f6 3e 14 91 82 3e 60 54 36 3e
       0.15240684 0.4814688 0.2550131 0.17805624
000130 e9 db 7f bd 75 b0 ae 3e b2 de 8a 3c 21 f7 9e 3e
       -0.062465582 0.34119 0.016951893 0.3104792
000140 f8 dc 90 3d 95 d7 37 bd 5d 70 43 bd eb 54 8b 3e
       0.070733964 -0.04488333 -0.04771458 0.27213225
000150 22 33 d2 3d 64 2a 7f 3d c4 b5 04 3b 29 b2 ff 3e
       0.10263659 0.062296286 0.0020249942 0.49940613
000160 96 e1 89 3a d3 bd 25 be fe de a6 bd d1 a3 24 bf
       0.00105195 -0.16185693 -0.08148001 -0.64312464
000170 e9 03 36 bc f9 a9 ac bd 5b 60 05 3d 01 0b ba bd
       -0.011109331 -0.08430857 0.032562595 -0.0908413
000180 6f aa 61 bd ee 94 9f 3d 40 26 a8 3d 4e 90 06 3f
       -0.05509418 0.07792078 0.082104206 0.5256394
000190 9c 68 ec bd ec ca fa 3d 20 d5 d9 3d ea f8 e1 3e
       -0.1154339 0.122457355 0.106363535 0.4413522
0001a0 c7 e2 2d 3e e5 85 ad 3d 91 ba 44 3e 97 5d 8f 3e
       0.1698104 0.08472804 0.19211794 0.2800109
0001b0 95 92 41 3d c9 44 8b bd 43 ec 60 be 3d 3b 39 bd
       0.047258932 -0.06800229 -0.21965127 -0.04522251
0001c0 b7 ab 35 3d 09 08 92 bc 49 b4 ea 3d e5 d8 ec 3e
       0.044353213 -0.017826097 0.11460168 0.46259227
0001d0 b1 c5 e0 be 4c 8d 02 3d 15 fb 34 ba af a4 6c bf
       -0.43900827 0.031873032 -0.0006903869 -0.9243879
0001e0 a1 cd 56 bf f3 3a 3f bd cc 96 b0 bc 25 8f 69 3d
       -0.83907515 -0.046687078 -0.02155628 0.05702128
0001f0 e0 61 82 3d 91 c0 52 bd 99 a1 6b be 2e dd 9a be
       0.063663244 -0.051453177 -0.23010863 -0.30246872
000200 a8 91 e7 3b b0 08 34 bd 62 17 35 3c a9 52 52 3a
       0.007066924 -0.043953598 0.011052938 0.00080231816
000210 a3 57 fd 3b c8 01 de bd 2d ea 0b bc 59 c4 ad b9
       0.0077313944 -0.108401835 -0.008539719 -0.00033143422
000220 2a 3f c4 3c 61 8f f1 bc 71 e7 89 3f 43 3d da bd
       0.0239559 -0.029487314 1.0773755 -0.10656216
000230 db 81 60 3a a8 bf ce ba 9e 59 b9 bb dc f3 10 3d
       0.0008564272 -0.0015773671 -0.005656435 0.035388812
000240 b7 27 00 be 0f 4c c8 3e 5d 89 ef be 36 3d bc bc
       -0.1251515 0.39120528 -0.46784487 -0.022978406
000250 a5 b3 45 3d a0 02 87 3e 58 23 0a 3d 4e 8c 74 bd
       0.048267026 0.2636919 0.033725113 -0.059704117
000260 8e 7b d3 3d f6 78 b4 be 77 d2 81 bc 28 84 ce bd
       0.103263006 -0.35248536 -0.015847428 -0.100838006
000270 c4 25 83 bb 71 09 4c 3c 26 8b ff bd b1 f5 90 3a
       -0.0040023047 0.012453423 -0.12477712 0.001105955
000280 73 d3 f8 3d 09 df 4a bf 93 7d a2 be af 91 af be
       0.12149706 -0.79246575 -0.3173643 -0.34290835
000290 3a 50 a3 3c 51 65 6e 3e 34 63 d8 be 21 7f 3f bd
       0.019935716 0.23280837 -0.42263186 -0.0467521
0002a0 8e b2 0f be c2 be b8 be cf 60 7a bd 3f 4f 4b be
       -0.14032957 -0.36083037 -0.06112748 -0.19854449
0002b0 d9 e0 11 bc 2e d5 5b bd 19 b5 45 3e 78 b1 87 3e
       -0.0089037055 -0.0536701 0.19307365 0.26502585
0002c0 ad 31 2c be e1 5b 32 3f 03 95 4b bf af 74 4c be
       -0.16815825 0.69671446 -0.7952425 -0.19966386
0002d0 6a 17 88 bd 11 b2 99 3d 55 b5 93 be d9 9f 3c be
       -0.06645091 0.075046666 -0.28849283 -0.18420352
0002e0 85 f3 98 3e 62 aa 05 3f be f0 97 be 08 4e 9c be
       0.2987329 0.5221311 -0.2967586 -0.30528283
0002f0 26 cf f4 bc ba db 8b bd ee 0f 13 bc 5b ac aa 3d
       -0.029883932 -0.06829019 -0.008975966 0.083336554
000300 f2 d6 94 3e 2d 2a f0 bd b3 92 89 3c 36 dc 89 3e
       0.2907024 -0.117267944 0.016793584 0.2692582
000310 61 f0 b1 be e0 7d c0 bd 65 c0 21 bd b2 08 5e bd
       -0.34753707 -0.09399009 -0.039490122 -0.05420751
000320 38 1f bd 3d f1 84 8b bc ef b4 f2 3d 2a e7 9b 3e
       0.0923447 -0.017031165 0.118509166 0.30449802
000330 95 47 98 3c 27 75 a2 bd f2 07 53 be de 13 09 3d
       0.01858882 -0.07932501 -0.206085 0.033466212
000340 58 c2 e4 be 1f 0d b3 bd e0 36 8a bd 10 17 90 bc
       -0.44679523 -0.08742737 -0.06748748 -0.017589122
000350 17 33 ff 3c e0 db 55 bd fb 35 6d be 5c 23 39 bd
       0.031152291 -0.052211642 -0.23165123 -0.045199737
000360 4d 34 40 3c 3b bc 7f be 55 76 bd 3d 00 c1 8e bd
       0.0117312195 -0.24974148 0.09251086 -0.069704056
000370 38 7f b0 bd 87 79 1a 3e ea c6 56 bd 5e 43 dc bd
       -0.08618015 0.15085422 -0.052435793 -0.10755037
000380 2a 23 03 3d 84 28 e2 3d a9 5d 19 3d 93 23 ab be
       0.032015957 0.11042884 0.037442837 -0.33425578
000390 a5 2d 55 3e f2 2b fa bd 9c 16 f8 3e e2 fc 55 be
       0.20818193 -0.12215413 0.4845475 -0.20897248
0003a0 d2 24 d8 bc d8 26 9f 3c 5e 5a 15 3e a9 ed b1 be
       -0.026384745 0.019427702 0.14585254 -0.34751633
0003b0 35 86 10 be 86 e1 4b be f9 34 95 bd 2f e9 91 bc
       -0.14113696 -0.19910249 -0.07285494 -0.017811386
0003c0 63 eb 91 3d 96 9e 55 3d d3 6a 74 3c 10 92 51 3e
       0.071249746 0.052153192 0.014918047 0.20465875
0003d0 24 3a 85 3e a4 df ee bd 58 94 ed bd 47 37 dc be
       0.2602092 -0.1166375 -0.1160056 -0.43010923
0003e0 22 72 52 bd 25 48 c7 bd db f1 e2 ba f1 3c 44 3d
       -0.051378377 -0.09730557 -0.001731451 0.04790968
0003f0 87 49 8f 3d 7d 26 d6 3e 12 19 fe bd ae 69 07 3e
       0.06996446 0.4182624 -0.124071255 0.13223907

body.0.body.0.sa.conv_z.weight f4 [16, 16, 1, 1]
000000 3c 2d a1 3b d7 ba 99 bd 2a 1a 97 3d 04 63 d4 bd
       0.0049187224 -0.0750634 0.07378037 -0.10370448
000010 4e b7 c0 3d eb d6 5b bd 8b d5 0a 3c 4e f6 d2 3c
       0.094099626 -0.05367176 0.008473764 0.025752213
000020 0a cc 0e bd 6e 27 9b 3d 03 5b d0 be 0a f0 46 be
       -0.034862556 0.0757588 -0.40694436 -0.19427505
000030 6a c9 d6 3d 83 db 75 3d 00 3c 48 3d d7 03 09 3e
       0.104876354 0.060023796 0.048885345 0.13380371
000040 aa 15 f3 bc 87 5d 09 3e 72 c8 9c be 8e a3 7f 3d
       -0.029673416 0.13414584 -0.30621678 0.062411837
000050 8e c0 a0 bd a9 88 91 3e d7 5d f0 bc dd 29 62 be
       -0.07849227 0.28424576 -0.029341621 -0.22086282
000060 a0 11 be b9 91 88 31 bd 00 2c 91 3e 32 22 1d 3e
       -0.00036252756 -0.04334313 0.28353882 0.15345076
000070 12 c0 3a bd 91 0b 29 3d 07 e0 59 3e 36 64 cf bd
       -0.04559333 0.041270796 0.21276866 -0.101265356
000080 c6 52 12 bd bf a2 cf 3b d8 78 ff 3d 9b b3 d2 bc
       -0.03572347 0.0063365395 0.12474221 -0.025720408
000090 e8 9c 30 3e a4 08 75 be 86 56 42 3d 1f 10 00 3e
       0.17247355 -0.23929077 0.047445796 0.1250615
0000a0 b7 74 5e 3d cf a3 93 bc e1 5b 90 3b da 73 54 3e
       0.054310527 -0.018022446 0.004405484 0.20747319
0000b0 b7 ef a6 3d 7a 1a e8 bc 19 9a 94 be 6c e5 0f 3d
       0.08151191 -0.028332938 -0.29023817 0.035130903
0000c0 1c 1f 2e bc 14 14 80 bd 60 0d a1 bc df 14 8b 3c
       -0.010627534 -0.062538296 -0.019659698 0.016977726
0000d0 cd 03 85 be 92 dd b4 bd b5 00 43 3c 0a cc 76 bc
       -0.25979462 -0.08831324 0.011902024 -0.015063295
0000e0 ea 7b 27 3d b4 c0 02 3d 22 22 99 3d 8f 78 e9 3e
       0.040889658 0.031922057 0.074772134 0.4559979
0000f0 e3 83 3b 3b c1 86 2d be cf 8b a9 3b 50 98 88 bb
       0.0028612546 -0.16945936 0.005174137 -0.0041685477
000100 a9 c4 38 be 3b 71 94 3d dc 54 70 bd 59 22 8b bf
       -0.1804377 0.072481595 -0.05867468 -1.0869857
000110 4e 6b 87 3c 7d c0 f4 3d 3f c2 b1 be 66 4a a9 3e
       0.016530659 0.11950777 -0.3471851 0.33064574
000120 f0 bb 8a 3d a5 ed af be 4a f4 c9 be c6 d2 ee 3e
       0.067741275 -0.34360996 -0.3944419 0.46645182
000130 7e 10 31 3b 5d 21 45 be bc 41 da 3a 76 38 d8 be
       0.0027017887 -0.19251008 0.001665167 -0.42230576
000140 3f f0 d8 bd bd 92 bf 3a 8d d7 41 3d bd d1 c2 3b
       -0.10592698 0.0014615875 0.047324706 0.005945413
000150 b7 c3 77 be 18 2f 83 bd 23 81 b7 3c 5b ed c9 3e
       -0.24195753 -0.06405467 0.022400444 0.394389
000160 d4 2b dc bd 64 18 8f 3e 44 24 a1 bc 2a b0 19 bf
       -0.10750547 0.27948296 -0.019670613 -0.6003443
000170 15 4c 67 bd 27 7e 22 bd 3b cf 97 bd b8 54 e9 3b
       -0.05646904 -0.03967109 -0.07412573 0.007120695
000180 b1 e9 20 be 58 65 82 bb 54 00 48 3e b7 7d 3a be
       -0.15714146 -0.0039793663 0.19531375 -0.18212019
000190 aa 8a 96 3e 44 88 82 3e 20 06 89 3d ef e3 cc bc
       0.29402667 0.25494587 0.066906214 -0.025011031
0001a0 0b 7c 3f 3e 81 87 52 3d c7 bc 05 3e 90 9b 97 3e
       0.18699662 0.051398758 0.13060294 0.29610872
0001b0 4f ea 58 3d 3b a6 96 3d ec 28 03 bd d1 e5 c1 3d
       0.05295783 0.07355925 -0.032021448 0.09467662
0001c0 5c ec 24 3e a9 06 87 bd e4 2a 9a be d2 6a 3d 3f
       0.16105789 -0.06593067 -0.30110848 0.7399112
0001d0 2c f8 69 3f bb 30 c7 bd c9 13 05 3d 2a 3e a5 3e
       0.91394305 -0.097260915 0.03248957 0.3227399
0001e0 ac 51 cc 3e fd b3 0a bc 21 db ad 3d f1 1e 14 bf
       0.3990606 -0.008465764 0.08489061 -0.5785971
0001f0 42 96 84 3e a1 00 04 3e b2 bc af 3d 64 7e 4f 3f
       0.25895888 0.12890865 0.08580913 0.8105223
000200 25 f3 48 3d a1 1d a7 be ff 64 e7 be 21 0c 79 be
       0.049060006 -0.32639793 -0.4519424 -0.24321033
000210 0e 5e f7 bd ea 59 e4 be 6f e7 f5 bd 6f 43 92 bd
       -0.120784864 -0.4459985 -0.12007033 -0.07141768
000220 e5 6c 9a 3c 34 ee 01 bf 65 4b 80 3d ad c6 12 bf
       0.018850753 -0.50754094 0.0626438 -0.57334405
000230 e7 29 8d 3c 1c 8a 63 3d 52 35 2e 3e 22 fa b4 bd
       0.017231895 0.055551633 0.17012528 -0.088367715
000240 38 7a 21 be 40 a7 41 bd b8 76 b6 3d 27 8b 18 bd
       -0.15769279 -0.047278643 0.089093626 -0.03724208
000250 7e ec 1e be 87 ef 9b 3e 4d 34 16 be 76 ee 9d 3b
       -0.15519902 0.30456182 -0.14668389 0.0048196865
000260 4b 8f 82 be d1 bf bd bd f0 d6 77 3d 5a ef 96 bd
       -0.2549995 -0.09265102 0.060507715 -0.073698714
000270 40 6d 77 3c 96 91 59 bd a9 d8 97 be b2 5c ca 3c
       0.015101731 -0.053117357 -0.29657486 0.024702404
000280 59 21 7d be 04 9b 46 bc 1f e4 50 3f bc 4e 07 3e
       -0.24719752 -0.01212192 0.81598085 0.13213629
000290 48 e6 08 be b0 94 4c be ea b2 2d 3e 7b d1 20 3c
       -0.13369095 -0.19978595 0.16962782 0.009815569
0002a0 93 a7 7f be 64 af 5c be 1f ee b9 3e 46 7c 09 3f
       -0.24966268 -0.21551281 0.36314484 0.5370525
0002b0 3b d9 ed bc 36 ae bc 3c 7b a5 81 be f1 14 39 be
       -0.029034248 0.023032289 -0.25321564 -0.18074395
0002c0 55 59 80 be 31 fe 06 3f 16 c3 c6 bd 24 f8 3c 3d
       -0.25068155 0.52731615 -0.097051784 0.046135083
0002d0 ff 1f f3 3c c0 61 8d 3c 5d 42 c3 bb 72 a3 c0 bc
       0.029678343 0.017258525 -0.005958839 -0.023515437
0002e0 2b 54 98 be 7e 2b 27 3e 9a d4 3f bf 78 bf a4 3d
       -0.29751715 0.16325185 -0.7493378 0.08044332
0002f0 7a 29 0a bc c6 52 58 ba 0e e4 78 be 5e 5e 24 be
       -0.00843274 -0.00082520803 -0.24305746 -0.16051623
000300 e6 58 3b be 31 f0 e3 bd f4 22 48 bc 68 23 7f 3e
       -0.18295631 -0.11129797 -0.012215365 0.2491585
000310 72 7c cb be e9 24 a0 3d 22 e5 4d be 3a f0 8d 3d
       -0.39743382 0.0781954 -0.20106938 0.06930585
000320 bb b5 85 bd e0 dc 6d 3d c5 a4 91 3d 0d ff 5e 3d
       -0.06528803 0.05807197 0.071115054 0.054442454
000330 68 77 98 be 7b 2a 5e bd cb 83 78 bd 1f 27 cf bd
       -0.297786 -0.05423973 -0.060672563 -0.10114884
000340 f7 3e 12 3e 2e 7a 33 be af 1d 1b 3d b0 c5 8e be
       0.14281832 -0.17527077 0.037870105 -0.278852
000350 cd 35 ba be d5 1d 3d bc 6f 95 54 be 5d d7 a8 3d
       -0.36369172 -0.011542757 -0.2076013 0.08244202
000360 7d b5 4e 3d 9f 87 87 bd fd c4 b0 3d 06 63 dd 3b
       0.05046605 -0.066176645 0.086313225 0.0067561893
000370 d6 f0 3d 3d c4 e5 ef bd bc 9d ff bd ba c7 3e bd
       0.046372257 -0.11713746 -0.12481257 -0.046577193
000380 d6 db 73 be 7c dd 31 be 1b 18 b1 bc 2b e3 00 be
       -0.2381433 -0.17369646 -0.02161794 -0.12586658
000390 27 84 ec 3e 93 2f e0 3d 71 82 0b be cd 8a 93 3e
       0.46194574 0.10946574 -0.13623978 0.28816834
0003a0 fd a3 8b bc 30 4a 34 be 38 9f 65 3e 36 5d db 3d
       -0.01704597 -0.17606425 0.22424018 0.10711138
0003b0 3a 4a 09 be 16 1f a7 bd d9 a2 5b be b3 70 3c 3d
       -0.13407221 -0.08160226 -0.2144884 0.046005916
0003c0 ee 1c 90 3e a0 88 f2 bd 63 09 aa 3b db 5b fd 3c
       0.28147072 -0.118424654 0.0051891073 0.03092759
0003d0 58 58 b7 be 68 60 8c bd 0f c0 8c bd 13 0a d5 bc
       -0.35809588 -0.068543255 -0.0687257 -0.02600578
0003e0 b5 b8 89 3b 0f 2d 90 bb 85 e8 15 bc c3 68 3c 3c
       0.004202927 -0.0043999027 -0.009149675 0.0114995865
0003f0 4c 43 8c bc 71 31 9c be fd 23 58 be da 8d 84 bd
       -0.017121933 -0.3050647 -0.21107478 -0.064723685
