ESASN_TrainCode/experiment/ESASNS_R4G4F36W64B16g4_BIx2lr8/model/model_best.pt (torch_old, 744927 bytes, 255 tensors)

sub_mean.weight f4 [3, 3, 1, 1]
0	0x3f80ba71	1.0056897
1	0xb9011e0d	-0.00012313593
2	0xbd1d9a0d	-0.038476992
3	0xbd52d2ad	-0.051470447
4	0x3f89a8be	1.0754621
5	0xbd72bbd1	-0.059261147
6	0x3cd15df1	0.02555749
7	0xbd1dd563	-0.03853358
8	0x3f7754d1	0.96613795

sub_mean.bias f4 [3]
0	0xc2e31648	-113.54352
1	0xc2dd0044	-110.50052
2	0xc2cc6cff	-102.21288

add_mean.weight f4 [3, 3, 1, 1]
0	0x3f150160	0.58205223
1	0xbd4c2f98	-0.049850076
2	0x3bbec07d	0.0058212862
3	0x38ac6720	8.220808e-05
4	0x3f165b04	0.5873263
5	0xbc52248a	-0.012826094
6	0x3d011303	0.03151227
7	0xbba50553	-0.005036035
8	0x3f191c7e	0.598091

add_mean.bias f4 [3]
0	0x42e62fce	115.09337
1	0x42e075b5	112.2299
2	0x42d12dbd	104.58933

head.0.weight f4 [36, 3, 3, 3]
0	0x3d8dbc18	0.06920642
1	0xbd3260b8	-0.04354927
2	0xbcaefad1	-0.021359833
3	0x3d4aa892	0.049477167
4	0x3d73882e	0.059456043
5	0xbdf3dadc	-0.119069785
6	0x3cea0edc	0.028571539
7	0x3d94cc05	0.07265476
8	0xbdcf76cb	-0.1013008
9	0x3c552eff	0.013011693
10	0xbdf91094	-0.12161365
11	0xbccedb4d	-0.025251055
12	0xbc23fa93	-0.010008472
13	0xbd5ba604	-0.05362512
14	0x3dee9008	0.116485655
15	0x3d1f3772	0.038871236
16	0xba922798	-0.0011150716
17	0x3d752b82	0.059855945
18	0x3bedb0f6	0.0072537614
19	0x3e074683	0.13210492
20	0x3d090b8b	0.033458274
21	0xbde6c9f8	-0.11268991
22	0xbeef26e9	-0.46709374
23	0x3df9a8b9	0.121903844
24	0x3ddd8e5f	0.10818171
25	0x3def8670	0.11695564
26	0x3d8776db	0.06614467
27	0xbc43e101	-0.011955501
28	0x3d6b974f	0.057517346
29	0x3c3d796a	0.011564592
30	0x3e0ac1ba	0.13550463
31	0xbc7edc5e	-0.015555469
32	0xbdb35ac6	-0.08757548
33	0x3cd9ad90	0.026572019
34	0xbdd26e30	-0.10274923
35	0xbc33fc87	-0.0109855
36	0x3bfb864a	0.0076759206
37	0xbd8e3590	-0.0694381
38	0xbdb19998	-0.08671874
39	0x3c1303f1	0.008973108
40	0x3de84374	0.11340991
41	0xbe41bbb3	-0.18919258
42	0x3d9a6b53	0.07540002
43	0x3e30ac69	0.1725327
44	0xbd37d0ec	-0.044876978
45	0xbd681583	-0.05666114
46	0x3d6f3276	0.058397733
47	0x3d5a14e7	0.05324259
48	0xbeac2943	-0.3362523
49	0x3e93ea03	0.28889474
50	0x3def3e89	0.116818495
51	0x3d175957	0.036950435
52	0xbe2ac27e	-0.16675755
53	0x3bf2f9ad	0.0074150176
54	0xbcf23c3b	-0.029569736
55	0xbd9ae4b1	-0.07563151
56	0xbd91ef86	-0.071257636
57	0x3db98a83	0.09059622
58	0xbdbacf42	-0.091215625
59	0x3ccaf029	0.02477272
60	0x3d83e8cd	0.064408876
61	0x3d9b3aeb	0.07579597
62	0x3d075894	0.03304346
63	0x3cfd7115	0.03093771
64	0x3e2d8f76	0.16949257
65	0x3da8f4a4	0.082497865
66	0xbe8e8792	-0.27837807
67	0x3d63b6bc	0.05559419
68	0xbe07840f	-0.1323397
69	0xbd2cc3c2	-0.042178877
70	0x3dc3bca6	0.09557466
71	0xbb9b03d6	-0.004730682
72	0xbbc5241d	-0.006016268
73	0xbd8c54a3	-0.06852081
74	0xbd757039	-0.059921477
75	0x3e069339	0.13142098
76	0x3d376232	0.04477138
77	0x3e0a60a5	0.1351343
78	0x3c8b617b	0.017014256
79	0xbe327ffe	-0.17431638
80	0xbc7a4575	-0.015275349
81	0x3dd0e828	0.1020053
82	0xbe49644b	-0.19667165
83	0x3d8d3a6a	0.06895907
84	0x3e0b2343	0.1358767
85	0xbe69c1f2	-0.2282789
86	0xbdeea422	-0.116523996
87	0x3d7335de	0.059377544
88	0x3e21106b	0.15728919
89	0x3cb53db3	0.022124147
90	0xbd4574ca	-0.04820708
91	0x3cbea88d	0.02327373
92	0xbbc46833	-0.005993867
93	0xbe57014b	-0.20996587
94	0x3e871e78	0.26390433
95	0x3cf49350	0.0298554
96	0x3d69e305	0.05710127
97	0xbdbb8638	-0.091564596
98	0x3b95dd11	0.0045734723
99	0x3c878e47	0.016547335
100	0x3def55a6	0.11686258
101	0xbda57f4e	-0.08080922
102	0xbdb1cff3	-0.08682241
103	0x3ea04674	0.3130375
104	0x3cc03b48	0.023465768
105	0x3d1a999c	0.03774415
106	0xbe8879ae	-0.26655334
107	0xbdbdecc3	-0.09273674
108	0xbbc9a40a	-0.006153588
109	0x3c951c60	0.018202007
110	0x3dd5039f	0.10401081
111	0xbe039e67	-0.12853394
112	0x3e1618fd	0.1465797
113	0xbe2c274a	-0.16811863
114	0xbcad85ac	-0.021181904
115	0xbcd20b50	-0.02564016
116	0x3d63b4a2	0.055592187
117	0x3d415c3f	0.047207113
118	0xbddb053f	-0.1069436
119	0xbd615954	-0.05501683
120	0x3dac280a	0.08406074
121	0x3da74fc1	0.08169509
122	0xbbfa26b6	-0.0076340092
123	0x3d06d077	0.03291365
124	0x3a8fa3b9	0.0010958827
125	0xbcbe1520	-0.023203433
126	0xbd3395d0	-0.043844044
127	0x3d47767f	0.04869699
128	0xbd1dd009	-0.038528476
129	0x3d016ad4	0.03159602
130	0xbe6d0f6c	-0.23150414
131	0x3e4b01ee	0.19824955
132	0xbcd9bdd3	-0.026579773
133	0x3ce91ce1	0.028456153
134	0x39a4a28b	0.00031401622
135	0x3bb701f3	0.005584949
136	0x3bc0a586	0.005879107
137	0x3baa5ca6	0.005199033
138	0xbcfeb93c	-0.031094186
139	0x3ee269a9	0.44221237
140	0xbe0ec94c	-0.13943976
141	0x3cfb6f29	0.030692654
142	0xbe7751f7	-0.24152361
143	0xbda2b8fd	-0.0794544
144	0xbd930005	-0.07177738
145	0x3cc35c20	0.02384764
146	0xbcc103eb	-0.023561439
147	0xbbe0485c	-0.0068445634
148	0xbe400461	-0.1875167
149	0x3d8e4c3e	0.06948136
150	0x3c45c148	0.012070008
151	0x3e0a0ae7	0.13480721
152	0x3ce4c0a6	0.027923893
153	0x3d3462f9	0.0440397
154	0xbd098b38	-0.033580035
155	0x3d9e35b5	0.077250876
156	0xbdbb2756	-0.09138362
157	0xbe40ce44	-0.18828684
158	0x3d91d7a7	0.071212105
159	0x3cf6cf14	0.03012804
160	0x3d703685	0.058645744
161	0x3d2a8209	0.041627917
162	0x3d7a17c8	0.061057836
163	0x3e7c0cc2	0.24614242
164	0x3a16dd08	0.0005754982
165	0x3d91b8dc	0.07115337
166	0xbe6966b9	-0.22793092
167	0x3e2fae42	0.17156318
168	0xbcc82624	-0.02443225
169	0xbe09919e	-0.13434455
170	0xbe0a472c	-0.13503712
171	0xbc89cedf	-0.016822277
172	0xbd8dab9e	-0.06917499
173	0x3d72427f	0.059145447
174	0xbe27fa28	-0.16404021
175	0xbe43d3ec	-0.1912381
176	0x3dfdc42b	0.12390932
177	0xbc823abc	-0.015897147
178	0x3e131b94	0.14365989
179	0x3dc419df	0.09575247
180	0xbd71be33	-0.05901928
181	0xbe0de623	-0.13857321
182	0xbc65cc86	-0.014025813
183	0xbe29c465	-0.16578825
184	0x3d054469	0.032535944
185	0x3e8bb43d	0.27285948
186	0x3d929871	0.07157982
187	0x3a3bc70f	0.0007163146
188	0x3c861044	0.016365178
189	0xbd94b082	-0.07260229
190	0x3dcdbce4	0.10045794
191	0xbda2bf6a	-0.079466656
192	0xbcffcf68	-0.031226829
193	0x3c068e6d	0.008212668
194	0xbdc30aad	-0.095235206
195	0xbcbede24	-0.023299284
196	0x3e4064d6	0.18788466
197	0xbc099fc7	-0.00839991
198	0xbcbb0cdb	-0.022833278
199	0xbc109c97	-0.008826396
200	0xbd98f75e	-0.074690565
201	0x3e0556c3	0.13021378
202	0x3e897f89	0.26855114
203	0xbd2c8529	-0.04211918
204	0x3c950486	0.018190634
205	0xbdfecc4d	-0.12441311
206	0xbe1281d0	-0.14307332
207	0x3da445d4	0.08021131
208	0xbdb69021	-0.08914209
209	0x3e30e2fc	0.17274088
210	0xbde3098c	-0.11085805
211	0xbe977aa7	-0.29585764
212	0x3e1e14f6	0.15437683
213	0xbbfb090b	-0.00766099
214	0xbcfea155	-0.031082788
215	0x3e11c2ff	0.14234541
216	0x3ca46055	0.020065466
217	0x3e237c52	0.15965393
218	0xbd9b98da	-0.075975135
219	0xbdfff3ec	-0.12497696
220	0x3ed9890d	0.42487374
221	0xbe84960a	-0.2589572
222	0xbcec7dc6	-0.028868567
223	0xbda18959	-0.07887525
224	0xbcf7d4ac	-0.030252777
225	0x3da45ae1	0.08025146
226	0x3e135652	0.14388397
227	0x3db73cbd	0.08947132
228	0xbd9728a2	-0.07380797
229	0xbd2f072b	-0.042731445
230	0xbbf839ac	-0.0075752344
231	0x3ce18f3a	0.027534116
232	0xbe7912ef	-0.24323629
233	0x3c69a698	0.01426091
234	0xbe29fc07	-0.16600047
235	0xbe3ac86b	-0.18240516
236	0xbdd19c26	-0.10234861
237	0x3d244b96	0.040111147
238	0x3ec3bb29	0.3822873
239	0xbdbcb2ea	-0.09213813
240	0xbc9d94ad	-0.019235933
241	0x3e35bf74	0.17748815
242	0xbd3d74d5	-0.046253998
243	0xbd78567a	-0.060629345
244	0x3e00c75a	0.12576047
245	0xbc9a3ec6	-0.01882876
246	0x3dc3f522	0.0956824
247	0xbe8c1dcb	-0.2736648
248	0x3e621efc	0.22082132
249	0x3d2fd587	0.042928245
250	0xbdbc9b53	-0.09209313
251	0xbd8d60b4	-0.0690321
252	0x3d0f44bc	0.03497766
253	0xbdccb11a	-0.09994717
254	0x3c3a6327	0.011376179
255	0xbe1a9345	-0.15095241

head.0.bias f4 [36]
0	0xbe4830d0	-0.1954987
1	0x3e46fe66	0.19432983
2	0xbdcda90a	-0.10042007
3	0x3edd8e4b	0.43272623
4	0x3de81caf	0.11333596
5	0xbf74c5cf	-0.9561433
6	0xbd7ae018	-0.06124887
7	0xbf269fea	-0.6508776
8	0x3ea364b3	0.31912765
9	0xbe6fadcd	-0.23406143
10	0x3ea01974	0.3126942
11	0xbef54db7	-0.47910854
12	0xbec8e75a	-0.39239007
13	0xbee5afff	-0.44860837
14	0xbf2f6a4d	-0.6852158
15	0x3efcda8c	0.49385488
16	0xbe8feebb	-0.28111824
17	0x3f73f878	0.9530101
18	0xbfaf2c75	-1.3685442
19	0x3e2c4a1e	0.16825148
20	0xbe58c8f3	-0.21170406
21	0xbbb0fc80	-0.005401194
22	0x3f7c2987	0.98500866
23	0xbc68d398	-0.014210604
24	0x3e908857	0.2822902
25	0xbee00855	-0.43756357
26	0xbf2d5055	-0.677007
27	0xbe75c132	-0.2399948
28	0xbe80a4a0	-0.251256
29	0xbd9ef76f	-0.07762038
30	0x3ec51dac	0.384992
31	0x3e15c4d4	0.14625865
32	0x3ec8622d	0.39137402
33	0x3e97c7b6	0.29644555
34	0x3e9295ea	0.2863
35	0xbf80cebc	-1.006309

body.0.body.0.widen.weight f4 [64, 36, 1, 1]
0	0xbe46bb93	-0.19407491
1	0x3ef04b11	0.4693227
2	0xbe60ad77	-0.21941172
3	0xbe10d6d2	-0.14144447
4	0xbe1b26b2	-0.1515148
5	0x3d107b91	0.035274092
6	0xbd77d9d8	-0.060510486
7	0xbea8275a	-0.32842523
8	0xbd53ad79	-0.05167911
9	0xbe321ee4	-0.17394596
10	0x3cb90fb6	0.0225905
11	0x3ded930b	0.11600312
12	0xbda104ec	-0.07862267
13	0xbebdb677	-0.37053272
14	0x3da1e35d	0.07904694
15	0xbd9f5b14	-0.07781044
16	0xbe2b4885	-0.16726883
17	0xbe55a065	-0.20861967
18	0xbcf92d60	-0.030417144
19	0x3e49532e	0.19660637
20	0xbea895cd	-0.3292679
21	0xbe1b1777	-0.1514567
22	0xbeeb573f	-0.45965
23	0xbd26fac0	-0.040766478
24	0x3cb46af0	0.022023648
25	0x3d0d8d0c	0.03455834
26	0x3e704240	0.23462772
27	0x3d62a5b7	0.05533382
28	0x3ea217cb	0.31658778
29	0x3e7ff81e	0.24996993
30	0x3e4d7347	0.20063506
31	0x3e644bf6	0.22294602
32	0xbd3750f6	-0.044754945
33	0x3eaac513	0.3335348
34	0x3e3d00cf	0.1845734
35	0xbe1a9498	-0.15095747
36	0xbd983e70	-0.07433784
37	0x3d8a1a85	0.067433394
38	0x3dcbaa5b	0.09944602
39	0xbcdb5aad	-0.026776636
40	0xbd9c2b47	-0.07625442
41	0x3e040e3b	0.12896053
42	0xbdf48387	-0.11939149
43	0xbe41aac4	-0.18912798
44	0xbe0d774f	-0.13815044
45	0xbf0db363	-0.5535185
46	0xbdefba1c	-0.117054194
47	0xbe8f0add	-0.27937976
48	0x3de254e3	0.11051347
49	0x3e0b474c	0.13601416
50	0x3f557882	0.83387005
51	0xbd8238f8	-0.06358522
52	0x3e0f45a2	0.13991407
53	0xbddf9b67	-0.109183125
54	0x3c1c2f29	0.009532728
55	0xbe826dec	-0.2547449
56	0xbd04f03d	-0.03245567
57	0x3f4a86da	0.7911202
58	0xbe25744e	-0.16157648
59	0xbe25292c	-0.16128987
60	0xbd78f1c1	-0.06077743
61	0xbce421eb	-0.027848205
62	0xbd02abac	-0.031902
63	0xbdb7618f	-0.08954155
64	0x3f0575e6	0.52133024
65	0x3e575cca	0.2103149
66	0xbeed00f0	-0.46289778
67	0x3f1a44a1	0.6026097
68	0x3d638cb5	0.05555411
69	0x3e0510d5	0.12994702
70	0xbd88655d	-0.066599585
71	0x3dae94a0	0.08524442
72	0xbd2c7158	-0.04210028
73	0x3da663a4	0.08124474
74	0x3d1abe62	0.03777922
75	0x3e22ca8d	0.1589758
76	0xbd40a2d4	-0.047030285
77	0xbdbef3d2	-0.09323849
78	0x3bd055c7	0.0063578817
79	0xbe06f06c	-0.13177651
80	0x3e5c2151	0.21497084
81	0xbd7cc2cd	-0.061709214
82	0x3d2d2065	0.042267222
83	0xbde8b13c	-0.1136193
84	0x3df90a17	0.121601276
85	0x3e78b4af	0.24287675
86	0x3da4f739	0.080549665
87	0xbdd6063f	-0.1045041
88	0xbe703fd8	-0.23461854
89	0xbe3658d8	-0.17807329
90	0xbe901754	-0.28142798
91	0xbb19a2e2	-0.0023443033
92	0x3d1667b1	0.03671998
93	0x3d930df3	0.07180395
94	0x3dcda1ac	0.10040602
95	0xbd802699	-0.06257362
96	0x3e4c3d52	0.19945267
97	0x3e7915be	0.243247
98	0xbe40b35f	-0.18818425
99	0x3c768309	0.01504589
100	0xbd38a9d3	-0.045083832
101	0x3dc94aeb	0.098287426
102	0x3d8e2a3e	0.06941651
103	0xbe08d17e	-0.13361165
104	0xbd330319	-0.043704126
105	0x3d57f724	0.052725926
106	0xbc94bdcb	-0.018156907
107	0xbbe99623	-0.0071284934
108	0xbd0c3837	-0.0342333
109	0xbd46168f	-0.048361357
110	0x3e33cf58	0.17559564
111	0x3db56345	0.08856825
112	0xbeb7235c	-0.35769165
113	0xbec5027c	-0.38478458
114	0x3e96c29c	0.2944535
115	0x3dcb789d	0.099351145
116	0x3c27e883	0.010248306
117	0x3ddcdc14	0.10784164
118	0xbc4b2581	-0.012399078
119	0x3c9e6e8e	0.019339826
120	0x3e4d4838	0.2004708
121	0x3e08d73b	0.13363354
122	0xbd26043a	-0.040531375
123	0x3e1930a7	0.14959966
124	0xbcd682ec	-0.026185475
125	0x3e897353	0.26845798
126	0xbcf8919c	-0.03034287
127	0xbdd445bb	-0.103648625
128	0xbe24cb11	-0.16093089
129	0xbe8c2974	-0.27375376
130	0xbe17dbb0	-0.14829898
131	0xbe189499	-0.14900436
132	0x3dced42f	0.100990646
133	0xbe510f83	-0.20416074
134	0x3eab6c27	0.3348095
135	0xbe9a3fc1	-0.30126765
136	0x3dcbe0ba	0.099549726
137	0x3e94287b	0.28937134
138	0xbe6a30c1	-0.2287016
139	0x3da3b0ae	0.07992683
140	0xbebc7678	-0.36809134
141	0xbd2521f6	-0.04031559
142	0x3d2a3be2	0.041561015
143	0x3dfea702	0.12434198
144	0xbe3e23d0	-0.18568349
145	0x3cecdd93	0.028914249
146	0xbee5fd69	-0.449199
147	0x3d94b1bc	0.07260463
148	0xbf087fb3	-0.53319854
149	0xbf1885dc	-0.59579253
150	0x3e457db7	0.19286238
151	0xbee5936b	-0.44839033
152	0xbdfc26a9	-0.12312061
153	0x3ed5d6bc	0.41765392
154	0x3dcaa722	0.09895159
155	0xbe98180c	-0.29705846
156	0xbd015483	-0.031574737
157	0x3c80d71e	0.015727576
158	0x3ec0702c	0.3758558
159	0xbdbcd297	-0.09219854
160	0xbcbe791c	-0.023251109
161	0xbe8f3747	-0.2797186
162	0xbb8efa0e	-0.004363305
163	0x3ea713ab	0.32632193
164	0xbeb30016	-0.34961003
165	0x3de36c91	0.11104692
166	0xbbd7f993	-0.006591031
167	0x3e7254be	0.23665139
168	0x3c9fe319	0.019517468
169	0xbcf18b2c	-0.029485308
170	0x3dc040b4	0.09387341
171	0xbdb392a8	-0.08768207
172	0x3de00704	0.10938838
173	0x3b3a4dff	0.0028427837
174	0x3e7644f3	0.2404974
175	0xbe6469ce	-0.22305986
176	0xbddd74dd	-0.108133055
177	0xbf51f300	-0.82011414
178	0xbe1f0f55	-0.15533192
179	0x3e6b8e21	0.23003437
180	0xbc004057	-0.00782784
181	0x3ed32045	0.41235557
182	0xbdca6d29	-0.09884102
183	0x3df95d1a	0.12175961
184	0xbe10a557	-0.14125572
185	0x3dc4bb8b	0.096060835
186	0xbd766ba9	-0.060161266
187	0xbe869485	-0.26285186
188	0xbc8988cc	-0.016788863
189	0xbe602ddd	-0.21892495
190	0x3df56475	0.11982051
191	0xbe69ae80	-0.22820473
192	0xbc8d7d14	-0.017271556
193	0xbaea86f2	-0.0017893
194	0x3ec63861	0.3871489
195	0xbe812952	-0.25226837
196	0x3d405f06	0.04696562
197	0xbe9c0d97	-0.30479118
198	0x3d90bdb3	0.07067432
199	0xbe22991c	-0.15878719
200	0xbe85f611	-0.26164296
201	0xbe2d9a5e	-0.16953418
202	0xbd07fc75	-0.033199746
203	0x3d97a216	0.07403962
204	0x3da4d764	0.08048895
205	0xbda5898e	-0.08082877
206	0x3d870f7f	0.065947525
207	0x3d9921dd	0.07477162
208	0xbe8623be	-0.26199144
209	0xbe006b65	-0.12540968
210	0x3e684f36	0.22686467
211	0x3d9ebe2c	0.07751116
212	0xbdbe7fec	-0.09301743
213	0x3d44a68a	0.048010387
214	0xbea31507	-0.3185198
215	0x3ed64911	0.4185262
216	0x3e04298b	0.12906472
217	0xbed87732	-0.4227844
218	0x3cac0731	0.020999523
219	0x3deb65b2	0.11494006
220	0x3f20b6fe	0.62779224
221	0x3eff2a49	0.4983695
222	0xbd12acec	-0.035809442
223	0xbee5d277	-0.44887134
224	0xbdda9b69	-0.106741734
225	0xbe5e809f	-0.21728753
226	0x3cd5c4b6	0.026094776
227	0xbcae933c	-0.021310441
228	0xbd650468	-0.055912405
229	0xbeb10352	-0.34572846
230	0xbdcd9388	-0.10037905
231	0xbeb170c9	-0.3465636
232	0x3d253bcc	0.04034023
233	0xbe2e8689	-0.17043509
234	0xbbffd888	-0.007807795
235	0xbed6f78c	-0.41985738
236	0xbd44bd4d	-0.048032094
237	0x3ec166fb	0.3777388
238	0x3d9e6e3d	0.0773587
239	0x3d288b84	0.041148677
240	0x3e4e4d9b	0.20146792
241	0xbcba5c8f	-0.022749214
242	0x3d354184	0.044251934
243	0x3eae4a87	0.34041235
244	0x3ef3c1d2	0.4760881
245	0x3cc78f59	0.024360346
246	0xbe8f9e53	-0.2805048
247	0xbd862a48	-0.06551033
248	0x3cf240d8	0.029571936
249	0xbe273479	-0.1632861
250	0xbd178eac	-0.037001297
251	0x3d8b1f44	0.06793073
252	0x3bcbf7b7	0.0062245983
253	0xbcbb1837	-0.022838695
254	0xbdec6c95	-0.11544148
255	0xbe21ae7e	-0.1578922

body.0.body.0.widen.bias f4 [64]
0	0xbe5b1e8a	-0.21398368
1	0x3f85bb03	1.0447696
2	0xbf86fda5	-1.0546156
3	0x3ebf696d	0.3738512
4	0xbe8ff36f	-0.28115413
5	0x3f5de360	0.8667507
6	0x3e208e0b	0.15679185
7	0xbd4330c4	-0.04765393
8	0x3eb1f38a	0.34756118
9	0x3ebc6249	0.36793736
10	0xbe2c6030	-0.16833568
11	0xbd80ff64	-0.06298712
12	0xbf8b6cde	-1.0892599
13	0x3f78d68b	0.97202367
14	0x3c992d5d	0.018698389
15	0x3d8be10e	0.06830035
16	0x3fda227e	1.7041776
17	0xc0030969	-2.0474494
18	0xbea3ec98	-0.32016444
19	0x3ff40991	1.906542
20	0xbfef1cff	-1.8680724
21	0x3f9955f5	1.1979357
22	0xbec803a8	-0.3906529
23	0xbf36009e	-0.7109469
24	0x3ef847b9	0.4849222
25	0xbfac650b	-1.3468336
26	0x3e5e107f	0.2168598
27	0x3f273d1c	0.6532762
28	0xbfa37732	-1.277075
29	0x3f5a459a	0.85262454
30	0x3fd75248	1.6821985
31	0x3cffb66a	0.031214911
32	0xc03b66f8	-2.9281597
33	0x3feb10ae	1.8364465
34	0x3fcff2b9	1.6245948
35	0x4068b872	3.6362576
36	0xbf80a317	-1.0049771
37	0x3fa1f28a	1.2652142
38	0xbeb27d57	-0.34861252
39	0x3fd730ac	1.6811728
40	0x3f00bdd9	0.50289685
41	0xbf3caed9	-0.73704296
42	0xbff3b3bf	-1.9039229
43	0xbf5937d6	-0.84850824
44	0xbfb508cb	-1.4143308
45	0xbe16d72b	-0.14730518
46	0x3ff51e5d	1.9149891
47	0xbf901e5a	-1.1259263
48	0xc127429e	-10.453764
49	0x3f287fa0	0.6581974
50	0xbfcbb5f0	-1.5914898
51	0xbf8d271a	-1.1027558
52	0x3f801ee1	1.0009423
53	0xc04d2f8e	-3.2060275
54	0x3f7b41be	0.9814719
55	0xbfb36d5e	-1.4017751
56	0x3faf00a7	1.3672074
57	0xbfad7f1f	-1.3554419
58	0x40171e02	2.3612065
59	0x3f877d87	1.0585183
60	0xbeadffab	-0.33984122
61	0xbf7dd769	-0.99156815
62	0x3f41df44	0.757313
63	0xbf0ee6c9	-0.558209

body.0.body.0.b1.weight f4 [16, 1, 3, 3]
0	0x3cfda82d	0.030963982
1	0xbd6f4858	-0.0584186
2	0x3c1addd3	0.009452301
3	0xbce0518e	-0.027382638
4	0x3e52b6ee	0.20577595
5	0x3dd1ddd2	0.10247387
6	0xbcec9650	-0.028880268
7	0xbcc0d9f4	-0.023541428
8	0x3d061f8f	0.03274494
9	0x3d2886f9	0.041144345
10	0xbcf5fbc7	-0.030027283
11	0x3e0f8e94	0.14019233
12	0xbd969a49	-0.07353646
13	0xbdcd213a	-0.10016103
14	0xbcf84ba1	-0.0303095
15	0x3db7009b	0.08935662
16	0xbcea59b6	-0.02860723
17	0xbd3598fd	-0.044335354
18	0x3d52a320	0.0514251
19	0x3d1cc84b	0.03827695
20	0x3d00210b	0.031281512
21	0x3dd95a9c	0.106129855
22	0x3eaa7afe	0.3329696
23	0x3d51bf16	0.051207624
24	0x3be59f0c	0.0070074853
25	0x3b61792a	0.0034404495
26	0x3cce2392	0.025163446
27	0xbc91806c	-0.017761432
28	0x3d82d11e	0.06387542
29	0xbbbbd6c9	-0.0057323915
30	0x3d17482f	0.036934074
31	0x3d802996	0.06257932
32	0x3e36e383	0.17860226
33	0xba909bb5	-0.0011032732
34	0x3c9a68b5	0.018848756
35	0x3d46da52	0.04854805
36	0xbc01b892	-0.00791754
37	0xbb5b2131	-0.0033436532
38	0xbc0c69ca	-0.008570144
39	0x3ca6e457	0.020372553
40	0x3e886483	0.26639184
41	0x3c7b28ae	0.015329523
42	0xbc5a20ac	-0.013313454
43	0xba2b080b	-0.0006524331
44	0xbbecdc86	-0.007228437
45	0x3c0fe976	0.008783689
46	0x3ce60625	0.028079102
47	0xba34586f	-0.0006879633
48	0x3e1b6cb8	0.15178192
49	0x3e3d1f20	0.18468904
50	0xbbf8124d	-0.007570541
51	0xbacb40b3	-0.0015506953
52	0x3cb4d191	0.022072585
53	0xbb5e4db1	-0.003392082
54	0x3ce3f3fe	0.027826305
55	0x3d8a708b	0.06759747
56	0x3d12c2e4	0.035830393
57	0x3b027528	0.0019906256
58	0x3d8f6164	0.07000998
59	0x3e0c95d1	0.13729025
60	0x3bf6f518	0.0075365417
61	0x3d3e6d26	0.04649081
62	0x3cd10f50	0.025519997
63	0xb9eb24d2	-0.00044850126
64	0xbdd7b31c	-0.10532209
65	0x3d651e64	0.055937186
66	0xbe102864	-0.14077908
67	0xbd58e4a5	-0.052952427
68	0xbd93fa54	-0.07225481
69	0xbd206fe5	-0.03916921
70	0xbe0678ae	-0.13131973
71	0x3d771f0a	0.060332336
72	0x3ceb9877	0.028759224
73	0xbd28a1f8	-0.04117009
74	0xbb3e1bcb	-0.0029008265
75	0xbd5d460f	-0.05402189
76	0xbe38c251	-0.18042876
77	0xbda9ec6b	-0.08297046
78	0x3beb5840	0.007182151
79	0xbd979047	-0.074005656
80	0x3d52da92	0.051477976
81	0xbc9419cd	-0.018078709
82	0xbcb28aa7	-0.02179463
83	0x3c989ec6	0.018630397
84	0xbd1bdbc2	-0.038051374
85	0xbe1a1563	-0.15047221
86	0xbd8674fb	-0.06565281
87	0xbd061445	-0.032734174
88	0xbc1d1221	-0.009586842
89	0x3badbe48	0.0053022243
90	0xbb977b5a	-0.004622859
91	0xbc11e8df	-0.008905618
92	0xbc19b701	-0.00938201
93	0x3c9c987d	0.01911568
94	0xbe88795e	-0.26655096
95	0xbd1fbf7f	-0.039000984
96	0xbc797f8a	-0.015228162
97	0xbc167170	-0.009182319
98	0xbbc4cebf	-0.0060060914
99	0x3afe4cad	0.0019401513
100	0xbc0d13a8	-0.008610643
101	0x3b0df6f7	0.0021662095
102	0x3c817a22	0.015805308
103	0xbec915d1	-0.39274457
104	0xbb51d557	-0.003201803
105	0xbbc5a88f	-0.0060320566
106	0xbcb0fc75	-0.021604756
107	0x3a9c36eb	0.0011918222
108	0x398bb4a5	0.00026646737
109	0xbb6c39aa	-0.0036045113
110	0x3c1e6cfd	0.0096695395
111	0x3cc6872a	0.024234373
112	0x3e66e552	0.22548416
113	0xbe98845e	-0.29788488
114	0xbc418405	-0.011811261
115	0x3ca155ad	0.019694174
116	0xbd9bdd3b	-0.07610556
117	0x3ab122e2	0.0013514424
118	0x3ca04c6d	0.019567693
119	0xbd6e6da2	-0.058210023
120	0xbc320d85	-0.010867481
121	0x3e75d273	0.24006061
122	0x3ca2d9dc	0.019879274
123	0xbbfb9229	-0.0076773358
124	0xbc8a91fe	-0.016915318
125	0x3bda7b8e	0.006667561
126	0x3bb088a0	0.0053873807
127	0x3d876248	0.066105425
128	0x3a3ec1b8	0.0007276791
129	0x3d89ca77	0.0672807
130	0x3e5ce4ab	0.21571605
131	0xbd560ee8	-0.05226031
132	0x3cbc1bcf	0.022962479
133	0xb89091e3	-6.8936286e-05
134	0x3c9bb189	0.019005554
135	0x3b9709a1	0.004609302
136	0xbdba2a4e	-0.090901
137	0x3bfd0fb8	0.007722821
138	0xbdc95b4e	-0.09831868
139	0xbdb7f2f9	-0.0898189
140	0xbde66ea3	-0.11251571
141	0xbc3a52c8	-0.011372276
142	0xbd960d9f	-0.07326817
143	0xbcbf53af	-0.023355333

body.0.body.0.b1.bias f4 [16]
0	0xbefcf171	-0.49402955
1	0xbe523472	-0.20527819
2	0xbfadf763	-1.3591121
3	0x3ead89f0	0.338943
4	0xbd3d49ce	-0.046212964
5	0x3f02de52	0.51120484
6	0xbdb72405	-0.08942417
7	0x3e8fdcee	0.28098243
8	0x3c3934a1	0.011304052
9	0x3cc8f3b8	0.024530277
10	0xbd625649	-0.05525807
11	0x3bb79b6a	0.0056032436
12	0x3dc40ed5	0.095731415
13	0x3f301fff	0.6879882
14	0xbd70c6b5	-0.05878325
15	0xbebf0876	-0.37311143

body.0.body.0.b2.0.weight f4 [16, 1, 3, 3]
0	0x3c749396	0.014927765
1	0xbcba9fe6	-0.022781324
2	0xbbdb6b53	-0.0066961437
3	0xbbc4a85b	-0.006001515
4	0xbd7cd229	-0.06172386
5	0xbe56b8d5	-0.20968945
6	0xba842428	-0.0010081576
7	0x3ca1d607	0.019755377
8	0xbd075b69	-0.03304616
9	0x3b147898	0.0022654887
10	0xbbb19c79	-0.0054202643
11	0x3be08e78	0.006852921
12	0xbbc7fc2c	-0.0061030593
13	0x3d3c3ed5	0.04595836
14	0x3e816a3d	0.25276366
15	0x3964d60c	0.00021823513
16	0xbb8a252d	-0.0042158575
17	0xbd2007a8	-0.0390698
18	0x3c7435f9	0.014905446
19	0xbdc2efa3	-0.09518363
20	0x3c693053	0.014232713
21	0xbd679ad9	-0.05654416
22	0x3dcc574c	0.09977588
23	0xbd0fd63d	-0.035116423
24	0xbcfd2ed5	-0.03090612
25	0xbd58df49	-0.052947316
26	0xbd178eec	-0.037001535
27	0xbc1585f3	-0.009126174
28	0x3bd70f6a	0.006563117
29	0xbd318fce	-0.043350033
30	0xbdabeeb3	-0.08395138
31	0xbdd419d6	-0.1035649
32	0x3c073cef	0.008254274
33	0xbba66f44	-0.005079182
34	0xbc6c89d5	-0.014437159
35	0xbd03f9db	-0.032220703
36	0xbb1207dd	-0.002228252
37	0x3d93d68a	0.072186545
38	0xbd11f41c	-0.03563319
39	0xbd81da26	-0.06340437
40	0x3e6f9678	0.23397243
41	0xbcf0e453	-0.029405748
42	0x3c2f4167	0.0106967455
43	0x3c354579	0.011063927
44	0x3b407bfc	0.0029370775
45	0x3a8e97cf	0.0010878983
46	0x3cd0070a	0.025393981
47	0xbc81b80c	-0.01583483
48	0xbc1a2dd3	-0.009410339
49	0xbe7a90c3	-0.24469285
50	0xbd23dcf2	-0.04000563
51	0xbc654ebc	-0.0139958225
52	0x3ac81dce	0.0015267672
53	0xbd0bac21	-0.0340997
54	0xbd019310	-0.03163439
55	0xbcbe48a5	-0.023227999
56	0xb884bb1b	-6.3291016e-05
57	0xbe0a0524	-0.13478523
58	0xbd480469	-0.04883233
59	0xbd918a4e	-0.07106458
60	0xbbab31e9	-0.0052244556
61	0x3dc6f440	0.09714556
62	0x3c848070	0.016174525
63	0xbd7eb471	-0.0621838
64	0x3d1e3ba0	0.03863108
65	0x3c13e163	0.009025904
66	0xbdaf3b29	-0.08556206
67	0xbda00752	-0.07813896
68	0xbbf19287	-0.0073722037
69	0xbd5467d8	-0.051856846
70	0x3db4dded	0.088313915
71	0xbb0f93f8	-0.0021908265
72	0x3ce3eb23	0.027822083
73	0xbd3dd639	-0.046346877
74	0xbc72c653	-0.014817792
75	0x3c68d921	0.014211924
76	0xbd09ba59	-0.03362498
77	0x3c82fce1	0.015989723
78	0x3e0d7646	0.13814649
79	0xbdc0999e	-0.094043
80	0x3d06ca70	0.032907903
81	0xba1e1d61	-0.00060315995
82	0xbcfc52a6	-0.030801129
83	0xbb2881e9	-0.0025712198
84	0x3d8a83af	0.06763398
85	0x3e5f4683	0.21804242
86	0x3cfbe6cc	0.030749701
87	0xb967f862	-0.00022122407
88	0x3ce2b65a	0.027674843
89	0xbc5e23f1	-0.013558374
90	0x3d3b4de7	0.04572859
91	0xbdae332b	-0.08505853
92	0x3d2eacc5	0.042645235
93	0xbde0bf05	-0.10973934
94	0x3e637738	0.22213447
95	0xbda6d83b	-0.081467114
96	0x3d1ad7f3	0.0378036
97	0xbe0a10dc	-0.13482994
98	0x3cfc3692	0.03078774
99	0x3cb9f777	0.022701008
100	0xbd6488bc	-0.055794463
101	0x3cc056ce	0.023478892
102	0x3c47afea	0.012187937
103	0x3e01d523	0.12678961
104	0xbc681958	-0.014166199
105	0x3c9a3eee	0.018828835
106	0x3ca6eb4a	0.020375866
107	0xbc8769e8	-0.016529992
108	0xbc4b1bea	-0.012396792
109	0xbbfd63c9	-0.0077328426
110	0x3cae66ca	0.021289248
111	0xbce37b05	-0.027768621
112	0x3e90a926	0.2825405
113	0xbc3ea9f0	-0.011637196
114	0x3d03cbaa	0.03217665
115	0x3cb07514	0.021540202
116	0xbd176a3a	-0.03696654
117	0xbc9c245f	-0.019060312
118	0x3d74f5e0	0.059804797
119	0x3c7c6249	0.015404292
120	0xbde8910f	-0.11355793
121	0xbe218825	-0.15774591
122	0x3d6b3668	0.057424933
123	0x3e3aeb51	0.18253829
124	0xbce15282	-0.027505163
125	0xbb0f2593	-0.0021842464
126	0xbbbc1416	-0.005739699
127	0xbe083d67	-0.13304673
128	0x3e253bf4	0.16136152
129	0x3cde4586	0.02713276
130	0xbe1229a7	-0.14273702
131	0xbdbc65ff	-0.09199142
132	0x3c49986b	0.012304406
133	0x3bde83e6	0.006790626
134	0x3b84308e	0.0040341085
135	0xbc80620b	-0.01567175
136	0xbccead23	-0.025229042
137	0x3c894cb9	0.016760217
138	0xbe13ccf4	-0.14433652
139	0x3e27b727	0.16378461
140	0xbcb3a4c0	-0.021929145
141	0xbcec280e	-0.028827693
142	0xbcd25d7b	-0.02567934
143	0x3c4f2a53	0.012644368

body.0.body.0.b2.0.bias f4 [16]
0	0xbf602e31	-0.8757048
1	0xbf0b46a1	-0.54404646
2	0x3f8cc79b	1.0998415
3	0xbf45f8ef	-0.7733297
4	0xbf74c410	-0.9561167
5	0xbee918b2	-0.45526654
6	0x3fa09a34	1.2547059
7	0x3f9fbab7	1.2478856
8	0x3f78c5fd	0.97177106
9	0xbfa6e15e	-1.3037527
10	0xbf100359	-0.5625511
11	0x3fde68fe	1.7375791
12	0xbf30af11	-0.6901713
13	0xbf9c0d95	-1.2191645
14	0xbfc1627e	-1.5108182
15	0x3fa33f71	1.2753736

body.0.body.0.b3.0.weight f4 [16, 1, 3, 3]
0	0xb9773a8d	-0.00023577567
1	0x3cddffc0	0.02709949
2	0x3b21c533	0.002468419
3	0x3cf01505	0.029306898
4	0x3e04d0b6	0.12970242
5	0x3caff71f	0.021480141
6	0xbaf40b00	-0.0018619001
7	0x3be20ea5	0.0068987184
8	0x3c3a82bf	0.011383711
9	0x3b90f2d3	0.004423478
10	0x3d2511a7	0.040300038
11	0xbd054b8f	-0.03254276
12	0xbd42b677	-0.047537293
13	0xbd687449	-0.056751523
14	0xbddfd72f	-0.10929715
15	0x3c13d2be	0.009022413
16	0x3ca1aadc	0.019734792
17	0xbc142123	-0.009041104
18	0x3bb372b6	0.005476321
19	0xbcab1234	-0.020882703
20	0x3df68509	0.12037093
21	0x3ba74d1d	0.005105628
22	0x3c7d066e	0.0154434275
23	0xbe2e1f60	-0.17004156
24	0xbc613abb	-0.013746913
25	0x3c14d961	0.00908503
26	0xbb99b180	-0.004690349
27	0x3e7c40d2	0.24634102
28	0xbd976842	-0.073929325
29	0x3d986860	0.07441783
30	0xbd94baa4	-0.072621614
31	0xbe66e8a6	-0.22549686
32	0xbc4d4335	-0.01252823
33	0x3da31e25	0.07964734
34	0xbc66546b	-0.014058213
35	0xbd042507	-0.032261875
36	0xbcd1a32e	-0.025590505
37	0x3d5598b9	0.0521476
38	0xbcc2aaf3	-0.023763156
39	0x3d8f92e6	0.070104405
40	0xbe0ea39f	-0.13929604
41	0x3d379486	0.044819377
42	0xbcaf9f56	-0.021438282
43	0x3dabad44	0.08382657
44	0xbc80827b	-0.015687218
45	0xbb9251e0	-0.0044653267
46	0x3c535045	0.012897556
47	0xbab6f2a8	-0.0013957815
48	0x3d168422	0.036747105
49	0x3e3e6ee6	0.18596992
50	0x3d065e94	0.03280504
51	0xba954905	-0.0011389559
52	0x3c922cbf	0.017843602
53	0xbb8e59ba	-0.0043441923
54	0x3cca1983	0.024670368
55	0xbad4f8cc	-0.0016248464
56	0x3c06dca0	0.008231312
57	0x3d05f2ff	0.032702442
58	0x3dd02535	0.10163347
59	0x3c2e71a5	0.010647212
60	0x3d36fc1c	0.044674024
61	0x3c810752	0.01575056
62	0x3d3e6320	0.04648125
63	0x3c7464f0	0.0149166435
64	0x3dcc91be	0.099887356
65	0xbd78253b	-0.06058238
66	0x3d7975ff	0.060903545
67	0xbe300ddf	-0.17192791
68	0xbdeceaf5	-0.11568252
69	0xbd4c8f8b	-0.04994158
70	0xbdcbc2bb	-0.09949251
71	0x3d3489c2	0.04407669
72	0x3c473dea	0.012160758
73	0xbe666b80	-0.22501945
74	0x3c28d521	0.01030472
75	0x3cbe91db	0.023262909
76	0x3d37e9ca	0.044900693
77	0x3b92136d	0.004457882
78	0x3bfae7e4	0.007657038
79	0xbc7449a0	-0.014910132
80	0x3ad33ec0	0.0016116723
81	0xbcc9b193	-0.024620807
82	0xbae25a2c	-0.0017269305
83	0x3be18b58	0.006883066
84	0xbba6fe74	-0.005096251
85	0xbe281c4d	-0.16417046
86	0xbcb88ae9	-0.022527175
87	0xbc5f3d50	-0.013625458
88	0x3b995f49	0.0046805483
89	0xbc11118c	-0.008854281
90	0xba4be1ec	-0.00077775004
91	0xbb3ef4dc	-0.0029137647
92	0xbb49812e	-0.0030747163
93	0xba585cf5	-0.0008253598
94	0xbbc780f7	-0.006088372
95	0xbb75fbfa	-0.0037534223
96	0xbb0d09d1	-0.0021520744
97	0xbb70125b	-0.0036632034
98	0xba335f8f	-0.00068425474
99	0xba890e48	-0.0010456527
100	0xbb491952	-0.0030685258
101	0x3ccc0e31	0.02490911
102	0x3ac99f30	0.0015382525
103	0x3eadb2da	0.33925515
104	0x3b6c2132	0.0036030528
105	0x3ad7563f	0.0016428902
106	0x3b599c43	0.0033204712
107	0x3be47bd1	0.006972768
108	0x3b5b1e29	0.0033434725
109	0x3c083887	0.008314258
110	0xba68b0a4	-0.0008876419
111	0xbc0bccec	-0.008532744
112	0x3e8ba696	0.27275532
113	0xbcae3f8d	-0.021270538
114	0x3b3c8553	0.002876599
115	0x3d094932	0.03351707
116	0xba888791	-0.0010416378
117	0x3ce26e09	0.02764036
118	0xbce41554	-0.027842201
119	0x3c07d12c	0.008289617
120	0x3e878a31	0.2647262
121	0xbe68bb2f	-0.22727655
122	0xbd25dc44	-0.040493265
123	0xbe97730f	-0.2957997
124	0x3e7bed41	0.24602224
125	0x3d21656a	0.039403357
126	0xbbd05d3e	-0.0063587716
127	0xbd128698	-0.03577289
128	0xbc46efdd	-0.012142149
129	0xbcdb72b9	-0.026788102
130	0xbe198e35	-0.14995654
131	0x3a2ffa1b	0.0006712989
132	0xbc11026d	-0.008850676
133	0xbc887bb9	-0.016660558
134	0x3c36620b	0.011131774
135	0xbcea0662	-0.028567497
136	0xbb414a05	-0.0029493582
137	0xbb918de8	-0.0044419654
138	0xbbfb7464	-0.007673787
139	0xbecce3fb	-0.40017685
140	0xbc8a7867	-0.016903115
141	0xbc6ab61b	-0.014325644
142	0x3cfad48e	0.030618932
143	0xbcd40d51	-0.025885256

body.0.body.0.b3.0.bias f4 [16]
0	0x3cb7e130	0.022446245
1	0xbfd8f318	-1.6949186
2	0xbef3fe3c	-0.47654903
3	0x3d61eee9	0.055159483
4	0xbed6a235	-0.4192063
5	0x402cf0fb	2.7022083
6	0x3fe7f696	1.8122127
7	0xbff488c1	-1.9104234
8	0x3f903018	1.1264677
9	0x3f8ca5e8	1.098813
10	0x403a0572	2.9065824
11	0xbef0c3b5	-0.47024313
12	0xbfb192ee	-1.3872964
13	0xbfa22f24	-1.2670636
14	0xbf3b996f	-0.73280996
15	0x3fdbcfc6	1.7172782

body.0.body.0.b4.0.weight f4 [16, 1, 3, 3]
0	0xbac50916	-0.0015032615
1	0xbd43d6ad	-0.047812153
2	0xbb1901cc	-0.0023347018
3	0xbc767374	-0.015042175
4	0xbe948b99	-0.29012755
5	0xbd94d5fe	-0.07267378
6	0x3bb0ca35	0.0053951987
7	0x3eaf07a3	0.34185514
8	0x3da4962c	0.080364555
9	0xbcfc139a	-0.030771066
10	0x3c14c49f	0.009080081
11	0x3c3ffc03	0.011717799
12	0xbbf04452	-0.007332363
13	0x3d1bb354	0.038012818
14	0xbdf65ec5	-0.120297946
15	0xbcda7a78	-0.026669726
16	0x3d9d3cd6	0.07677619
17	0x3dcc7402	0.09983064
18	0xbc10e755	-0.008844216
19	0x3ce5c169	0.028046327
20	0xbcc81f5b	-0.024429014
21	0x3c6a0b37	0.0142849
22	0x3e8482bc	0.25880992
23	0x3ce6f5bb	0.028193345
24	0xbc0ee96b	-0.008722643
25	0x3ceaf199	0.028679656
26	0xbcab476a	-0.020908076
27	0x3d8e9436	0.06961863
28	0x3ca9ebfe	0.020742413
29	0x3d0126fc	0.03153132
30	0x3d537731	0.05162734
31	0x3d335d3f	0.0437901
32	0x3d49c1cd	0.04925709
33	0x3d956701	0.07295037
34	0x3d27d278	0.040972203
35	0x3d942ca5	0.07235078
36	0x3d2f23ad	0.042758632
37	0x3d0481d3	0.032350373
38	0x3bc2c1e6	0.0059435247
39	0x3dfbb949	0.122912
40	0xbd67f53f	-0.05663037
41	0xbcf590d4	-0.029976286
42	0x3cb836ee	0.02248713
43	0x3d08016e	0.03320449
44	0x3bb36197	0.00547428
45	0x3d2818a1	0.041039113
46	0xbcc30861	-0.023807706
47	0xbd44455b	-0.047917705
48	0x3d773416	0.060352407
49	0xbd350499	-0.044193838
50	0x3dff6a44	0.124714404
51	0xbd9e6a98	-0.07735175
52	0x3dfb2b71	0.12264145
53	0xbe405007	-0.18780528
54	0xbc441e16	-0.011970064
55	0x3cab4221	0.020905556
56	0x3c2b52e3	0.010456773
57	0xbdb9dc42	-0.09075214
58	0xbe61fad6	-0.22068343
59	0xbcfc2831	-0.030780884
60	0x3c816baf	0.015798418
61	0xbd2c09cb	-0.042001527
62	0x3bf3c324	0.007439034
63	0xbcd57368	-0.026056007
64	0x3d590c28	0.05299011
65	0xbc062d31	-0.008189485
66	0xbc05af1b	-0.008159424
67	0x3ea6f06a	0.32605296
68	0x3d1a4db3	0.037671756
69	0xbab87794	-0.0014073723
70	0x3b367244	0.0027839104
71	0x389b1709	7.3952666e-05
72	0x3d5b337c	0.053515896
73	0xbde286fc	-0.110609025
74	0x3cea97b0	0.028636783
75	0xbce956c4	-0.028483756
76	0xbe0406e5	-0.12893255
77	0xbd1c7743	-0.038199674
78	0xbc28e3b7	-0.010308198
79	0x3d128a7d	0.035776604
80	0xbc7062ea	-0.01467202
81	0xbd19c3e3	-0.037540328
82	0x3d7c4a96	0.06159457
83	0xbd6b8cea	-0.057507433
84	0x3e02e276	0.127817
85	0xbe61f300	-0.22065353
86	0x3df0c74d	0.117567636
87	0xbd9cc334	-0.076544195
88	0x3e0930d8	0.13397539
89	0xbd8860aa	-0.06659062
90	0xbd05c6c7	-0.032660272
91	0xbe848adf	-0.258872
92	0x3d809d64	0.0628002
93	0x3ba1dde7	0.004939783
94	0xbd807b2f	-0.062734954
95	0xbb02783f	-0.0019908098
96	0xba69322d	-0.00088957214
97	0x3cab6546	0.020922314
98	0xbbadf969	-0.005309273
99	0xbd268403	-0.04065324
100	0x3cdd6687	0.027026428
101	0x3bf29ef7	0.007404204
102	0xbcc7bae6	-0.024381112
103	0xbe46fb87	-0.19431888
104	0x3d15806d	0.03649943
105	0x3dc8bae1	0.09801269
106	0xbd3f984a	-0.046776094
107	0xbcb9b235	-0.022667984
108	0x3bb31120	0.005464688
109	0x3c94418e	0.018097665
110	0x3c8a8022	0.016906802
111	0x3cef5cfb	0.029219141
112	0x3e161918	0.1465801
113	0x3b512fcd	0.003191936
114	0x3c36cfe4	0.011157963
115	0x3bd239f9	0.0064156023
116	0x3cd02e03	0.025412565
117	0xbc0b0542	-0.00848514
118	0xbdb49a60	-0.08818507
119	0xbba6623e	-0.0050776294
120	0xbd066dde	-0.03281962
121	0x3b008b7f	0.0019614396
122	0xbc39e092	-0.011345046
123	0xbaf47675	-0.0018651026
124	0xbdbbdded	-0.09173188
125	0x3cf1b7bd	0.029506559
126	0xbd6fe6d1	-0.058569733
127	0x3d9027ce	0.07038842
128	0x3d3f74f2	0.046742387
129	0x3d90d8b4	0.07072583
130	0x3db3d3a2	0.087806
131	0xbdf18f5d	-0.117949225
132	0x3ccd8f30	0.025092691
133	0xbe03f765	-0.12887342
134	0x3c1aa796	0.00943937
135	0x3bf62021	0.0075111543
136	0x3cd0d18f	0.02549055
137	0x3c766d25	0.0150406705
138	0xbac060eb	-0.0014677321
139	0xbe5c78c4	-0.21530443
140	0x3cca6bfe	0.024709698
141	0x399535e7	0.00028459655
142	0xbbe7d727	-0.0070752087
143	0x3ba37073	0.00498777

body.0.body.0.b4.0.bias f4 [16]
0	0xbffa2853	-1.9543556
1	0x3f609a12	0.8773509
2	0xbfcd30bb	-1.6030496
3	0x3db8aa3f	0.09016847
4	0x3fcf2944	1.6184468
5	0xbda10652	-0.07862534
6	0xbf3cf63c	-0.73813224
7	0xbf5e923e	-0.869419
8	0xbf2a6620	-0.6656208
9	0x3cf4605b	0.029831102
10	0xbf7b9553	-0.98274726
11	0xbfd5c54d	-1.6700836
12	0x3f89aa6f	1.0755137
13	0x3fb68413	1.4259056
14	0x3f6e641f	0.9312152
15	0xbf78ef6e	-0.9724034

body.0.body.0.sa.conv_y.weight f4 [16, 16, 1, 1]
0	0xbd591a6f	-0.053003725
1	0xbd26f818	-0.040763944
2	0xbd0f8af2	-0.035044618
3	0xbb5fbf24	-0.0034141028
4	0x3e135dc7	0.14391242
5	0xbdfde1fe	-0.1239662
6	0x3cee6c1b	0.029104283
7	0xbd4d94ca	-0.050190724
8	0xbb350d2e	-0.0027626264
9	0x3d785e6f	0.060636934
10	0xbd27ebf7	-0.040996518
11	0xbe42804e	-0.18994257
12	0x3d9348ce	0.07191621
13	0x3d09e3eb	0.033664625
14	0xbc669b60	-0.01407513
15	0x3d245823	0.040123116
16	0x3e304910	0.17215371
17	0x3d2aab8d	0.04166751
18	0x3e954d4c	0.29160535
19	0xbca67491	-0.020319255
20	0xbd7d8d6e	-0.061902456
21	0xbde84632	-0.11341514
22	0x3d3c83bb	0.046024065
23	0xbd2891b0	-0.041154563
24	0xbd095d43	-0.033536207
25	0x3c44d9aa	0.012014786
26	0xbe6a2a3c	-0.22867674
27	0x3cbfcccf	0.02341309
28	0xbeac1215	-0.33607545
29	0xbc63d8b3	-0.013906646
30	0xbe32f30d	-0.17475529
31	0x3ccbe437	0.024889095
32	0x3d6a883a	0.057258822
33	0x3dc3b066	0.0955513
34	0x3cad42fe	0.021150108
35	0x3d6fe980	0.058572292
36	0xbe8b5cd0	-0.27219248
37	0x3dc22cbd	0.094811894
38	0x3df2edc4	0.118617564
39	0x3d09f78a	0.033683337
40	0x3d7a4aaf	0.06110638
41	0xbd827bf5	-0.06371299
42	0x3d2dccec	0.042431757
43	0xbe05e0e4	-0.1307407
44	0xbe282822	-0.1642156
45	0xbdd449a1	-0.10365606
46	0x3e64d15c	0.2234549
47	0xbd4e3a8b	-0.0503488
48	0x3d874c8b	0.06606396
49	0xbcdd190d	-0.026989484
50	0x3df82e84	0.12118247
51	0x3c129c21	0.008948357
52	0xbdda9b91	-0.10674203
53	0x3dd62174	0.104555994
54	0xbc2c6317	-0.010521672
55	0x3e04b5dc	0.12959999
56	0xbae9eb5f	-0.0017846635
57	0x3c46e07e	0.012138484
58	0xbb5f7873	-0.0034098893
59	0x3e0a170f	0.13485359
60	0xbe079ac8	-0.13242638
61	0xbdc61832	-0.09672584
62	0x3ca83081	0.020530941
63	0x3d38f162	0.045152076
64	0x3e358dcd	0.17729874
65	0x3d14e84e	0.036354356
66	0x3e03236a	0.12806478
67	0xbf00afc0	-0.50268173
68	0x3df418d7	0.119188
69	0x3da0766a	0.07835086
70	0x3ec091bb	0.37611184
71	0x3ead0eb5	0.33800283
72	0x3e222bb4	0.15836984
73	0x3ef49d9f	0.47776505
74	0x3e8787be	0.2647075
75	0x3e2f1796	0.17098841
76	0xbd68de6f	-0.056852754
77	0x3ea4ae57	0.3216426
78	0x3c732f5b	0.014842833
79	0x3e97ef67	0.29674837
80	0x3da74fbb	0.08169504
81	0xbd65bf1e	-0.056090467
82	0xbd5d4a55	-0.054025967
83	0x3e87cdfc	0.2652434
84	0x3dd94c3a	0.10610242
85	0x3d777a78	0.06041953
86	0x39829280	0.00024904683
87	0x3efde7bf	0.4959087
88	0xbb4e695f	-0.0031495912
89	0xbe21dd10	-0.15806985
90	0xbdb6f6c8	-0.089337885
91	0xbf2334b3	-0.6375229
92	0xbc1c6684	-0.009545926
93	0xbdb4eca9	-0.08834202
94	0x3cf0d187	0.029396785
95	0xbdb41269	-0.08792574
96	0xbd6f55d6	-0.05843147
97	0x3d9bd4b1	0.07608927
98	0x3db5712f	0.08859479
99	0x3f038508	0.51374865
100	0xbdecd5bb	-0.11564203
101	0x3df3854c	0.11890659
102	0x3ddb14b3	0.106973074
103	0x3ee2960c	0.44255102
104	0x3e3abdf4	0.18236524
105	0x3db36ab5	0.08760587
106	0x3e48ad03	0.19597249
107	0x3e8e42a4	0.27785218
108	0x3d3d5f88	0.046233684
109	0xbd83dfc0	-0.06439161
110	0xbe560571	-0.20900513
111	0xbd48f2ce	-0.04905968
112	0x3d49e253	0.049288105
113	0xbc8d956f	-0.01728317
114	0x3dd4db10	0.10393345
115	0x3eea60b0	0.45776892
116	0xbedbff9b	-0.4296845
117	0x3cdbb5d9	0.02682011
118	0xbc49cf12	-0.012317436
119	0xbf6cad5a	-0.92452013
120	0xbf581f1a	-0.8442246
121	0xbd3e9b18	-0.046534628
122	0xbcd93bec	-0.02651783
123	0x3d8f9845	0.07011465
124	0x3d729cc9	0.059231553
125	0xbd78d5e3	-0.060750853
126	0xbe757686	-0.23970994
127	0xbe99cbb6	-0.30038232
128	0x3c2d9d04	0.0105965175
129	0xbd367ffc	-0.04455565
130	0x3c59aae8	0.013285376
131	0x3ac338ed	0.0014894285
132	0x3c21237d	0.009835121
133	0xbdde473b	-0.1085343
134	0xbc03a95f	-0.008035987
135	0xba883798	-0.0010392545
136	0x3cb19426	0.021677088
137	0xbcf40447	-0.029787196
138	0x3f89a88f	1.0754565
139	0xbdda9ab0	-0.106740355
140	0x3a8feafd	0.0010980066
141	0xba9178b2	-0.0011098592
142	0xbbf830aa	-0.0075741606
143	0x3d11fbe7	0.035640623
144	0xbe024caa	-0.12724558
145	0x3ecd1837	0.40057537
146	0xbef613b5	-0.4806191
147	0xbcc50928	-0.024052218
148	0x3d36766e	0.044546537
149	0x3e854a4e	0.26033252
150	0x3d0ea46f	0.034824785
151	0xbd6224e3	-0.05521096
152	0x3dd25f94	0.10272136
153	0xbeb209ca	-0.34773093
154	0xbc92276c	-0.017841063
155	0xbdd26f2b	-0.1027511
156	0xbc0c86b0	-0.008577034
157	0x3c20ba19	0.009809994
158	0xbdffc854	-0.124893814
159	0xbac5a6f8	-0.0015079668
160	0x3df8b658	0.12144154
161	0xbf49447f	-0.7862014
162	0xbea0cd92	-0.31406838
163	0xbeb124d6	-0.34598416
164	0x3c929130	0.017891496
165	0x3e7155c0	0.23567867
166	0xbed96dc7	-0.42466566
167	0xbd426814	-0.047462538
168	0xbe090510	-0.13380837
169	0xbeb868e5	-0.36017528
170	0xbd54f26f	-0.051989015
171	0xbe48ebe8	-0.19621241
172	0xbc5a3851	-0.013319091
173	0xbd64f2ae	-0.0558955
174	0x3e3d83d4	0.1850732
175	0x3e882243	0.2658864
176	0xbe270258	-0.16309488
177	0x3f33b30b	0.7019507
178	0xbf4d15e1	-0.8011151
179	0xbe49fc2e	-0.19725105
180	0xbd831ae2	-0.06401612
181	0x3d99d152	0.07510628
182	0xbe962f71	-0.2933307
183	0xbe422fed	-0.18963595
184	0x3e96e00c	0.2946781
185	0x3f02e325	0.51127845
186	0xbe94bf9b	-0.29052433
187	0xbe9dc7a9	-0.3081639
188	0xbcfc2760	-0.030780494
189	0xbd8c6aad	-0.06856284
190	0xbbb23036	-0.005437876
191	0x3daeace9	0.08529074
192	0x3e94f6a1	0.29094413
193	0xbe015549	-0.1263019
194	0x3c45ddf5	0.012076844
195	0x3e8e2e68	0.2776978
196	0xbeb155af	-0.34635684
197	0xbdd8a671	-0.10578621
198	0xbd278278	-0.04089591
199	0xbd772c61	-0.060345057
200	0x3dafd0e5	0.08584765
201	0xbcbeeb9c	-0.023305707
202	0x3dfef218	0.124485195
203	0x3e9d679a	0.30743104
204	0x3c9585b6	0.018252235
205	0xbd9f3388	-0.07773501
206	0xbe4adace	-0.1981003
207	0x3cca5976	0.024700861
208	0xbed77995	-0.42084947
209	0xbd9ff92f	-0.078112
210	0xbdaa9f92	-0.08331217
211	0xbc7fd3a0	-0.01561442
212	0x3ceb015e	0.028687175
213	0xbd520dee	-0.051282816
214	0xbe6fa537	-0.23402868
215	0xbd3391d9	-0.043840263
216	0x3cd37ec2	0.025817279
217	0xbe7ed0f8	-0.24884403
218	0x3db645d8	0.089000404
219	0xbd99c917	-0.07509058
220	0xbdb12ca7	-0.08651095
221	0x3e1a97da	0.1509699
222	0xbd511353	-0.05104382
223	0xbde68410	-0.11255658
224	0x3d0e755e	0.0347799
225	0x3dec8011	0.11547864
226	0x3cd5c361	0.02609414
227	0xbead4744	-0.33843434
228	0x3e595b19	0.21226157
229	0xbe002d61	-0.1251731
230	0x3ef3d76d	0.47625294
231	0xbe54e8cb	-0.20791928
232	0xbcbb6867	-0.022876931
233	0x3c9ac13d	0.018890971
234	0x3e16a5fc	0.14711756
235	0xbeb01127	-0.34388086
236	0xbe15adf0	-0.14617133
237	0xbe48f184	-0.19623381
238	0xbda0e5fb	-0.07856365
239	0xbce7fb27	-0.028318001
240	0x3d8b4c31	0.06801642
241	0x3d4e2a8f	0.050333556
242	0x3c2bd514	0.0104878135
243	0x3e5398a1	0.20663692
244	0x3e843bba	0.25826818
245	0xbdfaa74c	-0.122389406
246	0xbde76656	-0.11298816
247	0xbedb5830	-0.4284072
248	0xbd4eec54	-0.05051835
249	0xbde25390	-0.110510945
250	0x3b97772e	0.0046223616
251	0x3d26febf	0.04077029
252	0x3d9a63a7	0.075385384
253	0x3ed4ecb9	0.41586855
254	0xbe033dc1	-0.12816526
255	0x3e019c43	0.12657265

body.0.body.0.sa.conv_z.weight f4 [16, 16, 1, 1]
0	0x3b03e3f7	0.0020124891
1	0xbd91b2a2	-0.0711415
2	0x3d9ac629	0.07557327
3	0xbddc12a5	-0.10745744
4	0x3dbdbed4	0.09264913
5	0xbd431afb	-0.047633152
6	0x3c1cb78d	0.009565246
7	0x3caafa1f	0.02087122
8	0xbd109ed9	-0.03530774
9	0x3d965162	0.07339741
10	0xbed04abe	-0.40682024
11	0xbe472c6b	-0.19450538
12	0x3dcefa41	0.10106326
13	0x3d8ba8dd	0.068193175
14	0x3d5687bf	0.05237555
15	0x3e0f718e	0.14008161
16	0xbcfcf6e6	-0.03087945
17	0x3e0b50bf	0.13605021
18	0xbe9c788b	-0.30560717
19	0x3d8207d9	0.06349153
20	0xbd9cf2c7	-0.076634936
21	0x3e931787	0.28728887
22	0xbcef5dd6	-0.02921955
23	0xbe626ab0	-0.2211101
24	0x3b06a2a2	0.0020543714
25	0xbd349acd	-0.044092942
26	0x3e914c4f	0.2837853
27	0x3e1ebba6	0.1550127
28	0xbd44ffd4	-0.04809554
29	0x3d29d548	0.041463166
30	0x3e592e12	0.2120898
31	0xbdd0534a	-0.10172136
32	0xbd266f0b	-0.040633243
33	0x3bb780aa	0.0056000547
34	0x3e01c440	0.1267252
35	0xbcb7ed5c	-0.022452049
36	0x3e2a5e79	0.16637601
37	0xbe764859	-0.24051036
38	0x3d3a1ebc	0.045439467
39	0x3df9c2c8	0.12195355
40	0x3d461f20	0.048369527
41	0xbc5934cc	-0.013257217
42	0x3b95cc94	0.0045715068
43	0x3e56f405	0.20991524
44	0x3dabb949	0.0838495
45	0xbd1767f7	-0.036964383
46	0xbe957ba6	-0.291959
47	0x3d0fed91	0.03513867
48	0xbc48cf95	-0.012256523
49	0xbd8373dc	-0.06418583
50	0xbc9cf491	-0.019159587
51	0x3c886984	0.016651876
52	0xbe85f5eb	-0.26164183
53	0xbdb38809	-0.08766181
54	0x3c229c30	0.009924933
55	0xbc842a4c	-0.01613345
56	0x3d26a5e3	0.040685546
57	0x3d00fcac	0.031490967
58	0x3da0f944	0.07860044
59	0x3ee8ace4	0.45444405
60	0x3bf7e8e3	0.007565604
61	0xbe2e5368	-0.17024004
62	0x3bc0f4a0	0.0058885366
63	0xbb23bde0	-0.0024985
64	0xbe346172	-0.17615297
65	0x3d9a108b	0.075226866
66	0xbd6ad946	-0.057336114
67	0xbf8b05e7	-1.0861176
68	0x3c85ef1e	0.016349372
69	0x3dfa2917	0.122148685
70	0xbeb1b5a3	-0.3470889
71	0x3ea1abc2	0.31576353
72	0x3d8d56aa	0.069012955
73	0xbeb159e9	-0.34638909
74	0xbecbd3b0	-0.39809942
75	0x3eea4bd5	0.4576098
76	0x3b54a5b6	0.0032447404
77	0xbe3b05d7	-0.18263946
78	0x3c1b6473	0.009484398
79	0xbed94919	-0.42438582
80	0xbdc2d849	-0.09513909
81	0x3a24cd0e	0.0006286659
82	0x3d33d235	0.04390164
83	0x3be78d0e	0.0070663756
84	0xbe71a02b	-0.23596255
85	0xbd5e912a	-0.054337658
86	0x3c798dcf	0.015231564
87	0x3ec7cf75	0.39025465
88	0xbddaac64	-0.10677412
89	0x3e89a7ce	0.26885837
90	0xbc81eac7	-0.01585902
91	0xbf1a27ec	-0.60217166
92	0xbd6ba721	-0.057532433
93	0xbd1b819f	-0.037965413
94	0xbd8f2831	-0.06990088
95	0x3c2048ee	0.009783013
96	0xbe2bf089	-0.16790976
97	0xba7e667f	-0.0009704604
98	0x3e46b7c7	0.19406043
99	0xbe37a1ae	-0.1793277
100	0x3e9a0e2e	0.30088943
101	0x3e810bb8	0.25204253
102	0x3d855c13	0.065117024
103	0xbcccb0f5	-0.024986723
104	0x3e427169	0.18988575
105	0x3d4f95d0	0.05067998
106	0x3e01be05	0.12670143
107	0x3e928e64	0.2862426
108	0x3d5c14ea	0.053730883
109	0x3d8c4d1a	0.068506435
110	0xbd1b3957	-0.03789648
111	0x3dc3cdfc	0.09560773
112	0x3e1db237	0.15400015
113	0xbd9fe05e	-0.078064665
114	0xbe9b2057	-0.3029811
115	0x3f3e2fcf	0.742917
116	0x3f64e17b	0.89406556
117	0xbdd43b53	-0.10362878
118	0x3cc27a2a	0.023739893
119	0x3ea673de	0.32510275
120	0x3ece9c95	0.40353838
121	0xbbff0078	-0.0077820383
122	0x3dad904a	0.084747866
123	0xbf145004	-0.57934594
124	0x3e84b731	0.25921014
125	0x3e0a9f0f	0.13537239
126	0x3daf4a8d	0.08559141
127	0x3f4ea659	0.80722576
128	0x3d4cbcfe	0.049984924
129	0xbea22b59	-0.31673697
130	0xbedae87d	-0.427555
131	0xbe72908c	-0.23687953
132	0xbde6d594	-0.112712055
133	0xbee2e116	-0.44312352
134	0xbe05a289	-0.13050283
135	0xbd7622f1	-0.060091916
136	0x3ca5e9d2	0.020253096
137	0xbefcfd04	-0.49411786
138	0x3d8b9168	0.068148434
139	0xbf0f65d0	-0.5601473
140	0x3ca987e4	0.02069468
141	0x3d6617f6	0.056175195
142	0x3e33d272	0.17560747
143	0xbdb163ec	-0.08661637
144	0xbe27cde8	-0.16387141
145	0xbd385cb5	-0.045010287
146	0x3dc75990	0.097338796
147	0xbd22b656	-0.03972467
148	0xbe21a779	-0.15786542
149	0x3e980147	0.29688475
150	0xbe14f45a	-0.14546338
151	0x3bd9f19e	0.0066511175
152	0xbe846234	-0.25856173
153	0xbdbec34c	-0.09314594
154	0x3d7d3b3f	0.06182408
155	0xbd9b0495	-0.07569233
156	0x3c7fbd68	0.015609123
157	0xbd594fb2	-0.05305452
158	0xbe9a41ca	-0.30128318
159	0x3ccaa02d	0.02473458
160	0xbe7c281b	-0.24624674
161	0xbca6eef2	-0.02037761
162	0x3f5127bd	0.8170126
163	0x3e0b4379	0.13599958
164	0xbe0a5590	-0.13509202
165	0xbe54601f	-0.20739792
166	0x3e251ce8	0.16124308
167	0x3c0ac036	0.008468678
168	0xbe814913	-0.25251064
169	0xbe5a170b	-0.21297853
170	0x3eb676c6	0.35637492
171	0x3f0948f9	0.5362697
172	0xbcdeaaa8	-0.027180985
173	0x3cacb0b5	0.021080354
174	0xbe8279c4	-0.25483525
175	0xbe388f20	-0.18023348
176	0xbe7ccddb	-0.24687903
177	0x3f080376	0.5313028
178	0xbdced128	-0.10098487
179	0x3d21a4b6	0.03946372
180	0x3cbb0e3d	0.022833938
181	0x3c64317e	0.0139278155
182	0xbbbee29f	-0.005825355
183	0xbcd606d4	-0.026126303
184	0xbe95b848	-0.29242158
185	0x3e26be86	0.16283616
186	0xbf3f8477	-0.748115
187	0x3da69007	0.0813294
188	0xbc4dbe0a	-0.012557516
189	0x3be8563f	0.0070903595
190	0xbe79fa29	-0.24411835
191	0xbe20fffe	-0.15722653
192	0xbe44a226	-0.1920248
193	0xbde28331	-0.11060179
194	0xbbfa6be3	-0.0076422556
195	0x3e815395	0.2525908
196	0xbecda3d2	-0.40164047
197	0x3d9b539c	0.075843066
198	0xbe496898	-0.19668806
199	0x3d90def1	0.07073773
200	0xbd63b634	-0.055593684
201	0x3d7b3883	0.06133319
202	0x3d8bec8a	0.068322256
203	0x3d4d27f6	0.050086938
204	0xbe96791f	-0.29389283
205	0xbd4605b9	-0.0483453
206	0xbd7af6e1	-0.0612706
207	0xbdcec7d9	-0.10096712
208	0x3e0f9376	0.14021096
209	0xbe2f416a	-0.17114797
210	0x3d428053	0.04748566
211	0xbe8e0dc6	-0.27744883
212	0xbebb0e1f	-0.3653421
213	0xbbeff9dd	-0.007323487
214	0xbe528d17	-0.20561634
215	0x3d9e20c8	0.07721096
216	0x3d65e0aa	0.05612246
217	0xbd81ad3f	-0.06331872
218	0x3d9cbf16	0.07653634
219	0x3bc9548a	0.006144111
220	0x3d4b77af	0.049674686
221	0xbde798c5	-0.11308435
222	0xbdef47d5	-0.11683623
223	0xbd45a2e9	-0.048251066
224	0xbe7aeb6b	-0.24503867
225	0xbe2a864a	-0.1665279
226	0xbcd7bfd6	-0.026336592
227	0xbdffe819	-0.12495441
228	0x3eec195e	0.46113104
229	0x3dcfde60	0.101498365
230	0xbe0f2e32	-0.13982466
231	0x3e934d90	0.28770113
232	0xbc25eecc	-0.010127734
233	0xbe3b40fb	-0.18286507
234	0x3e620718	0.22073019
235	0x3de0bdc2	0.109736934
236	0xbe109972	-0.14121035
237	0xbdadf15a	-0.084933
238	0xbe571935	-0.2100571
239	0x3d350136	0.044190608
240	0x3e8e1ba1	0.27755454
241	0xbdf4e609	-0.11957938
242	0x3b4f64e7	0.0031645836
243	0x3d1c514d	0.038163472
244	0xbeb54d44	-0.35410511
245	0xbd8cbda5	-0.06872109
246	0xbd9b2d20	-0.07576966
247	0xbcc6e529	-0.024279194
248	0x3c18f2d5	0.009335239
249	0xbc49f732	-0.012327002
250	0xbb5622b1	-0.0032674486
251	0x3c03b900	0.008039713
252	0xbca5ad60	-0.020224273
253	0xbe9ae4ae	-0.30252594
254	0xbe5e4b9c	-0.2170853
255	0xbd91c866	-0.07118301
