ESASN_TestCode/model/ESASNS_R4G4F36W64x4_best.pt (torch_old, 932499 bytes, 257 tensors)

sub_mean.weight f4 [3, 3, 1, 1]
00000000: 610e 7f3f b9c5 30ba d590 efbc eac0 1fbd
00000010: 6c02 893f e94a 9dbd fd0e e73c 06ca 16bd
00000020: 5707 723f
0.99631315 -0.000674333 -0.029243866 -0.039002337 1.0703864 -0.076803036 0.02820539 -0.03681376
0.9454245

sub_mean.bias f4 [3]
00000000: 9df9 e2c2 41d4 dcc2 205b ccc2
-113.487526 -110.41456 -102.17798

add_mean.weight f4 [3, 3, 1, 1]
00000000: 895e 0c3f 38b0 6dbd 370b 213c 8cdd 9ebb
00000010: 3399 0f3f 8ef0 85bc 940a bc3c a94e 22bd
00000020: dae4 153f
0.5483175 -0.058029383 0.009829334 -0.004848188 0.5609314 -0.016350057 0.022954263 -0.039625797
0.58552325

add_mean.bias f4 [3]
00000000: 6cec e542 72a4 e042 95ed d142
114.96176 112.32118 104.96403

head.0.weight f4 [36, 3, 3, 3]
00000000: de84 c2bc d881 96bd 2472 73bc 38f9 11bb
00000010: a9e2 343b aca7 9f3d b495 f6bc e1bc e53d
00000020: 22e6 34bd d90d f03c c496 15be d637 2ebc
00000030: 8b5a 6db9 2f37 12be c4bf 0b3e 562e 533d
00000040: b9e6 143d 6aac 853d d435 e53c a778 233d
00000050: fdb2 1e3d e9d0 92bd 331a c4be 6a7e 313d
00000060: 5a8f 7c3d acb5 493e 9f79 4f3d 2459 df3c
00000070: 5075 753d a791 de3c b528 253e a181 3fbe
00000080: 70e5 eebd d489 c43c 3d39 f0bb 2e2d b63c
00000090: 43d0 98bd 6376 1ebd 299f f1bd 06a4 52bd
000000a0: 704b 183e 517b 53bd 6797 9c3d d4ec 023e
000000b0: 4f1f f9bc d990 0d3c 55e6 013e 0bf0 d43c
000000c0: 9405 8bbe 9a21 513e 7a45 7b3d 346e 423b
000000d0: fdef 1cbe fc93 04bb 4005 d7bd 8039 08be
000000e0: 13e5 a0bd 807f 843d 2822 983e 13a6 51bd
000000f0: 1e26 c33c 8d2f 51ba 9c39 31bc 8940 b13d
00000100: 2d41 1f3e 244c 283e 561d 9cbe be5a bf3d
00000110: 69bb 75bd 6073 98bd 57b3 b0bd c954 f43b
00000120: b736 3f3d 94e1 6abd d730 a6bd 7716 123e
00000130: df54 86be 7709 a83d eb8d 953d 60b9 633d
00000140: 0b41 1f3c e06d 283d 5e29 c7bd 6a99 403c
00000150: f911 a03d 7cd0 cbbd 6c3c ecbd 74b2 23bc
00000160: da83 363e 9973 05bb 5008 383c 7905 91bc
00000170: e096 843b b93d 06be 32b9 193d ed82 3f3c
00000180: 4a5e 993d 6560 54bc 6cbe 273d 9af9 1f3d
00000190: ccce 863d 735d c4bd 9e52 95bd 3a25 443e
000001a0: 2157 d93d d3af 253d 9ccf 91be 528b 303a
000001b0: b193 543c 4a9f 183d 33b9 dd3d 18c8 30be
000001c0: 6e3b b33d 6dcc e4bd d013 ec3b 7043 9abd
000001d0: a14d bf3d 4389 723c 0f4b 9bbd 503e a1bd
000001e0: 6e9f 163e c58e a83d 6331 3ebc 38af 323d
000001f0: a60d 88bd 637d 45bd 2610 e7bb ee9c 83bc
00000200: 323a e63b 2e92 203d d0cf 1fbe e946 a23d
00000210: e23e 45bc 55fe ab3c fcff 033d d77b 9abc
00000220: 3dc9 523d 502b a6bc e6fd 323b 679b ee3e
00000230: 812d 31be 1d5b 0cbc 4f63 86be 1937 18bd
00000240: 4e2c 39bc 91fb aebb 3255 e83c 15e2 ea3c
00000250: f5cd b2be 5abd ed3d 96c5 fcbb 4f5f 393e
00000260: 2893 a33b 160e 223d 1449 483c aa4a 1c3d
00000270: 7942 81bd 950b 3cbe ec3b 683d 78cc 9f39
00000280: 8ad0 d63d 46a0 19bc 9a8f 3e3d 6103 823e
00000290: 9ca7 683c 6e12 ab3d 4d0c bbbd eb6b 9abc
000002a0: f2ad 33bd 9cc3 21be beb0 c4bd 6151 ab3c
000002b0: 70b0 e4bd 49c3 543d c46a e4bd b238 43be
000002c0: c626 8d3d faa2 223a 6d80 353e 8f35 c93d
000002d0: c36c 0dbd bc29 dcbd d82b cb3c de2b c8bd
000002e0: d4a3 f83d d70e fb3d d3bc 5a3d d811 2fbd
000002f0: fdf6 21bd 5f03 dd3c b456 f23d c49f 33bc
00000300: 4e38 87bc e608 e8bd 6c83 50be 75d7 87bc
00000310: 3ffe 633e fc9f 8cbb f953 ddbd 8eb2 15bd
00000320: e563 21be c539 213e 72f8 c43e ae28 30bd
00000330: ab48 29bd 51ca c7bd c4a5 5fbd 5c61 853d
00000340: 99c2 63bc d8fa 303e 726a b4bd d25d 98be
00000350: 388e 453e a544 58bc ac4d efbd 92ed b83d
00000360: 190e ba3c 2fea d73d acaf 4dbd 9bbd 5dbd
00000370: 7812 a33e 0eea 50be 5050 66bd 42ed 0dbd
00000380: 9e4f 6ebd 2a06 94bc 86b7 1b3e 88f5 1d3d
00000390: 5d15 b9bd acc2 1abe d89a ec3d 50af c23d
000003a0: faf1 20be 1975 9f3c 4486 83bd c4f8 31be
000003b0: 6b08 c4bd b9e2 f6bc 97f8 9d3e df50 0dbd
000003c0: dd9a dbbc e42c d83d 211b eb3b 00aa 113d
000003d0: 9a27 143e 61ec ab3b b247 01bd dc4e cdbe
000003e0: d1f6 833e 6eb4 6c3d 6d7f 0cbe 124e 603d
000003f0: e306 45bd 0315 0dbe 580a 4fbd 5a30 b4bd
-0.023744997 -0.073489845 -0.014858756 -0.002227379 0.002760092 0.07795653 -0.03010068 0.112176664
-0.044164784 0.029303478 -0.14608294 -0.0106334295 -0.00022635811 -0.14278863 0.13647372 0.05155786
0.036352847 0.06527026 0.027979769 0.039909985 0.038744915 -0.07168753 -0.38301238 0.04333345
0.06166015 0.19698209 0.050653096 0.027264185 0.05992633 0.027169062 0.1612881 -0.18701793
-0.116648555 0.023991503 -0.007331042 0.02223834 -0.07461598 -0.03868712 -0.117979355 -0.051425956
0.14872527 -0.051631276 0.07646065 0.12785655 -0.030410437 0.008640491 0.12685521 0.025993368
-0.27152693 0.20422974 0.061345555 0.0029667737 -0.15325923 -0.0020229807 -0.10499048 -0.13303185
-0.078561924 0.06469631 0.2971356 -0.05118377 0.023821887 -0.0007979803 -0.010816958 0.08654887
0.15552206 0.16435295 -0.30491132 0.093434796 -0.05999318 -0.07443881 -0.08627956 0.0074563962
0.04668304 -0.057344034 -0.08114784 0.14266382 -0.26236627 0.0820493 0.07302459 0.05559671
0.009720097 0.04112041 -0.09724687 0.011755327 0.07815928 -0.099518746 -0.11534962 -0.009991277
0.17823735 -0.002036309 0.011232451 -0.017702805 0.004046306 -0.13109483 0.03753013 0.01168893
0.07488687 -0.012962435 0.040953085 0.039056398 0.06582412 -0.095881365 -0.072911486 0.19154826
0.10612322 0.040450882 -0.28478706 0.00067346275 0.0129746655 0.037261285 0.108263396 -0.1726383
0.0875157 -0.111718036 0.0072045103 -0.07532394 0.093409784 0.014803234 -0.07582676 -0.07873213
0.14709255 0.08230356 -0.011608454 0.043624133 -0.06643228 -0.04821528 -0.0070514856 -0.01606604
0.0070259804 0.039201908 -0.15606618 0.07923681 -0.012038918 0.020995298 0.032226548 -0.01885788
0.051461447 -0.020284325 0.002731198 0.46602938 -0.17302515 -0.008566645 -0.2624764 -0.03716192
-0.011302067 -0.0053400476 0.028360937 0.028672257 -0.34922758 0.116083816 -0.0077139838 0.18102764
0.0049919076 0.039564215 0.012224454 0.038157143 -0.06311507 -0.18363793 0.05669777 0.00030479184
0.104889944 -0.009376591 0.046523668 0.25393203 0.014200117 0.083531246 -0.091332056 -0.018850287
-0.04386706 -0.15797275 -0.096040234 0.020912828 -0.11166465 0.05194405 -0.111531764 -0.19064596
0.06892161 0.0006204095 0.17724772 0.098246686 -0.03452755 -0.10750148 0.02480118 -0.09773992
0.12140623 0.1225869 0.053402733 -0.042741627 -0.039542187 0.026979147 0.118329436 -0.010963384
-0.01650634 -0.11329822 -0.20362633 -0.01658223 0.22264956 -0.0042915326 -0.10807032 -0.036547236
-0.15760763 0.15744694 0.384708 -0.043007545 -0.041329067 -0.09755386 -0.054601446 0.065127105
-0.013901376 0.1728319 -0.08809365 -0.2975908 0.19292533 -0.01319996 -0.116847366 0.09029688
0.0227118 0.10542714 -0.050216362 -0.0541359 0.31850028 -0.20401785 -0.056228936 -0.034650095
-0.058181398 -0.018069346 0.15206727 0.038564235 -0.09037278 -0.15113324 0.115529716 0.095060945
-0.15717307 0.019465016 -0.064220935 -0.17380053 -0.09571918 -0.030137407 0.30853721 -0.034500953
-0.026807243 0.10555437 0.007174865 0.035562515 0.14468232 0.0052466844 -0.031562515 -0.40099227
0.25774243 0.05778926 -0.13720484 0.054761954 -0.04810227 -0.13777547 -0.050546974 -0.08798285

head.0.bias f4 [36]
00000000: def0 03bf 8b9c 76bc ac7e 12bf 7aa7 8a3e
00000010: 60a6 13bf 04bd 423e 4b42 16bf 7403 903d
00000020: 63d2 a53e 0fb3 62bf edd4 b5bc 90b3 573e
00000030: b516 e73e 848d b23e a10a a8be 8197 66bf
00000040: cc3e d9be 8db1 cdbd 8301 a9bf d88e 80bd
00000050: 0a24 b83e dd2f 353f c66c 1a3f d76b fbbe
00000060: 44d6 b0be 1c9c 6ebe 8109 473e 7523 dabc
00000070: cc50 e83d 647a 64be b0bc afbe 3b44 6abf
00000080: b523 aa3c c7df c83e f7f0 2ebe dca2 0a3d
-0.5153941 -0.015051971 -0.57224536 0.270809 -0.57675743 0.19017416 -0.58694905 0.07031909
0.32387075 -0.8855447 -0.022196257 0.21064591 0.45134512 0.34873593 -0.3282061 -0.90074927
-0.42430723 -0.10043631 -1.3203586 -0.06277245 0.35964996 0.7077616 0.60322225 -0.49105713
-0.34538472 -0.23301739 0.19437219 -0.026628235 0.11343536 -0.22312313 -0.34323645 -0.9151036
0.02076898 0.3923323 -0.17084108 0.03384672

body.0.body.0.widen.weight f4 [64, 36, 1, 1]
00000000: d0f0 52bd 5b73 92be cb6e b7be a756 16be
00000010: 8095 803e d839 9c3e 4995 a7be a19f 2cbe
00000020: 5658 153d 31d4 0bbf 2abd 4ebe 03f1 033d
00000030: 4e95 533d 9767 113d 1b2b 293e 696e 3c3e
00000040: 855f 27bd 18bc 45be 588e 6d3d 4cf7 c53e
00000050: fafe e53d 4040 16be 7c4b a03e 05fe eb3d
00000060: 871d cebd 37fc 2a3e d599 06bf 6c48 36be
00000070: c0b8 25be 4bc0 00be dbd0 f33e 99b6 a33e
00000080: 4636 763e d04d c73d 1355 debd 540c aa3d
00000090: bc00 6abd ff1e bbbb 0760 d93e 7eb0 0c3f
000000a0: d6d8 ccbe de81 623d eba3 10be b3fa 39be
000000b0: 906d 2dbe e90e bfbd f107 80be fbfb 3b3f
000000c0: efe1 ff3c 7bcf 8fbe 32e2 c13d fbee 29bf
000000d0: 3e6b bd3a 3adb 8d3c 02b6 cdbc e9db 39bf
000000e0: 85be 103d ee7c 213e b13e 7a3e a914 2fbd
000000f0: 97b8 393f 416b 6a3d 9647 7e3e 1a2c c7be
00000100: 0cc8 d33e 4b4b b5bd 3473 67be d952 d5bd
00000110: 9607 163e ae7e d13d 07c2 aebe dde5 183e
00000120: 0374 793e ce57 90be 09ca 75be a750 28be
00000130: a35c fbbe 9853 533d c251 2bbe dacb 5d3e
00000140: 767f 0e3e 2fbe 4ebe 15b5 303a be3c cc3d
00000150: fc4c e6bd 1ed8 be3e c453 d8bd 1a76 41be
00000160: 1844 073f b448 083e 2e95 66bd 6821 1bbe
00000170: 8155 0ebe 0b16 2c3e e626 593e 3181 5c3d
00000180: f086 15be 49c9 103c 689a 06be 5317 883d
00000190: b49c 2fbd 22be d33b 4118 473e fb34 fa3d
000001a0: d33a 69bd e717 d1bd bf35 113e 6bfe 97be
000001b0: 1a90 2ebe 7c9d ad3d 94e5 80bd 2852 0ebd
000001c0: 5949 953d 7756 a3be b788 49bc b6cf 153f
000001d0: 1b6f e53d af2b 2c3d 2ce5 2c3f 95cd 8abe
000001e0: 71f9 913d bc5f 543d 8d27 d1bd 787d acbd
000001f0: 3c23 febd dba3 69be 3c41 04bd c857 9c3e
00000200: 6950 df3d f440 93be e40f 7ebe 96a3 e8bd
00000210: 0119 723e 0b00 00be 40a0 b73d 805f 063e
00000220: eaae 6d3c 7eda 6d3e 5a53 423f 3e81 edbe
00000230: 511c 89bd 151b f73e fd38 61be 64d5 53be
00000240: cea8 a4bd 81ec 4e3e 9bab 023d 43c5 393d
00000250: 3fd3 e6bd 5bc5 013e ba65 1ebe a8bc 573d
00000260: aabb 8d3e dbce febc 1f00 07bd b6d1 4c3d
00000270: 8ffc 5ebd 4c2c 283d 10a9 8b3e 6696 093e
00000280: 750d b33d c647 913e 1e12 d93c 1245 bfbd
00000290: 6794 953e 990c 89bd 7aa2 d8bd 070e a7bd
000002a0: c146 3b3e dcc1 4d3c 32da 2d3d 9b42 6fbe
000002b0: 93a4 f2bd 6f07 d43c 617c 163e 27f0 72be
000002c0: 2ebe 27bb 6318 ce3d abaf b9bd 8f57 563e
000002d0: 488a 7d3e 4cfa f13d c25c 073e 9def 6e3d
000002e0: 6d01 f7bc d09e d5bd de70 b83d abb2 0bbc
000002f0: 438a 96bd 11bc 143d bfc8 1a3e 7f83 aabc
00000300: b84f 3d3e b963 29bd 7665 383d 613b b93d
00000310: d655 eb3d a4ee 493e be56 8cbd 71b1 ef3d
00000320: 2b0a 1bbb 6389 81bd 3bd8 10be c1c8 26bd
00000330: ed0a 6f3c f859 99bd 20e7 f6bd 9dc4 303c
00000340: 5794 b8bd 80c4 813c 15b2 2abe 0125 b63d
00000350: 0e5e f03e a27e 27bd 60d6 cfbd 64d2 5a3e
00000360: bd8b 6abc 25db 78be 42d3 ee3c 1389 d13d
00000370: c8ab 513f f942 f53c 7e48 a8bc b01b babe
00000380: f8e1 84bc f2ac 6ebd 5750 45be 0ed9 183e
00000390: 43c7 f1bd f688 2b3e c40e 223d 3c87 05bf
000003a0: f525 203d 564c 9e3d bf15 0fbb cb4c 9bbe
000003b0: 130c 80be 011c 653e b3cf f33d 6f47 333e
000003c0: ec20 e7bd b997 a1bd 7988 6cbe 925e 9fbc
000003d0: 90e3 f93d faa7 b13d 1bed 763d c964 893e
000003e0: ed75 a63d 3c08 adbe 1757 d9be 34f2 353e
000003f0: b186 31bc 9f90 f2bd 0b7e 31be 6d3c d1bd
-0.051499188 -0.28603634 -0.35826716 -0.14681493 0.2511406 0.3051288 -0.32731083 -0.16857769
0.036461197 -0.54620653 -0.20189348 0.03221227 0.05165606 0.03549918 0.1652035 0.18401493
-0.04086258 -0.19310033 0.057997078 0.38665235 0.112302735 -0.14672947 0.3130759 0.1152306
-0.10064226 0.16697775 -0.5257848 -0.17801064 -0.16183758 -0.12573354 0.47620282 0.31975248
0.24044141 0.097316384 -0.1085607 0.08303133 -0.057129607 -0.005710482 0.42456076 0.54956806
-0.40009183 0.055299632 -0.1412503 -0.1816204 -0.16936326 -0.09329016 -0.2500606 0.73431367
0.031235663 -0.28087983 0.094669715 -0.6638028 0.0014451516 0.01731645 -0.025111202 -0.7260118
0.035337944 0.15770313 0.24437977 -0.042744312 0.72547287 0.05723119 0.24831995 -0.38900834
0.4136356 -0.088522516 -0.2260254 -0.104161926 0.14651331 0.1022924 -0.34132406 0.14931436
0.24360661 -0.2819199 -0.24002852 -0.16437016 -0.49094114 0.051593393 -0.16730407 0.21659794
0.1391581 -0.20189737 0.00067408505 0.09972523 -0.11245152 0.3727426 -0.10562852 -0.18892708
0.5283828 0.13308984 -0.056294613 -0.15149462 -0.13899805 0.16805284 0.21206245 0.053834144
-0.14602256 0.008837053 -0.13144839 0.06645074 -0.042874053 0.0064618746 0.19442846 0.122171365
-0.056940865 -0.10209637 0.14180659 -0.29686293 -0.17047158 0.084773034 -0.062937886 -0.03474632
0.072893806 -0.31901905 -0.012300662 0.58520067 0.11202832 0.042033847 0.6753719 -0.27109972
0.07127655 0.051849112 -0.10212622 -0.08422369 -0.12409064 -0.22816412 -0.032288775 0.30535722
0.10904009 -0.28760493 -0.2481075 -0.113593265 0.2364235 -0.12500016 0.08966112 0.13122368
0.014507035 0.2322788 0.75908434 -0.46387666 -0.06694854 0.4826285 -0.21994396 -0.20686871
-0.080400094 0.20207407 0.031901937 0.04535414 -0.11270761 0.12672941 -0.15468493 0.05267015
0.2768224 -0.031104496 -0.0329591 0.050004683 -0.054440077 0.04105787 0.27277422 0.13436279
0.08742801 0.2837507 0.026497897 -0.09339346 0.29214785 -0.06691856 -0.10577865 -0.081569724
0.18288709 0.012558427 0.042444415 -0.23365252 -0.11847796 0.02588245 0.14695884 -0.23724423
-0.0025595534 0.10063245 -0.09066709 0.20931838 0.24759781 0.118153185 0.13218978 0.05833398
-0.030152047 -0.10430682 0.09005903 -0.0085264845 -0.0735059 0.036312167 0.15115641 -0.020814655
0.18487442 -0.04135487 0.045018636 0.09044529 0.11490981 0.1971994 -0.06852482 0.11703766
-0.0023657184 -0.063250326 -0.14144985 -0.040718798 0.014590007 -0.07487863 -0.12055802 0.010789064
-0.090126686 0.015840769 -0.16669495 0.08893777 0.46946758 -0.04089225 -0.10148311 0.2136932
-0.014315543 -0.24302347 0.02915347 0.10231223 0.8190274 0.029939162 -0.02054238 -0.3634925
-0.016221032 -0.058270402 -0.19268928 0.1492655 -0.11805584 0.16751465 0.039564863 -0.52159476
0.0390987 0.07729404 -0.002183303 -0.30332026 -0.25009212 0.22373964 0.1190485 0.17507719
-0.11285576 -0.07890267 -0.23098935 -0.019454274 0.12201607 0.08674617 0.060284715 0.26834705
0.08127961 -0.33795345 -0.42449257 0.17768174 -0.010835336 -0.118439905 -0.17333238 -0.102166034

body.0.body.0.widen.bias f4 [64]
00000000: 2383 933d 11de e03c a14e 22bf ff0e 3cbf
00000010: 9f92 6b3e 9634 263d 238a 233f 372c 24bd
00000020: f19c d43d bce4 1dbc 0f8b e2be b397 1f3d
00000030: ca65 64bf 6f40 3b3e 532d f3be 3b2d 1c3f
00000040: b7ce 783f f8e9 03c0 e918 0340 d5b8 c43e
00000050: 8cc9 20be 2345 813f 67d2 ccbe 8c5c 28be
00000060: b63f f93e 9f53 3cbf 7b1a b23d c2e3 98be
00000070: 81b2 8b3f 08bc 9d3f b6f9 773f 0a0b 81bf
00000080: 3bff 113e 4e9f 0b40 fb36 44bf eb96 09bf
00000090: a352 d3bd e6b3 c83d 0816 85bf 2ee7 99bf
000000a0: cdd9 fd3f db75 a3be 438a 403f 4b1f 91c0
000000b0: 56cc fbbd f624 58be 9b57 6ebf c26c a33e
000000c0: 624b 7640 ea17 a1bf ef1f 833f af30 c040
000000d0: 34e1 143e 7139 2ac0 f014 66bf 1791 a53f
000000e0: 461e 9bbe 5687 013f 3aab b03e 0de9 9cbf
000000f0: 8267 203f 8fbe 173f f062 debf c143 bb3f
0.07202747 0.02744964 -0.6340123 -0.7346038 0.2300515 0.040577494 0.63882655 -0.04008123
0.10381497 -0.009637054 -0.44246718 0.03896303 -0.8921782 0.18286298 -0.47495517 0.61006516
0.9719042 -2.0611553 2.0483954 0.38422266 -0.15701884 1.0099224 -0.40004274 -0.16441554
0.4868142 -0.73565096 0.08696457 -0.29861265 1.091385 1.2323008 0.96865404 -1.0081494
0.14257519 2.1815982 -0.76646394 -0.5374591 -0.10318496 0.09799938 -1.0397348 -1.2023675
1.9832093 -0.31925854 0.7521097 -4.53507 -0.12294833 -0.2110785 -0.93102425 0.31918913
3.848351 -1.2585423 1.024412 6.005943 0.14539033 -2.659756 -0.898757 1.2934903
-0.30296534 0.5059713 0.34505635 -1.2258621 0.6265794 0.59275144 -1.7373943 1.4630052

body.0.body.0.b1.weight f4 [16, 1, 3, 3]
00000000: 93b2 4cbc 3a95 9f3b 3d76 3cba 3c14 1b3d
00000010: c5fe 483e 8698 433d bc29 66bc 14fc 20bb
00000020: a994 31bb 574a af3c d36b 323c 69e7 e6bc
00000030: 18c4 81bd 71c4 12be 0d37 c9bd 671b 193c
00000040: 576b 0339 68f3 39bd 03d0 fcbc cdf6 083e
00000050: 9625 67bc 19e1 d13d fcd3 703e 0e1b f53d
00000060: 239b 0c3c 34e0 0f3e 15dd 463c d610 773a
00000070: 8ae7 8cbb fc9a a33b 4cf7 95bc 1920 88be
00000080: 52dd 903b d861 563c b444 d2bc 5f9c 92bb
00000090: 3dba f73b 017b 71bc 9bb3 d6bb 8ec8 a83d
000000a0: bbcb 8ebe 9a55 df3c e6c8 963a 64a5 71bd
000000b0: 86b7 e0ba 6c86 643b 5f60 bbbc b550 9fba
000000c0: 4237 873b 5618 bb3e 1aeb 953c 1e9c 28bc
000000d0: 935d 2e3c ccc1 32bc 12b4 79bd 7f8a e83d
000000e0: d427 653c 779d c2bc 03d7 15bd e2bf d93d
000000f0: 27dc cbbd 521a 12bc 37be 19bd c580 69ba
00000100: 9a7c 6e3e ac20 833c d429 bdbc 5e8e 42bc
00000110: c6df 83bd 95d0 07bc b334 a03c 6f88 08bd
00000120: 3d50 d23c 51bf 46bd 18c2 aabc 6b7e 97bd
00000130: 8bec 14be 6d94 11be 18af 0dbc 6e9b b5bd
00000140: c632 03bc af57 99b9 30c8 ad3c 54aa 08ba
00000150: f25e efbc 12d0 8abe 3ffb a1bd 8057 16bc
00000160: 82c2 463c 68dd 0d3c 0a40 143d c3c1 143e
00000170: 0b5b 863c 342b e43d c99a 753d 7da0 ad3d
00000180: 8899 5cbc 025f 023e ddf9 90bc 230b 9d3b
00000190: 6943 37bb f285 213c 3e31 55bd 1f36 0dbe
000001a0: 3d85 f8bc 4371 793c cea6 bcbc e70b 023d
000001b0: 764e fb3b dbe1 95bd b0de 983d 6ed6 66bc
000001c0: fd33 683e 7678 d2bd 674c 09bc 2c3f 8abc
000001d0: f2af 1c3c 891a 953b 2ff9 2ebb 18f6 333c
000001e0: 2076 7e3e d78c 073e 408b c9bc 81d9 d83c
000001f0: 5edc 193c 5303 043c fbc7 5ebc 63c5 193e
00000200: 83b6 8dbd 400c b83d 6818 283e 13d4 d5bc
00000210: c9fa 57bd c9f1 8cbb e5f3 10bc 0df8 56bb
00000220: 73df 36bc 70e9 79bc 1881 98bc 8d42 d8be
00000230: 92c2 e7bd 8937 7cb9 7103 78bd 5692 2bbd
-0.012493747 0.004870084 -0.000718925 0.037861094 0.19628437 0.04775288 -0.014048036 -0.0024564313
-0.0027096665 0.021397753 0.010889965 -0.028186517 -0.0633623 -0.14332749 -0.09824953 0.009344912
0.00012533121 -0.045398146 -0.030860906 0.13375397 -0.014108082 0.10248012 0.23518366 0.11968051
0.008581909 0.1405037 0.012137671 0.0009424811 -0.0043000625 0.004992841 -0.018306397 -0.2658699
0.0044209147 0.013084851 -0.025667526 -0.0044742073 0.007560043 -0.014738799 -0.0065521724 0.08241378
-0.2788981 0.027262498 0.0011503964 -0.05899562 -0.0017144538 0.003487016 -0.022873102 -0.001215479
0.0041264603 0.36542004 0.018300582 -0.0102911275 0.010642427 -0.010910463 -0.060962744 0.11354541
0.013986547 -0.023756726 -0.036582004 0.10632302 -0.099541 -0.008917408 -0.03753492 -0.0008907433
0.23289719 0.01600679 -0.023091234 -0.011874763 -0.06439166 -0.008289476 0.019556379 -0.03333324
0.025673026 -0.048522297 -0.020844504 -0.07397159 -0.14543359 -0.14216776 -0.008647703 -0.088675365
-0.008007711 -0.00029247763 0.02121362 -0.0005213369 -0.029220078 -0.2711187 -0.079092495 -0.009176135
0.012131335 0.008658744 0.036193885 0.14527039 0.016400835 0.11141053 0.059962068 0.08477876
-0.013464339 0.12731555 -0.01769727 0.0047925874 -0.0027963764 0.009858595 -0.052048914 -0.13790177
-0.03033697 0.015224758 -0.023028757 0.031749632 0.0076692654 -0.07318469 0.07464349 -0.01408921
0.22676082 -0.10276882 -0.008380032 -0.016875826 0.009563433 0.0045502824 -0.0026698818 0.010983966
0.24849749 0.1323732 -0.024602532 0.026470901 0.009390919 0.008057433 -0.013597484 0.15016703
-0.06919577 0.089867115 0.1641556 -0.026102101 -0.0527294 -0.004301284 -0.0088472115 -0.0032801658
-0.011161673 -0.01525341 -0.018616244 -0.42238274 -0.11316408 -0.00024053281 -0.060550157 -0.041887604

body.0.body.0.b1.bias f4 [16]
00000000: 6601 03bd 89e6 d23e de42 13bf 9c96 963e
00000010: fa26 093e d503 9a3a 1eba a7bc c0ad 0f3d
00000020: a7bf b1be 0a2d 8fbe f768 08be 9a5e e2be
00000030: 7e70 80be 3fc0 903d 9606 81be 135e f1be
-0.031983756 0.4119151 -0.57523906 0.2941178 0.13393775 0.001175041 -0.02047449 0.03507781
-0.34716532 -0.2796405 -0.13321291 -0.442128 -0.25085825 0.07067918 -0.25200337 -0.47142085

body.0.body.0.b2.0.weight f4 [16, 1, 3, 3]
00000000: 726e f639 2fd5 ad3b 3df5 7bbc 7d85 1f3c
00000010: e291 58be 6ef9 edbb c73a f6bc b68a 4f3b
00000020: a8f6 84bc c9a5 8e3c 4423 b93b 17dc 743b
00000030: 6ee8 a23c ef07 5f3e 270b 5abc a877 9e3c
00000040: dfbe 6b3b af03 0b3d 287e 18bd c874 e6bc
00000050: a86d 38bd 2a5b 2abc f42e ecbd a0e0 21bd
00000060: bfa3 8bbd 73fe e9bc 6573 6cbd 1c75 c2bc
00000070: 571c 463b fbdc cf3c 9433 683b 63fd 46be
00000080: c61d 59bc 2f32 13bc acd8 58bb 86a5 0abb
00000090: b4c3 47bb 1da2 64bc 08b2 17bc ec79 dbba
000000a0: c3b4 5a3e 3e49 ee3c 3bde 51bd 0543 c8bd
000000b0: b53b 26bd 8f0c f6bb 7dbc d8bb 1bea 6e3c
000000c0: f757 d6bd e7d9 773e bb9d 8cbc 8173 25bd
000000d0: bcca 04bd 1e29 3a3c 2d70 93bc 6c6d bbbb
000000e0: 5ff9 5abc a32b 0fbc 4812 59be c266 ab3b
000000f0: 2359 7bbc 5393 39bc fb4f 9dbc fc1f 40bb
00000100: 42e6 313b 14b0 5a3b d9df b5bc bda9 603d
00000110: 515e 3b3c 68bb 46be 0cfa 6e3e 89f6 ddbc
00000120: 78f3 143c 73de 2a3b ed42 09bc 4766 253c
00000130: 0bf2 99be e674 f33c 5661 d5b6 e600 3d3b
00000140: aa71 55bb b991 5fbb e8ff 203c 3a90 31bc
00000150: 3c4e 99bb c10a 7f3d 3606 1abd 6fef 483b
00000160: 32f6 8bbe 60f6 e5bb 4218 38bc 1a52 e5bd
00000170: 47e2 00bc b481 5fbc 063a e53d 5ca8 d0ba
00000180: fdce 923c b730 b9bc 51c6 943c 6ce2 5c3b
00000190: b265 96bc 2e32 863c 2370 753c bc2c b63e
000001a0: 0c05 3d3d 9e75 213c dd3e 483d bfca 82ba
000001b0: b24b 45bc 6740 d53a 5a99 e4bb 6977 623c
000001c0: 2284 17be 5e24 323b 9f0d 5cbb 3698 25bb
000001d0: 2c75 65bc e024 343c 4636 78bc 0a0a 193c
000001e0: 92c3 a7bb 3779 a5be 55cf 783c f3f2 3d3b
000001f0: fae2 8bbb 9fec 6b3b 5902 a1bc 0438 493c
00000200: f560 903c 314e ff3c d678 90be 7932 e73c
00000210: f08a 11bc 65e0 4e3b 4b3c 69bc 6d03 35bb
00000220: ff05 203d 3180 90bd 3435 973d 4087 44bd
00000230: 0d99 843d 5990 75bd daf8 9a3d c302 cfbd
0.00047003065 0.0053049545 -0.015378294 0.009736416 -0.211494 -0.0072624004 -0.030057324 0.0031668372
-0.016230896 0.017413037 0.005649956 0.003736263 0.019886222 0.2178037 -0.013308323 0.019344166
0.0035971922 0.03393906 -0.037229687 -0.028131858 -0.04502645 -0.010397712 -0.11532393 -0.03952086
-0.068183415 -0.028563714 -0.057727236 -0.023737483 0.0030229294 0.025373926 0.0035431134 -0.19432597
-0.013251727 -0.008984133 -0.003308813 -0.0021155789 -0.0030481638 -0.013954666 -0.009258755 -0.001674471
0.21358018 0.029087659 -0.051237326 -0.09778408 -0.040584285 -0.0075088213 -0.0066142664 0.014582182
-0.10465997 0.24204217 -0.017165055 -0.040393356 -0.032419905 0.011362342 -0.017997826 -0.005719831
-0.013365119 -0.008738431 -0.2119838 0.0052307555 -0.015341076 -0.011326629 -0.019203177 -0.002931594
0.00271453 0.003336911 -0.022201465 0.054849375 0.011436061 -0.19407427 0.23337573 -0.027095096
0.009091251 0.0026072531 -0.008377773 0.010095186 -0.30067477 0.029718827 -6.359226e-06 0.0028839647
-0.003256897 -0.0034113957 0.009826638 -0.010837609 -0.0046785157 0.062266115 -0.03760358 0.0030660292
-0.2733627 -0.0070178956 -0.011236252 -0.111973 -0.007866449 -0.0136417635 0.11192708 -0.0015919316
0.017920965 -0.022606237 0.01816097 0.0033704294 -0.018359039 0.01638135 0.014980349 0.35581005
0.04614739 0.009854702 0.048888076 -0.0009978636 -0.012041973 0.0016269804 -0.0069762887 0.013822415
-0.14796498 0.002718232 -0.0033577455 -0.0025267727 -0.014004987 0.01099512 -0.015149659 0.009340772
-0.0051197493 -0.32319042 0.015186151 0.002898392 -0.004269001 0.0035999191 -0.01965444 0.012281422
0.017624358 0.031165214 -0.2821719 0.02822231 -0.008883223 0.0031566855 -0.014235566 -0.002762045
0.03906822 -0.070557006 0.073831946 -0.047980547 0.064745046 -0.059952114 0.07566996 -0.10107949

body.0.body.0.b2.0.bias f4 [16]
00000000: e538 b4be e0ca 10be b2f2 e4be 9702 3c3f
00000010: 6ff5 36bf 90e7 4b3f 1d27 943f 108d 0e3f
00000020: 909f 92bf e9e1 b73f c0b4 673f d438 c53e
00000030: cf22 0d3f 9ca0 4ebf b272 1fbf ac17 a2bc
-0.35199657 -0.1413989 -0.44716412 0.7344145 -0.7146825 0.7965021 1.1574436 0.55683994
-1.1454945 1.4365817 0.9051018 0.3851992 0.5513124 -0.8071382 -0.62284386 -0.019786678

body.0.body.0.b3.0.weight f4 [16, 1, 3, 3]
00000000: 8ad7 183e a69b edbd f278 ac3d 333b 3a3b
00000010: 76d2 a5bc b5f8 aa3c 6873 87bd b070 ba3d
00000020: a360 1cbe d735 e23b 0364 99bc 929d 35bb
00000030: a9a0 cc3b a3c4 8cbe cc68 d2bb fec8 333a
00000040: 8b8d 2dbb a304 8c3c 1a5e da3c d5e1 353d
00000050: 5006 d73d 68e9 27bc b88f bebc e7d8 db3c
00000060: ac49 f23c dbfa 2abd 1059 923d b52c a13c
00000070: a35b e4bb 1a15 c63a 31d4 5a3e 1afb 55be
00000080: 6434 183c d82c 023c d39b 0c3a 23e6 09bc
00000090: 3570 92bc 2f26 a83d 9648 67bc 8728 dcbc
000000a0: 456b 45be 57a6 76bd f030 41bc f260 643d
000000b0: 5442 c63c f5cd eb3c e461 ecbb 8c94 633c
000000c0: 81d5 003d 0f9c 22bd e5a8 a13c 9a55 163d
000000d0: 3298 803d 4158 183d 0318 813a 5497 9c3c
000000e0: cb55 2fbc 40a3 4c3d fd44 fc3d 0ba8 393d
000000f0: 3a3c aabb 053b 863c 1050 1eb8 3bd5 dfbc
00000100: 174b 73bd b3e9 dbbc b1f8 d9bc b4a3 373e
00000110: 57e6 c3bc bdf2 183d 5fdf a4bd 665e 1f3d
00000120: 0d8d 0fbc 2ade 0e3a 065e 9c39 0ace 5d3b
00000130: dbc2 60be 6712 adbc 96f6 c4bb 4e28 08bd
00000140: 71f3 9abc 1d40 aebd 5d1d ff3c 61be 62bd
00000150: 0535 ab3a 56f1 d8bd fcba 3dbc 9ce5 a6bc
00000160: ac1e 9fbc 0764 8dba a249 eabb 36f5 b7bc
00000170: d558 f6bb 2d4c f8bc 8a5f 1dbe bd62 bbbb
00000180: 8fea 30bc 47a7 4d3a 83cc 01bc c6b7 9abc
00000190: 2714 503c 8cd2 9cbc 0d51 ad39 b703 9e3e
000001a0: 15df fb3c bfc0 133d 9ca5 1c3b fb19 523b
000001b0: 0815 c4bb 36ab 93bc 1860 a33b c5e6 2abc
000001c0: 1b2e a53e 6219 a1bc 466a 4c3c 47e1 e1bc
000001d0: 1872 603c f337 24bc 67fa abbd 51ef 5b3c
000001e0: 3e0b ff3d 33b4 09bc 0562 c9bd f16c abbc
000001f0: 43c8 e53d 0bb5 d1bb 6119 ffbc 8815 3dbd
00000200: 2a06 19bc f8d9 30be 8978 c13d 7a8d 1d3c
00000210: 2ad2 5abc 21a1 a9bc 7a7b d839 07c1 ebbc
00000220: ae59 b939 5085 e0bc decf 583b 9a03 abbe
00000230: f768 80bc 065d 6ebc 8802 d0bc 4217 b2bc
0.14925972 -0.11601953 0.08421506 0.0028416633 -0.020241957 0.020870546 -0.06613809 0.09103525
-0.15271239 0.006903391 -0.018724447 -0.0027712327 0.006244738 -0.27493772 -0.006421184 0.0006858258
-0.0026482071 0.017092055 0.0266562 0.044404823 0.10499251 -0.0102485195 -0.02326189 0.026836826
0.029576145 -0.04174314 0.071458936 0.019674638 -0.0069689318 0.001511249 0.21370007 -0.20896569
0.009289835 0.007945262 0.0005363796 -0.008416685 -0.01787577 0.08210408 -0.014116427 -0.026874794
-0.19279201 -0.060217228 -0.011791453 0.055756517 0.02420155 0.028784731 -0.007213818 0.013890397
0.031453613 -0.03969961 0.019733856 0.03670273 0.06279029 0.03719354 0.0009849075 0.019115128
-0.010701607 0.049960375 0.12317846 0.045326274 -0.005195168 0.016385565 -3.77447e-05 -0.027323356
-0.059397783 -0.026844835 -0.026607843 0.17933542 -0.023913546 0.03734087 -0.08050417 0.038908385
-0.0087616565 0.0005449975 0.00029824692 0.0033844733 -0.21949331 -0.021126939 -0.0060108406 -0.033241563
-0.01891491 -0.085083224 0.031141931 -0.05535734 0.0013062066 -0.10592906 -0.011580225 -0.020373158
-0.019423805 -0.0010787257 -0.007149891 -0.022455793 -0.007517914 -0.030309761 -0.15368477 -0.0057185576
-0.010798111 0.00078450557 -0.007922295 -0.018886458 0.012700117 -0.019143365 0.0003305752 0.3086221
0.030746022 0.03607249 0.0023902422 0.0032058943 -0.0059839524 -0.018025976 0.0049858205 -0.010430996
0.32261738 -0.019665424 0.012476509 -0.02757324 0.013699077 -0.010023105 -0.0839737 0.013423757
0.12453316 -0.008404779 -0.09833149 -0.02092597 0.112198375 -0.006399756 -0.031140031 -0.046163112
-0.0093398485 -0.17270648 0.094468184 0.00961625 -0.013355771 -0.020706715 0.00041290728 -0.028778566
0.00035352766 -0.027407318 0.0033082883 -0.33401185 -0.015675051 -0.014548546 -0.025391832 -0.021739606

body.0.body.0.b3.0.bias f4 [16]
00000000: 7ff8 c4bd 8b1a a8bf 34b0 1a3f bfeb 2a3f
00000010: 83e9 20bf 16b5 323f aafd 4e3f f06a 8c3f
00000020: e3de 53bf a4e5 723e 8cbc 333e 6776 57c0
00000030: b092 d9bf b845 d9bf a941 a03f ffe3 cd3e
-0.09617709 -1.31331 0.60425115 0.6676597 -0.6285631 0.69807565 0.8085581 1.0970135
-0.82761973 0.23720413 0.17552394 -3.3666017 -1.699789 -1.6974401 1.2520038 0.4021301

body.0.body.0.b4.0.weight f4 [16, 1, 3, 3]
00000000: 53ae 8abb df14 93bc 55f1 0e3b 936f 1bbd
00000010: 5ef9 2a3c 5f5c 13bc ccb4 d6bc 3adb 7abe
00000020: 5160 07bc 2363 ad3d 4f65 d6be 3645 113e
00000030: b731 613c e12a 483c 48e4 91bd da8f bfbd
00000040: c298 ce3e c49b 89bd c7f3 383b 90ee cb3b
00000050: eaba 88bc fd6e c43b d226 d9bb aa19 003b
00000060: cc03 323a 1f5f 95bc ed71 6bbe 7a9b 5c3c
00000070: 4efc 94bb 4e10 25bd 791c 6a3d ae8a 393e
00000080: 36d4 6ebe 5f5a e1bc 05e3 eb3d 134a 54bd
00000090: 9170 a83c d73f 82bc 4beb 6abc 8d71 5c3d
000000a0: fa2b bbbd a003 fbbb 9d54 903d ba2c 583d
000000b0: 6c04 333d 5868 343d f801 c53d c51d f03c
000000c0: 5e6e ec3d 8900 61bd b365 363c 19f5 653c
000000d0: 517a 7e3d d281 763a 26fd 353c ef3d 443d
000000e0: 6cc5 d13c 4de6 24be 2c83 e13c efe3 fcbc
000000f0: 6be5 42bd 1545 923d 03ac 9d3b 93ab bf3d
00000100: 7219 98bd aab1 29bc 95f0 1cbe 94bd 23be
00000110: b5a4 3c3d ec66 7e3d 3e09 aabd 5982 fd3b
00000120: 1361 683d 2340 16be bf2a e9bc 4b75 4cbb
00000130: b505 f6bc ac9b 9e3c c6ea 323c d414 27bc
00000140: 0f65 9f3b b487 1c3d 9690 053e d7e4 db3c
00000150: 9558 0a3d 0917 79be 32bf c53c bf21 28bc
00000160: 9664 073d f115 b6bc c277 a9bc cb35 32bd
00000170: 04ad 013c 04ac 083d e90e 5d3e 81d7 bb3c
00000180: 46a1 86bb 37ad 363d cdf8 093c c22a 17bd
00000190: 93a1 d4bc b8a1 fabb 2ea2 3bbc 9835 11be
000001a0: 589c 2e3b de1a 12bc dd2e eebc 1de5 3e3c
000001b0: 2896 92bb e9e1 053d 4d01 8dbc 56ad 6d3d
000001c0: e9ff 24be cc25 2fbd 7d71 02bd dcc9 2ebe
000001d0: 49d3 b73d 01cc 84bd 9926 b0bd 1b78 c3bc
000001e0: 848b c5bd 5abb a23d 884d 40bd 7b79 8abc
000001f0: c359 46bd b48b 9a3c 4ba2 913c ee34 0a3e
00000200: ecc5 76bd 583b 7ebd acb4 d03d c23a af3d
00000210: ac56 113c a7c9 59be 5ec6 d23c 36fc a13b
00000220: ec6f b6bc 833c 1a3c fabd 0fbd 4699 56be
00000230: d7ee 9ebc a451 3a3c c5ea 76bc 4d34 a63b
-0.004232207 -0.017954288 0.0021811326 -0.037948202 0.01043543 -0.008994191 -0.026209258 -0.24497691
-0.00826271 0.084661745 -0.41874167 0.14186558 0.013744763 0.012217254 -0.07123619 -0.093536094
0.4035092 -0.06719163 0.0028221474 0.006223507 -0.01669069 0.005994676 -0.006626942 0.0019546547
0.0006790727 -0.018233834 -0.22992678 0.013464803 -0.0045466786 -0.040298752 0.05715606 0.18119308
-0.2332314 -0.027508913 0.1151791 -0.051828455 0.020561488 -0.015899582 -0.014338325 0.053819228
-0.09139247 -0.0076603442 0.07047389 0.05277703 0.04370539 0.044044822 0.09619516 0.02931107
0.11544488 -0.05493215 0.011132645 0.014035487 0.06212837 0.00094035 0.011107719 0.047910627
0.025606833 -0.16103478 0.027528368 -0.030870406 -0.04758207 0.071420826 0.004811765 0.09358897
-0.07426728 -0.0103573 -0.1532615 -0.15990287 0.046055514 0.062109873 -0.08302544 0.007736486
0.056733202 -0.14672904 -0.028462766 -0.0031197842 -0.030032018 0.01936134 0.010920232 -0.010197837
0.004864342 0.038215354 0.13043436 0.026842518 0.033775885 -0.24325193 0.02413902 -0.010261952
0.03305491 -0.02222726 -0.020686988 -0.043508332 0.007914785 0.033367172 0.21587719 0.022929909
-0.0041085808 0.044598784 0.008421135 -0.03690601 -0.02595595 -0.007648673 -0.011452241 -0.141806
0.002664348 -0.008917538 -0.02907508 0.011651305 -0.0044734664 0.032686148 -0.017212534 0.058026634
-0.16113247 -0.042760655 -0.031846512 -0.1706919 0.08975846 -0.06484223 -0.08601112 -0.023860982
-0.09645751 0.07945891 -0.04694894 -0.01690363 -0.048425447 0.018865444 0.017777583 0.13496754
-0.060247347 -0.062068313 0.101907104 0.08556129 0.008870762 -0.2126833 0.025729354 0.004943396
-0.022270165 0.009413841 -0.035093285 -0.20956907 -0.019400997 0.011372004 -0.015070622 0.0050721527

body.0.body.0.b4.0.bias f4 [16]
00000000: 12ad 48c0 7820 203f 9d11 51bf 6683 f3bf
00000010: c848 9c3f ff9d 45bf 2b37 293e 999d 93bf
00000020: 0aa2 593f 5046 73bd b40d 713f 001a a43f
00000030: d0a1 a5bf f9d5 8e3e 1459 6fbf 2d94 47bf
-3.1355634 0.62549543 -0.816675 -1.9024475 1.2209711 -0.7719421 0.16524951 -1.153247
0.85012877 -0.059393227 0.94161534 1.2820435 -1.2940006 0.27897623 -0.934953 -0.77960473

body.0.body.0.sa.conv_y.weight f4 [16, 16, 1, 1]
00000000: d079 8f3d b890 03bd d2a3 23bc 6ddc fe3c
00000010: 4232 2cbd 22f7 c5be 0a75 4bbc 3ede 9a3d
00000020: fdb7 b1bb 8a45 ed3c d208 a4bc 6c1a aa3c
00000030: decd 453c 8399 8b3a 90b5 87bc 0722 0f3e
00000040: b6bb 8e3d e78c 66bc ba31 5dbc 3b04 073d
00000050: 25fd d0bd c432 35be ccde 7cbd 22df d5bd
00000060: f995 fd3c 2eca 083d 2c48 cfba f67a b93b
00000070: 1cdd 3dbe dbe3 c43c 0dc7 e73d 3005 ea3d
00000080: 5ddd 7fbd 0a7d 2c3c 64d0 733d 25eb 4bbd
00000090: 534f c63d 2ac1 ae3d e607 a93c 7bcd 82be
000000a0: 7f8e 2c3b e2b5 c5be 6c02 163c 8c63 40bd
000000b0: 0397 013e d231 4bbc 502a 463d a83e d43b
000000c0: 55fd e53c 7168 d5bc 2c09 87bd c15b 18bd
000000d0: 9d49 d53d 15ca 333d c1c8 003c 9849 3a3d
000000e0: 42ad cdbc 8527 7abd 3d9f 9fba 863e 05bc
000000f0: 7066 9fbd f4b0 8e3c 9bea 4fbd 99c5 99bd
00000100: 0814 7b3d 4984 cc3d 3aa1 2d3e 0367 973d
00000110: 0798 253e 6d7f 95bb cfc7 8e3d 4ddf c4bb
00000120: ac7b 72bc b6fa 1cbc 512e d2bc 9826 e23e
00000130: f239 da3d 23d4 02bb 8718 7dbc 3bc1 c13c
00000140: 53dd e63c 51c6 cdbd 7579 713e 72cf 11be
00000150: aba9 b13c 4fba 5a3d 05b8 02bf 8bd6 22bf
00000160: 4e92 41bc d4ae 6dbd ca41 fb3a 0fa0 363e
00000170: 01d8 773e d984 a43d 0975 f1bb a3b9 b5bc
00000180: c7e4 27be 468c 8dbc 266a 4abe 811a 97be
00000190: bad8 ca3d 2388 efbd fee5 cfbe a05b c23d
000001a0: 95c3 003e ca99 6e3d 9aa5 f8bc d79d 2d3d
000001b0: 9b81 243e 91e5 ae3d 10d3 25bc 3c99 8bbe
000001c0: 3f78 9fbd 9335 de3d 0504 c43d 3d24 11bd
000001d0: fc8f 083d 9e4a 9e3d 2ab0 51be 4522 033e
000001e0: 1ba4 13be 25bd b8be 1596 a9be 1f42 2a3c
000001f0: a740 353e d56f 4e3e 611a 47be c21f 8ebd
00000200: 7086 4b3d 98a2 8e3b 2a12 b53d fb4a f13d
00000210: aa82 aebc c921 f3bd 2bf1 05be 16ed 76bd
00000220: c14f b93d 8ea3 c03d b08c 1f3e c427 33bf
00000230: 0240 f03d a728 b73d 0c98 14be 52ae b13d
00000240: a1d8 81bd b1b3 233c 634c 83bc 48c7 bdbe
00000250: 7050 40bc 011e f93c 729c b5be 9287 ccbb
00000260: 99d8 2a3b bfec fcbe ebcd f3bd 2855 1ebf
00000270: 07f3 d13b 1b8e 063c 66d1 3dbe 12a1 553c
00000280: ec95 1bbd b90a b4be 24a2 4fbe 678a 063d
00000290: 1648 8abd 5736 3fbf 42f8 0cbc 3217 123d
000002a0: c338 1b3d 1560 963e 41fb 143d 5270 d43e
000002b0: 9457 ad3c ae25 a2ba 6387 7ebd 5a98 003d
000002c0: 6da6 1c3d a2da a53e 1f36 31be 32d5 213d
000002d0: c30c 983c 947a bebd e61c 90be 7e79 29bd
000002e0: 1ac0 833d 5f36 28bf ed00 8a3d 4065 d13b
000002f0: 16d0 ad3c fe36 763c f99e 5a3d e453 693e
00000300: 5ad4 3a3d 0dd2 2f3f 8745 93bd e7d1 7c3e
00000310: b090 333d ecf4 ddbd ac79 f4be f2bb 8fbe
00000320: 2e5c c5be 5208 203f 7d8b b8bc 215c 59be
00000330: 75a0 a13d ad80 9bbc dec8 9e3e 2f77 59bd
00000340: 976b 943b 0387 6fbd 5bd7 f1bd ca25 893d
00000350: c9cb fbbe c5d8 253d d460 4fbd 650d b4be
00000360: ffcd 7bbe f4a1 39be ab7e f9bc 99f6 ae3b
00000370: 9dac f4bd ae57 923d b600 3ebd 6440 79bc
00000380: 4f62 cdbe c64e d7ba 6ae5 24bd 1ebc 04bd
00000390: bcbf a33c c888 26be 3b0c 15be 46b5 9abd
000003a0: 17bc f23d c218 9eba 2e3c 87bf c7ad 26be
000003b0: 7917 e4bd 33ed 843d fa9d d93c f56b 46be
000003c0: 321b 32be 7170 6f3b e8f6 33bd 7e14 dd3d
000003d0: c0e6 6ebd 5ab7 1a3b 3e7a 86be e4da 663d
000003e0: b9a9 153f a340 5cbe 7f50 5a3f e975 98bd
000003f0: 112c 1dbe e2f2 823e ccfc d7bd d4d5 b5bd
0.07005656 -0.032120436 -0.009987788 0.031110967 -0.042040117 -0.3866511 -0.012418041 0.075619206
-0.0054235444 0.028963823 -0.020023737 0.020764552 0.012073008 0.0010650608 -0.016566068 0.13977824
0.06969397 -0.01407168 -0.013500625 0.03296302 -0.102045335 -0.17695147 -0.061735913 -0.1044295
0.030955302 0.03339594 -0.0015814356 0.00566041 -0.18541378 0.024034431 0.11317263 0.11426771
-0.062466968 0.0105278585 0.05952491 -0.0497848 0.09683099 0.08532937 0.02063365 -0.25547394
0.0026330051 -0.38615328 0.009155851 -0.046969935 0.12655263 -0.012402015 0.048380196 0.006477196
0.0280749 -0.026050778 -0.06593546 -0.03719688 0.10414431 0.043893892 0.007860363 0.04548034
-0.02510703 -0.061072845 -0.0012178194 -0.0081325825 -0.0778321 0.017418362 -0.050760847 -0.07508392
0.0612984 0.09986169 0.16956034 0.07392695 0.16171275 -0.0045623095 0.06971704 -0.006008065
-0.0147999935 -0.0095812585 -0.025656851 0.4417007 0.106555834 -0.001996287 -0.015447742 0.02365171
0.028181707 -0.100475915 0.23581488 -0.1423929 0.02168735 0.053400334 -0.5106204 -0.63608617
-0.011814667 -0.058028057 0.0019169387 0.17834495 0.24203493 0.08033151 -0.007368688 -0.022183245
-0.16395865 -0.017278802 -0.19767055 -0.29512408 0.099046186 -0.11695888 -0.40605158 0.09490132
0.12574609 0.058252133 -0.030352402 0.042386856 0.16065066 0.0853988 -0.010121122 -0.27265346
-0.07786607 0.10850062 0.09571079 -0.03543495 0.03334044 0.07729076 -0.20477358 0.12806042
-0.1441807 -0.36081806 -0.33122316 0.010391741 0.17700444 0.20159848 -0.19443657 -0.06939651
0.049688756 0.004352879 0.08841355 0.117818795 -0.02130254 -0.118716784 -0.1308028 -0.060284697
0.09048415 0.094061956 0.15581012 -0.6998255 0.117309585 0.08943301 -0.14511126 0.08675827
-0.06340147 0.009991572 -0.016027635 -0.37066102 -0.011737928 0.030409815 -0.3547092 -0.006241747
0.0026069044 -0.49399373 -0.1190451 -0.6184869 0.006407145 0.0082125915 -0.1853691 0.01303889
-0.037984774 -0.3516443 -0.20276695 0.032846835 -0.067520306 -0.7469229 -0.008604111 0.035666652
0.03789593 0.2937018 0.036372427 0.41491944 0.021159925 -0.0012370849 -0.062140834 0.031395294
0.038244653 0.32393366 -0.17305802 0.03950996 0.018560773 -0.09300724 -0.28147048 -0.04137563
0.06433125 -0.65707964 0.06738458 0.006390244 0.021217387 0.01502776 0.053374264 0.22785908
0.04561267 0.6867989 -0.07190996 0.24689446 0.043839157 -0.10837731 -0.47749078 -0.28073078
-0.3854689 0.62512696 -0.02252745 -0.2122655 0.07891933 -0.018982256 0.31012625 -0.053092178
0.0045294273 -0.058478367 -0.11808654 0.06696661 -0.49178913 0.04048993 -0.050629452 -0.3516647
-0.245903 -0.18128186 -0.030455908 0.0053394553 -0.11946986 0.0714563 -0.046387397 -0.015213106
-0.40114066 -0.0016426675 -0.04025785 -0.032405965 0.019988887 -0.16263115 -0.14555447 -0.075541064
0.118522815 -0.0012061822 -1.056524 -0.16277228 -0.111372896 0.06490555 0.026564587 -0.1937712
-0.17393187 0.0036535526 -0.04393664 0.10794924 -0.05832553 0.0023607821 -0.26265138 0.056361094
0.584621 -0.21509032 0.8527908 -0.074443646 -0.15348841 0.2557593 -0.10546264 -0.08878675

body.0.body.0.sa.conv_z.weight f4 [16, 16, 1, 1]
00000000: 5a01 4b3b 7444 70ba d8b7 ba3c 2900 70bd
00000010: 3b0a 3dbd 0208 4d3f 91a0 4ebb 5b9f c0bd
00000020: 8609 0c3d 20df debd a5e7 9f3c 1287 8bbb
00000030: b04f 8f3e f41f 8a3d 3361 8a3c 5752 01be
00000040: de11 52bd fe17 b83d 2390 083e ec47 8a3d
00000050: 7f64 29be 75f1 d83c ce50 0b3c d1ab 0b3d
00000060: ec5a f53c f96a 103e 7502 473c 0ccd 1bbc
00000070: e318 093e b224 18bd a40e b8bd 8c8c f73d
00000080: 2655 6c3d 029d 13bd 9ab5 dbbc 163d b23d
00000090: 8cdc 00be 69c3 88be 0612 35bd 1548 6d3e
000000a0: b366 ae3b b07d fc3e 120a edbc bcce e63c
000000b0: 0fe3 3ebe ebdb e9bc b8e1 60bd b00c 0d3e
000000c0: 232b c73e 0fca 0dbe e0d0 e3bd cadc c3bd
000000d0: 23ce 9bbe 3c12 713d 998a f63a 8897 30bd
000000e0: b2c9 62bd 7656 08be a961 223b 992c 87bd
000000f0: 4c25 cbbe 7195 38bf 0430 d0be 61f7 3f3e
00000100: 44e2 c6bd a35c b93d e4c9 a0be fadb 1dbf
00000110: 1cc5 233d 6e1e bfbd 2dd0 c23f 185b 8c3d
00000120: 4e1b 3a3d 8d9e 5e3d c205 3dbc 1e51 953d
00000130: f9eb 883d 1e1a 88bc d0b3 57ba b19b e5bd
00000140: f3f2 24bd 75e0 213c 6a5c 5bbd 19c4 dd3e
00000150: f79a 49bc 1fd2 f8bd a252 b5be 0a80 463d
00000160: 63e5 f23c 02e2 223d 027b 03be 775a 373e
00000170: e33c 363d 66e4 8fbc 2e9d 843d 7855 b4bd
00000180: 8e94 34be 6c30 87bd 0025 ce3e aa84 15bf
00000190: 3a43 f0be a82f be3d d816 86be 1869 5ebd
000001a0: ff4f 033e 5ec8 683d 3148 cbbc b25e 99be
000001b0: ad23 123e 0a1b 63bc 56e9 4fbd d8b1 663e
000001c0: f9e8 ea3c 1c48 21be d9cd d6bd 9a6e 053d
000001d0: 2e52 24be 5aab fbbc 5da0 263e 8cb9 263d
000001e0: dd6c b7be 94d0 adbe e696 8abd e0ef f03c
000001f0: 8a8c 52be d56b 5bbd b916 eabb d982 e33d
00000200: e089 6dbe a8c7 eb3d 3c5a c0be 4c6a 3fbe
00000210: 5e9e debb d998 0abe 085c 2abe a676 1dbd
00000220: 393a 1cbd 91bc b3bd 750b b23e a745 25be
00000230: ee30 0cbd d967 86be 6c15 903e 368a 5b3e
00000240: 4094 4cbe ede5 aabd 665f a63c bc6d 25be
00000250: e545 3ebb 781d 8e3e b782 473e a924 8bbe
00000260: a5cf 57be 4d54 143e 5e05 933e 6ae9 713e
00000270: b824 06bd f26b 13be 5af0 9dbe c1e9 73be
00000280: 1680 083e d447 46bd c1f6 183e 8447 14bd
00000290: 96bf bc3b 6946 803d 8bce 3abe ffbc 0b3d
000002a0: 0435 a53e 5a0b 64be 8050 4d3f e4a8 583f
000002b0: c768 963b ebfc c53c a776 113d 49fe 93bd
000002c0: 271d 4bbb b79c 0ebe 70cb 383e 2a7a 07bf
000002d0: b237 abbd 9f10 7dbd a5a6 19be 20c1 ebbc
000002e0: 7ee0 4c3e d16c b73e eedf 4b3d aff2 18bf
000002f0: bded 46bc d1c1 183d 95e2 85bd 68bf c63d
00000300: 31d9 edbe baa8 05bf e845 a6bd 34ef 28be
00000310: f67f 16bd 27ef d5bd f5b7 4ebe aec0 17be
00000320: 512f 29bf db8f 0c3e d156 3f3d 1b89 79be
00000330: 63f3 603e 45c2 b03e 10a8 1dbe 584a 50bd
00000340: 00ec 8a3e f742 70bd 2937 03be ff95 463d
00000350: bdb6 973e 29a6 553f 4674 60be 1a95 733d
00000360: 3d10 c5be cbdd 8dbe 4766 1ebe fbb4 28b8
00000370: 2495 48be dddb a9be 16a4 8a3d ab59 9a3e
00000380: 61f4 e6bd 74c2 b0bc c9d9 abbe c1f1 a7bc
00000390: 6ada e43a 43bd 6cbe 91fb 18bf 245f 9f3c
000003a0: a07f 223f 9b28 efbe 27b5 b53e 63e2 8bbd
000003b0: 50c9 99be 9261 babd 14c4 64be 0f4d 7cbc
000003c0: 657c 4cbf de0a 77bc 4099 27bd 6eca d0bd
000003d0: 1b31 b93d b485 9ebe 0427 85be 2e13 fbbd
000003e0: dc6d 16bd 8803 eb3d be6e fe3d 5c40 c3bd
000003f0: 2209 2dbe 8fa4 14be 5af5 c4bc ad17 413c
0.0030976147 -0.0009165474 0.022792742 -0.058593903 -0.046152335 0.80090344 -0.003152881 -0.09405395
0.03418877 -0.108824015 0.019519636 -0.004258045 0.27990484 0.06744376 0.016892051 -0.12629066
-0.05128657 0.08988951 0.13336234 0.06751999 -0.16542242 0.026482323 0.008503152 0.034099404
0.029950581 0.14103307 0.012146582 -0.009509336 0.133884 -0.03714437 -0.089871675 0.12087354
0.05769839 -0.036038406 -0.026819993 0.087030575 -0.12584132 -0.26711586 -0.04420664 0.23172028
0.0053223013 0.49314642 -0.028935466 0.02817475 -0.18641303 -0.028547248 -0.054902762 0.13774371
0.38900098 -0.1384661 -0.11123824 -0.095635965 -0.30430707 0.05885528 0.0018809616 -0.04311326
-0.055368133 -0.13314232 0.0024777448 -0.06600303 -0.39676893 -0.7210303 -0.40661633 0.18746711
-0.097111255 0.09050872 -0.3140403 -0.6166378 0.0399829 -0.09331976 1.521978 0.06853312
0.045436196 0.054350425 -0.011537017 0.072908625 0.06685633 -0.016614016 -0.0008228393 -0.112113364
-0.040270757 0.009880175 -0.05355493 0.43313673 -0.012305013 -0.121494524 -0.35414606 0.04846195
0.029650396 0.03976632 -0.12839893 0.17905603 0.04449166 -0.017564964 0.06475292 -0.08805364
-0.17634794 -0.066010326 0.40262604 -0.58405554 -0.4692629 0.092864335 -0.26189303 -0.054299444
0.12823485 0.05683171 -0.024814697 -0.2995506 0.14271422 -0.013861427 -0.050759636 0.2252878
0.028675543 -0.15750164 -0.10488481 0.03257618 -0.16046974 -0.030721355 0.16272111 0.040704295
-0.35825244 -0.33948195 -0.06767063 0.029411256 -0.20561424 -0.053569634 -0.007143822 0.111089416
-0.23197126 0.11512691 -0.37568843 -0.18692893 -0.006793781 -0.13534869 -0.1663667 -0.03844323
-0.038141463 -0.087762006 0.34774366 -0.16139852 -0.03422635 -0.26251104 0.28141344 0.21439442
-0.19978428 -0.08344636 0.020309161 -0.16155142 -0.002903336 0.27756858 0.19483458 -0.27176407
-0.21075304 0.14485283 0.28715032 0.23624197 -0.03274986 -0.14396647 -0.30847436 -0.23819639
0.13330111 -0.048408344 0.14937879 -0.036201015 0.0057601435 0.0626343 -0.18242852 0.034115788
0.3226701 -0.22269955 0.8020096 0.84632707 0.004590127 0.024168452 0.035513546 -0.072262354
-0.0030992718 -0.1392697 0.18046355 -0.5292078 -0.083602324 -0.06178343 -0.15004976 -0.028778613
0.20007512 0.35825208 0.049774103 -0.59745306 -0.012141642 0.037294213 -0.06537358 0.097044766
-0.46454766 -0.5221058 -0.08118802 -0.16497499 -0.036743127 -0.10446005 -0.20187362 -0.14819595
-0.66087824 0.13726752 0.046713654 -0.24368708 0.21967845 0.34523216 -0.15396142 -0.05085215
0.2713318 -0.058657613 -0.1281401 0.04848289 0.29631606 0.83456665 -0.21919355 0.059468366
-0.3848895 -0.27708277 -0.15468703 -4.0222872e-05 -0.19588143 -0.33175555 0.06769578 0.30146536
-0.1127708 -0.021577097 -0.33564594 -0.02050102 0.0017460112 -0.23119073 -0.5975886 0.019454546
0.6347599 -0.46710667 0.3548977 -0.06830289 -0.30036402 -0.09100641 -0.22340423 -0.015399232
-0.7987731 -0.0150782745 -0.040917635 -0.101948604 0.09042569 -0.30961382 -0.2600633 -0.122595176
-0.036725864 0.11475283 0.12423466 -0.0953376 -0.16898015 -0.14515899 -0.024042774 0.01178543

body.0.body.0.sa.conv.weight f4 [64, 4, 1, 1]
00000000: 8ec1 013d ac5b a23d d3bd 4b3d b659 abbe
00000010: 8c73 cd3c 1e4e 88bd d8bf 863d 78c6 3dbb
00000020: 50a4 7d3c 9953 61bc ee76 0fbc 7fe3 21bc
00000030: 46a9 07bd cf3c 0a3d 619b 193d 5004 743b
00000040: 9df3 e8bd 354c 8e3d 8412 64be 5129 a33d
00000050: cb91 ebbe 7c4f d6bc ac9f f7bc a7b6 f63c
00000060: e859 0b3d 9f9c 9aba 2db6 933d 98d3 163c
00000070: c308 783e d9e9 a2bd 804c 613d d69e 47bc
00000080: b850 b53c 9cc4 9ebc f13a e1bc b531 44bb
00000090: a852 d9bd 7a1b abbd 9104 ddbe 6ca1 b53d
000000a0: 6275 43bd 1410 b53c c21f e7bc 6c51 ef3c
000000b0: c3ca 2dbf 7f15 bfbd 2890 833e b524 973d
000000c0: 9023 3dbd 4b5f 373d e8a1 93ba df32 73bd
000000d0: e17d c3bd 3004 03be f04c 1fbe fe04 be3d
000000e0: 122b 523d 81e5 df3d 768b c83c 87e3 64bf
000000f0: 3a94 023d d398 69bd 4cd1 c4bc 001a 823c
00000100: 1843 213f 816b 86be c857 003e 95f7 603c
00000110: 2ff3 2c3e da47 5fbe 857e ad3d 0e31 453d
00000120: 57cf 9ebe 5786 2bbe 29d6 893e 3ba7 95bc
00000130: a798 a2bf f120 1c3e 4bb5 8abd b400 0cbe
00000140: 3843 c9bd bbf5 87be 50d8 8dbd ea60 91bb
00000150: d66e ca3e b1db 76be 36c7 57bf fbac 5bbe
00000160: 2bbc bcbe fa6f 103c a5af a2be c970 4ebd
00000170: 71e2 3b3e 9d29 15be cae6 43bd 78c5 7c3d
00000180: 77f4 723d 8c55 8c3d 5c32 6d3d 5f63 463e
00000190: e8a5 b3bd cf7e 523d 2245 0d3b 486e 7fbe
000001a0: f51d f23d 4c86 aabd 9c04 ee3f 7ac2 0b3f
000001b0: e97c d9bc 6c3e 03be 2dc3 843b 9474 4cbb
000001c0: 32d3 803e d6a7 b7be b22b 263e b5d6 a53c
000001d0: 2332 213d 4f0d 3ebc c4c3 6a3c 6126 9a3d
000001e0: ee38 573d 47de f6bd 5150 4bbb 6057 ca3e
000001f0: 6054 3d3e ca0a b3be bba6 88bf b7bb 1dbf
00000200: cc3b 0f3f a495 f1bc 3300 50bf 3d45 7abf
00000210: c04e 92be fb34 90bc 2f1f d23e a5d9 68bd
00000220: 52a8 b6bc 3dd9 c23c 79bb 98be b70e e3be
00000230: 4c3c 2f3f b84a c0be 95f8 733b 1ce6 bcbe
00000240: 6873 403e 04b0 e2bd d29c 6b3f 3e0f 143f
00000250: 4670 e23e 0623 4abc 7077 5ebf b7a5 863d
00000260: 86a4 cbbe cc2c 9b3c e7b7 2b3e 44ba 5fbd
00000270: 1597 76be bf25 93bd 96aa 81be b023 cd3d
00000280: 7d95 5b3d ab2f 8e3d e658 b53d e8c4 cabd
00000290: 1a0c 79be 9750 f6be 7dab fabd 0d51 a13e
000002a0: c8c4 3a3e 49bb 17bd 914c 8abc 801d a3be
000002b0: 6f25 97bd 805f 88bc 820b de3e 7a2c 913d
000002c0: 4f72 c33b 9452 05bd f528 33bd c30d e3bd
000002d0: 8e98 aebf c77a cbbc c7cf 59be e60d 1c3c
000002e0: 20f7 2f3f 8968 05be a3c9 143d 3742 8ebe
000002f0: c5f5 bd3b 92b9 abbd 80dd b5bd d0b6 aebd
00000300: 1690 a9bd 24ad 523c b581 913c 0ebf 6b3e
00000310: 5752 d83f ddcc 10bd 83c2 633c ceaa 72bd
00000320: 7b28 dabe 68b8 03bf 49c2 c93e 1952 703e
00000330: ec2c 69be 5713 b3bd a8e1 1c3d 5c9c 39be
00000340: 762e 3cbd fe44 b83f 6889 9dbc 4808 7cbc
00000350: ee54 c03d b11e 6c3e 2950 b43e 08d9 e5be
00000360: 25ff 8dba a4d5 33bf ad6a a2be 3a98 7b3e
00000370: 07db 243c 9013 503d 6798 1c3d fc96 58be
00000380: 67c8 523c 2506 3ebd 5e9d 5c3e 1731 4d3b
00000390: 1f76 123e c506 83be c596 07bf a34a 023f
000003a0: 1108 e3bc 2035 98bb b092 14bf 9f18 9b3d
000003b0: c1f0 98bd b68a f5bc cdab cd3c a68c c2bd
000003c0: e735 89be 58cf a93d 3c62 ed3d e722 bebe
000003d0: b637 9b3d 980c 62bd 9e10 63bd 42f9 acbe
000003e0: db92 62be 8c86 c3bd 4119 dabd 95fb 6cbe
000003f0: a1f3 8bba 4f62 98bd 3443 3c3d c29d b7bd
0.03167873 0.07927641 0.049741577 -0.33466882 0.025079511 -0.06655525 0.0657956 -0.0028957408
0.01548107 -0.013752841 -0.008756382 -0.009880899 -0.033120416 0.033749398 0.037501696 0.0037234016
-0.113745905 0.06948129 -0.22272688 0.07966865 -0.4600967 -0.026160948 -0.030227505 0.030116392
0.03402129 -0.0011795944 0.07212482 0.009205721 0.24222092 -0.07954759 0.055004597 -0.0121838655
0.022133216 -0.01938086 -0.027493926 -0.0029936854 -0.106114686 -0.0835485 -0.43167546 0.088686794
-0.047719367 0.022102393 -0.028213385 0.02921363 -0.67887515 -0.09330272 0.2569592 0.07380048
-0.046176493 0.044768613 -0.0011263462 -0.059374686 -0.09545494 -0.12794566 -0.15556693 0.09278296
0.051310606 0.10932446 0.024480563 -0.8940968 0.03187964 -0.05703051 -0.024025582 0.015881538
0.62993 -0.26253894 0.12533486 0.013730903 0.16889642 -0.21804753 0.08471397 0.048142485
-0.31017563 -0.16750465 0.26921204 -0.018268218 -1.2702836 0.15246941 -0.0677286 -0.13672143
-0.09827274 -0.26554665 -0.06926024 -0.004436602 0.39537686 -0.24107243 -0.84288347 -0.21452706
-0.3686231 0.00881576 -0.3177463 -0.05040053 0.183481 -0.14566655 -0.04782752 0.06171176
0.05931517 0.06852254 0.057909355 0.19373845 -0.087718785 0.051390465 0.00215561 -0.24944413
0.1182212 -0.08326396 1.8595157 0.5459362 -0.02654882 -0.12816781 0.004051587 -0.0031197416
0.2516113 -0.35870236 0.16227606 0.020243982 0.039354455 -0.011599853 0.014328901 0.075268514
0.052544527 -0.12054115 -0.0031023214 0.39519787 0.18489218 -0.3496917 -1.0675882 -0.61614555
0.5595062 -0.0294903 -0.81250304 -0.977619 -0.28575706 -0.017603388 0.41039416 -0.056848187
-0.022297058 0.023785228 -0.2983053 -0.44347164 0.6845138 -0.37557006 0.0037227024 -0.3689431
0.18794024 -0.110687286 0.92036164 0.5783576 0.44226283 -0.012337452 -0.86901 0.06574576
-0.3977396 0.01894226 0.16769372 -0.054620996 -0.2408107 -0.07184934 -0.2532546 0.100165725
0.05360936 0.06942686 0.08854847 -0.09900838 -0.24321023 -0.4810836 -0.1223974 0.3150715
0.18239129 -0.037043843 -0.016882213 -0.31858444 -0.07380187 -0.0166471 0.43368155 0.07088561
0.0059645544 -0.032549456 -0.04374023 -0.11086609 -1.3640306 -0.024838818 -0.21270667 0.009524798
0.6873646 -0.13028158 0.03632511 -0.27784893 0.0057971203 -0.08385004 -0.088801384 -0.085309625
-0.08279435 0.012858663 0.017762044 0.230221 1.6900128 -0.035351623 0.013901356 -0.059244923
-0.4260901 -0.51453257 0.3940604 0.23468818 -0.22771043 -0.08743923 0.03830114 -0.18126053
-0.045942746 1.4396055 -0.01923056 -0.015382834 0.09391199 0.23058583 0.35217407 -0.44892144
-0.0010833485 -0.70247865 -0.31722012 0.24569789 0.010061986 0.050799906 0.03823128 -0.21151346
0.012865162 -0.04639258 0.21544406 0.0031309777 0.14302872 -0.25591102 -0.5296443 0.50895137
-0.027713807 -0.004645005 -0.5803633 0.075730555 -0.07467795 -0.02997337 0.025106335 -0.09499483
-0.26798937 0.08291501 0.11591002 -0.37136003 0.075789854 -0.05518779 -0.05543577 -0.3378392
-0.22126333 -0.09547147 -0.10649348 -0.23142846 -0.0010677465 -0.07440626 0.045962527 -0.08965637
