ESASN_TrainCode/experiment/ESASNS_R4G4F36W64B16g4_BIx4lr8/model/model_latest.pt (torch_old, 932499 bytes, 257 tensors)

sub_mean.weight f4 [3, 3, 1, 1]
0.996251 -0.00066568 -0.029253026 -0.039026447 1.0704246 -0.0768487 0.028512856 -0.037040498
0.9450831
00000000: 4e0a 7f3f 0781 2eba 0ba4 efbc 32da 1fbd
00000010: ac03 893f da62 9dbd cb93 e93c c7b7 17bd
00000020: f7f0 713f

sub_mean.bias f4 [3]
-113.48289 -110.410805 -102.17673
00000000: 3df7 e2c2 55d2 dcc2 7c5a ccc2

add_mean.weight f4 [3, 3, 1, 1]
0.54753196 -0.057929043 0.009945735 -0.0047301003 0.56025994 -0.016260002 0.023106067 -0.039509736
0.5848937
00000000: 0e2b 0c3f 0147 6dbd 70f3 223c f5fe 9abb
00000010: 326d 0f3f b233 85bc ef48 bd3c f6d4 21bd
00000020: 98bb 153f

add_mean.bias f4 [3]
114.964066 112.322685 104.970894
00000000: 9aed e542 37a5 e042 19f1 d142

head.0.weight f4 [36, 3, 3, 3]
-0.025052508 -0.07309997 -0.015528441 -0.0026094788 0.0027774165 0.07836968 -0.030227518 0.11253373
-0.043335076 0.029586041 -0.14584441 -0.010100355 -0.0013454582 -0.1425691 0.13557844 0.052257415
0.03663231 0.06452492 0.02896208 0.037774533 0.038881257 -0.07153817 -0.38228264 0.042630453
0.061534382 0.19733635 0.04977879 0.02676893 0.059792504 0.0279217 0.1602149 -0.1868164
-0.116756104 0.025115153 -0.006625367 0.02144251 -0.07430137 -0.03798814 -0.1179596 -0.051602144
0.14877115 -0.052248042 0.076815896 0.12723719 -0.030638315 0.009691129 0.12568563 0.025244126
-0.27016675 0.20366701 0.060701314 0.0032956735 -0.15443282 -0.0030342087 -0.10605052 -0.13214606
-0.079142705 0.06449234 0.29648322 -0.05120812 0.020863326 0.00024005423 -0.011267879 0.08537548
0.15522645 0.16428217 -0.30445504 0.09256839 -0.059008844 -0.07341802 -0.08798366 0.00802275
0.047714602 -0.05601946 -0.07968601 0.14376508 -0.2638476 0.0811492 0.07385212 0.055801436
0.011923539 0.041190665 -0.095347986 0.01212849 0.07772072 -0.100938134 -0.11424412 -0.008390621
0.17868334 0.0008694983 0.012333281 -0.018409973 0.0029286537 -0.13130969 0.03658036 0.011690142
0.07449448 -0.012562451 0.041552328 0.039442275 0.06481135 -0.09586963 -0.07264922 0.19256179
0.10720075 0.041866537 -0.28533322 0.00048245688 0.014953031 0.037132706 0.10708618 -0.17049375
0.08657484 -0.110613026 0.006731362 -0.07509742 0.09336607 0.01338113 -0.074222356 -0.07928218
0.14652625 0.082926005 -0.011585542 0.04272606 -0.066570036 -0.048262868 -0.006488375 -0.01643642
0.007814665 0.03862062 -0.15539935 0.07672283 -0.011365702 0.020168515 0.032523185 -0.019134497
0.050311673 -0.021441614 0.0035445397 0.4662904 -0.1728751 -0.008758312 -0.26115888 -0.035254896
-0.009628012 -0.005066694 0.026158541 0.028845496 -0.3492564 0.11434888 -0.0072072907 0.18244678
0.004000901 0.038927734 0.013636211 0.037984006 -0.064328976 -0.18320622 0.056299366 0.0022038165
0.10636872 -0.010906717 0.044784263 0.25385034 0.015071459 0.083402105 -0.09237605 -0.02074039
-0.042187337 -0.15876344 -0.09395122 0.021577695 -0.1108547 0.05239693 -0.11204628 -0.19214414
0.06899897 0.002547763 0.17629687 0.09831158 -0.033384565 -0.1076465 0.024588013 -0.09825243
0.11983463 0.123337924 0.05251955 -0.04094576 -0.03935827 0.026972769 0.1182422 -0.01025815
-0.016373014 -0.11149517 -0.20299748 -0.018042205 0.22535075 -0.0039811325 -0.10797451 -0.037055843
-0.15711586 0.1564139 0.3853111 -0.043474156 -0.042356446 -0.09603375 -0.054093476 0.06340301
-0.014085028 0.17056946 -0.086827256 -0.29773885 0.19280916 -0.010604528 -0.11750473 0.08957083
0.022398582 0.105837286 -0.050575588 -0.055311833 0.32000825 -0.20389037 -0.056233685 -0.03460612
-0.055219866 -0.018020164 0.15114416 0.03959755 -0.089458935 -0.15078966 0.113614395 0.09537011
-0.15857954 0.019186458 -0.06424639 -0.17352849 -0.09384027 -0.030201314 0.30902606 -0.03424746
-0.026636446 0.10509283 0.0060171806 0.03624856 0.1451085 0.0054149944 -0.032376565 -0.40138522
0.2575671 0.05888605 -0.13615619 0.054850105 -0.04713552 -0.13737932 -0.050047923 -0.08777235
00000000: eb3a cdbc 70b5 95bd 016b 7ebc ca03 2bbb
00000010: 5105 363b 4880 a03d b39f f7bc 1678 e63d
00000020: 1f80 31bd 6d5e f23c 3d58 15be f67b 25bc
00000030: 165a b0ba a2fd 11be 13d5 0a3e df0b 563d
00000040: c30b 163d a425 843d e241 ed3c 78b9 1a3d
00000050: f441 1f3d 9b82 92bd 8dba c3be 459d 2e3d
00000060: 7a0b 7c3d 8a12 4a3e d8e4 4b3d 844a db3c
00000070: fce8 743d 0dbc e43c 600f 243e cc4c 3fbe
00000080: d31d efbd 4bbe cd3c 9b19 d9bb 34a8 af3c
00000090: 512b 98bd 7499 1bbd ce94 f1bd c55c 53bd
000000a0: 7757 183e 0b02 56bd a751 9d3d 774a 023e
000000b0: 34fd fabc 8bc7 1e3c bcb3 003e c5cc ce3c
000000c0: 4c53 8abe 168e 503e f1a1 783d 3afc 573b
000000d0: a323 1ebe 93d9 46bb 0431 d9bd 4c51 07be
000000e0: 9215 a2bd 8f14 843d a6cc 973e 9bbf 51bd
000000f0: 91e9 aa3c 11b7 7b39 e99c 38bc 57d9 ae3d
00000100: aff3 1e3e 9639 283e 88e1 9bbe 7f94 bd3d
00000110: 42b3 71bd 305c 96bd c730 b4bd da71 033c
00000120: 6370 433d a974 65bd 6b32 a3bd 2737 133e
00000130: 0817 87be 8d31 a63d c83f 973d 0c90 643d
00000140: f35a 433c 8bb7 283d ce45 c3bd 93b6 463c
00000150: 0a2c 9f3d a7b8 cebd d2f8 e9bd d178 09bc
00000160: c4f8 363e 0bef 633a 8811 4a3c 83d0 96bc
00000170: a8ee 3f3b 0c76 06be 4ad5 153d 0288 3f3c
00000180: 9090 983d bdd2 4dbc c632 2a3d 398e 213d
00000190: d0bb 843d 4c57 c4bd 1dc9 94bd eb2e 453e
000001a0: 118c db3d 3f7c 2b3d 3217 92be 44f2 fc39
000001b0: 8ffd 743c 7718 183d 0050 db3d ea95 2ebe
000001c0: 264e b13d 1589 e2bd c292 dc3b adcc 99bd
000001d0: b636 bf3d 873c 5b3c e401 98bd b25e a2bd
000001e0: fa0a 163e 1cd5 a93d 49d1 3dbc 8501 2f3d
000001f0: df55 88bd 49af 45bd 6f9c d4bb aca5 86bc
00000200: 1509 003c a830 1e3d 0221 1fbe dc20 9d3d
00000210: 3637 3abc 7138 a53c 0837 053d f3bf 9cbc
00000220: 9d13 4e3d 53a6 afbc 824b 683b 9ebd ee3e
00000230: 2c06 31be 067f 0fbc 9eb6 85be 7067 10bd
00000240: cfbe 1dbc 8306 a6bb 704a d63c 644d ec3c
00000250: bcd1 b2be bf2f ea3d 232b ecbb 54d3 3a3e
00000260: fd19 833b b072 1f3d 6a6a 5f3c 1e95 1b3d
00000270: e9be 83bd 699a 3bbe 2a9a 663d e86d 103b
00000280: d8d7 d93d 16b2 32bc b46f 373d acf8 813e
00000290: 48ee 763c b9ce aa3d a82f bdbd c0e7 a9bc
000002a0: a1cc 2cbd e292 22be 7f69 c0bd b5c3 b03c
000002b0: ca07 e3bd 2a9e 563d 8578 e5bd 6fc1 44be
000002c0: 554f 8d3d 5ff8 263b 2b87 343e 9557 c93d
000002d0: 41be 08bd c575 dcbd cd6c c93c 9238 c9bd
000002e0: dc6b f53d 9898 fc3d bd1e 573d beb6 27bd
000002f0: 2336 21bd fff5 dc3c f728 f23d cd11 28bc
00000300: b320 86bc 9457 e4bd 92de 4fbe 3fcd 93bc
00000310: 59c2 663e 2974 82bb bd21 ddbd dec7 17bd
00000320: fbe2 20be f72a 203e 7f47 c53e f511 32bd
00000330: f47d 2dbd 58ad c4bd 1f91 5dbd 70d9 813d
00000340: e4c4 66bc c3a9 2e3e 7dd2 b1bd 3a71 98be
00000350: c46f 453e 9dbe 2dbc 52a6 f0bd e970 b73d
00000360: 3b7d b73c 38c1 d83d 5928 4fbd a98e 62bd
00000370: 1fd8 a33e a3c8 50be 4b55 66bd 26bf 0dbd
00000380: 3a2e 62bd 069f 93bc 89c5 1a3e 0a31 223d
00000390: 3f36 b7bd 9b68 1abe aaae e83d 6751 c33d
000003a0: ad62 22be eb2c 9d3c 9c93 83bd 74b1 31be
000003b0: 542f c0bd bf68 f7bc aa38 9e3e 1147 0cbd
000003c0: ad34 dabc e93a d73d c52b c53b 5f79 143d
000003d0: 5397 143e 4470 b13b 4a9d 04bd 5d82 cdbe
000003e0: d6df 833e 8032 713d 876c 0bbe 81aa 603d
000003f0: 2d11 41bd 2aad 0cbe 0dff 4cbd fdc1 b3bd

head.0.bias f4 [36]
-0.52142775 -0.015394464 -0.6069175 0.2663719 -0.58615583 0.18143895 -0.5871967 0.077723034
0.32370457 -0.89943546 -0.023517113 0.21561053 0.4535517 0.35208684 -0.3231172 -0.9115283
-0.4332794 -0.10059518 -1.3227623 -0.0507924 0.37403584 0.71230793 0.61638135 -0.49880862
-0.3440974 -0.23348925 0.202943 -0.027830342 0.11815795 -0.22521295 -0.3511123 -0.9421904
0.018082937 0.38514382 -0.16763252 0.03546735
00000000: 4a7c 05bf 1039 7cbc f25e 1bbf e661 883e
00000010: 4f0e 16bf 22cb 393e 8652 16bf 412d 9f3d
00000020: 9bbc a53e 6741 66bf f6a6 c0bc 02c9 5c3e
00000030: ee37 e83e ba44 b43e 9e6f a5be eb59 69bf
00000040: ccd6 ddbe d904 cebd 4650 a9bf b10b 50bd
00000050: a081 bf3e d059 363f 2bcb 1d3f d863 ffbe
00000060: 892d b0be ce17 6fbe 4ad0 4f3e 75fc e3bc
00000070: ccfc f13d 399e 66be fec4 b3be 6433 71bf
00000080: ab22 943c 9231 c53e dca7 2bbe 3646 113d

body.0.body.0.widen.weight f4 [64, 36, 1, 1]
-0.051264744 -0.29111838 -0.35506308 -0.13806204 0.2520192 0.29857486 -0.32472068 -0.16845554
0.039548885 -0.5453924 -0.20436096 0.03662665 0.050264746 0.034425568 0.16075191 0.18463033
-0.04175407 -0.19433348 0.059520256 0.3883246 0.114315525 -0.14557801 0.3153913 0.113957755
-0.104184985 0.16564667 -0.52647424 -0.17511985 -0.15889233 -0.12726542 0.47715595 0.3207092
0.2409134 0.104727596 -0.11066418 0.084782675 -0.058761656 -0.0011488394 0.4234951 0.55599946
-0.3896864 0.05301003 -0.14010282 -0.1806437 -0.16806522 -0.09505999 -0.24982414 0.7370303
0.025489897 -0.2766724 0.09320362 -0.6594966 0.00087841065 0.022547275 -0.025614893 -0.7228175
0.03414035 0.16121446 0.25508332 -0.056925114 0.72791964 0.056779314 0.2521786 -0.39526019
0.41313 -0.087565854 -0.22229747 -0.10289803 0.14979224 0.09995753 -0.34712133 0.14989768
0.24269907 -0.28091642 -0.2371282 -0.16302454 -0.48802313 0.051705435 -0.16796464 0.2151131
0.14095007 -0.20285438 0.0014567713 0.101247646 -0.11335368 0.3751382 -0.10533989 -0.19093728
0.53004473 0.13170218 -0.05601973 -0.15161358 -0.1342965 0.16830264 0.21364194 0.058621388
-0.14204562 0.009433462 -0.13436638 0.070031695 -0.044146802 0.008097417 0.19783013 0.12482462
-0.056040876 -0.10158489 0.14108716 -0.3030039 -0.16852733 0.08575912 -0.06726373 -0.039056648
0.07740805 -0.31407884 -0.010157083 0.5856332 0.10832908 0.04004949 0.67347074 -0.2730118
0.07222454 0.04802055 -0.10466109 -0.08264949 -0.12461417 -0.2304646 -0.03326261 0.3025149
0.11111123 -0.28903675 -0.24785993 -0.12036311 0.23791245 -0.12813605 0.09082786 0.12870127
0.010084001 0.23703831 0.7571074 -0.46230182 -0.06905634 0.48217914 -0.21550393 -0.2097526
-0.08208388 0.20267075 0.034272667 0.04857137 -0.11018601 0.123497084 -0.15696317 0.053164862
0.27893686 -0.031803925 -0.03457511 0.04475624 -0.055721782 0.036650073 0.2735012 0.13191833
0.085759334 0.2854547 0.025221566 -0.09202632 0.29059213 -0.06635058 -0.10875898 -0.0837865
0.1809106 0.011974827 0.043414716 -0.23339118 -0.11941125 0.023196563 0.14449044 -0.23927365
-0.0029076461 0.10622198 -0.08707197 0.20694287 0.24936831 0.11886562 0.13330843 0.05866224
-0.029906772 -0.10359795 0.091576055 -0.0091203395 -0.07329368 0.036088314 0.15165977 -0.023137758
0.18225339 -0.040046167 0.043678753 0.08674776 0.11603508 0.19557321 -0.07036192 0.114551425
-0.0013188914 -0.058238033 -0.14004998 -0.03396427 0.018740116 -0.075458474 -0.12198951 0.01013506
-0.08657027 0.015937395 -0.16966416 0.08733255 0.46780592 -0.041341547 -0.10184533 0.21402311
-0.011176716 -0.24796934 0.03123107 0.10813979 0.8126801 0.02373512 -0.018027991 -0.3675563
-0.015337692 -0.059420362 -0.18568617 0.14993441 -0.11647227 0.16511247 0.041211326 -0.5249807
0.04097313 0.07852125 -0.0020870005 -0.30128568 -0.25307623 0.21473031 0.12362747 0.17368942
-0.11516984 -0.08170439 -0.2263963 -0.019822206 0.12531754 0.08939571 0.062203217 0.25876808
0.082088225 -0.34613046 -0.4271546 0.18471546 -0.0151451565 -0.11453954 -0.17168024 -0.103253916
00000000: fbfa 51bd 780d 95be d4ca b5be 2360 0dbe
00000010: a908 813e cede 983e ca41 a6be 9c7f 2cbe
00000020: 03fe 213d d69e 0bbf 0044 51be d305 163d
00000030: 68e2 4d3d d301 0d3d 269c 243e bc0f 3d3e
00000040: 5106 2bbd 5bff 46be 83cb 733d 7bd2 c63e
00000050: 421e ea3d 6712 15be f87a a13e af62 e93d
00000060: f05e d5bd 489f 293e 04c7 06bf 9e52 33be
00000070: acb4 22be de51 02be c94d f43e ff33 a43e
00000080: 01b2 763e 6c7b d63d e7a3 e2bd 8aa2 ad3d
00000090: 10b0 70bd a794 96ba 5ad4 d83e fb55 0e3f
000000a0: fa84 c7be 0c21 593d 1d77 0fbe a9fa 38be
000000b0: 4a19 2cbe d0ae c2bd e6d1 7fbe 05ae 3c3f
000000c0: 30d0 d03c 01a8 8dbe 8ae1 be3d c5d4 28bf
000000d0: 2445 663a 10b5 b83c 53d6 d1bc 910a 39bf
000000e0: c0d6 0b3d 6715 253e 489a 823e 4f2a 69bd
000000f0: f158 3a3f 6d91 683d 8e1d 813e 8b5f cabe
00000100: c685 d33e ba55 b3bd f3a1 63be 34bc d2bd
00000110: 2363 193e 89b6 cc3d e3b9 b1be c77e 193e
00000120: 1b86 783e 47d4 8fbe bcd1 72be e8ef 26be
00000130: 2bde f9be 14c9 533d ecfe 2bbe 9c46 5c3e
00000140: 3755 103e 0fb9 4fbe 22f1 be3a ed5a cf3d
00000150: f925 e8bd 1d12 c03e 71bc d7bd 1085 43be
00000160: 03b1 073f f0dc 063e f274 65bd 9740 1bbe
00000170: 0685 09be 8757 2c3e f4c4 5a3e fb1c 703d
00000180: 6874 11be cf8e 1a3c 5797 09be c76c 8f3d
00000190: 47d3 34bd 07ab 043c fb93 4a3e 0da4 ff3d
000001a0: 1e8b 65bd bd0b d0bd 2779 103e 5423 9bbe
000001b0: 6e92 2cbe 7aa2 af3d 91c1 89bd ddf9 1fbd
000001c0: 1d88 9e3d f1ce a0be e569 26bc 0fec 153f
000001d0: a3db dd3d ef0a 243d 9468 2c3f 34c8 8bbe
000001e0: 76ea 933d 32b1 443d 8e58 d6bd 2344 a9bd
000001f0: b735 ffbd e9fe 6bbe 603e 08bd 3ce3 9a3e
00000200: 498e e33d a0fc 93be fece 7dbe ef80 f6bd
00000210: 529f 733e 1936 03be f503 ba3d 44ca 033e
00000220: 5e37 253c 2cba 723e cad1 413f d3b2 ecbe
00000230: 696d 8dbd 2fe0 f63e 10ad 5cbe 63c9 56be
00000240: 981b a8bd ec88 4f3e 7f61 0c3d c6f2 463d
00000250: 34a9 e1bd 0aec fc3d f4ba 20be 66c3 593d
00000260: d0d0 8e3e d544 02bd a19e 0dbd 5252 373d
00000270: 863c 64bd 631e 163d 5908 8c3e 9915 073e
00000280: 97a2 af3d 1e27 923e 759d ce3c 4c78 bcbd
00000290: 7ec8 943e d0e2 87bd 07bd debd 4298 abbd
000002a0: a140 393e 1132 443c a1d3 313d 19fe 6ebe
000002b0: e38d f4bd b806 be3c 4df5 133e 2704 75be
000002c0: 358e 3ebb e98a d93d ca52 b2bd d5e8 533e
000002d0: 685a 7f3e d16f f33d 0182 083e d147 703d
000002e0: 0cff f4bc 292b d4bd 3a8c bb3d 7a6d 15bc
000002f0: ff1a 96bd 57d1 133d b34c 1b3e 658b bdbc
00000300: a2a0 3a3e 7307 24bd 7ee8 323d cfa8 b13d
00000310: cda3 ed3d 5844 483e e919 90bd f099 ea3d
00000320: a7de acba 018b 6ebd 4369 0fbe 1e1e 0bbd
00000330: df84 993c f989 9abd a3d5 f9bd 860d 263c
00000340: c14b b1bd 248f 823c 71bc 2dbe 68db b23d
00000350: 4284 ef3e c155 29bd 4994 d0bd e028 5b3e
00000360: 8b1e 37bc adeb 7dbe 4dd8 ff3c 6578 dd3d
00000370: ce0b 503f 2870 c23c 70af 93bc 5730 bcbe
00000380: f14a 7bbc c462 73bd 8424 3ebe 6888 193e
00000390: 0389 eebd 3e13 293e 35cd 283d 2365 06bf
000003a0: 71d3 273d c0cf a03d 0fc6 08bb 1e42 9abe
000003b0: 3593 81be 43e2 5b3e 6630 fd3d a4db 313e
000003c0: 2ade ebbd a254 a7bd 6fd4 67be 2e62 a2bc
000003d0: 3e53 003e 1915 b73d cdc8 7e3d 407d 843e
000003e0: df1d a83d 0338 b1be 02b4 dabe 0d26 3d3e
000003f0: 6423 78bc b593 eabd f2cc 2fbe ca76 d3bd

body.0.body.0.widen.bias f4 [64]
0.06732983 0.024310824 -0.63962424 -0.7396198 0.2280593 0.03992309 0.6573789 -0.04620495
0.097350754 -0.0047848416 -0.44252807 0.03308208 -0.89591026 0.18255857 -0.47962397 0.6112409
0.97198755 -2.05567 2.0532231 0.3848136 -0.08327196 1.0131316 -0.398075 -0.15990232
0.46874103 -0.74416983 0.118079156 -0.30299088 1.0903343 1.2139337 0.95296544 -1.0063003
0.14102042 2.1679027 -0.7569684 -0.57511985 -0.10160854 0.07381855 -1.047638 -1.3794428
1.9703752 -0.31988755 0.7526737 -4.5485306 -0.07709748 -0.18338399 -0.9361319 0.32291752
3.8440087 -1.2806869 1.0133293 6.147272 0.15664728 -2.6661556 -0.90736073 1.2658677
-0.33480823 0.4309606 0.35673916 -1.2208608 0.61669874 0.5811502 -1.7195362 1.4685203
00000000: 39e4 893d 7e27 c73c 6abe 23bf b957 3dbf
00000010: 6188 693e 6586 233d fc49 283f 6741 3dbd
00000020: d55f c73d 29ca 9cbb 0a93 e2be 1381 073d
00000030: 605a 65bf a2f0 3a3e 4691 f5be 497a 1c3f
00000040: 2dd4 783f 1990 03c0 0268 0340 4a06 c53e
00000050: 7d8a aabd 4cae 813f 7dd0 cbbe 6fbd 23be
00000060: d3fe ef3e ea81 3ebf 7cd3 f13d 9f21 9bbe
00000070: 1390 8b3f 2e62 9b3f 8bf5 733f 73ce 80bf
00000080: a867 103e ebbe 0a40 aec8 41bf 0e3b 13bf
00000090: 2318 d0bd 2e2e 973d 0119 86bf 9591 b0bf
000000a0: 4135 fc3f 4dc8 a3be 39af 403f 908d 91c0
000000b0: 49e5 9dbd 03c9 3bbe 57a6 6fbf 7255 a53e
000000c0: 3d04 7640 8ced a3bf c6b4 813f 74b6 c440
000000d0: 2568 203e 4ba2 2ac0 cb48 68bf f407 a23f
000000e0: fc6b abbe dea6 dc3e 84a6 b63e 2b45 9cbf
000000f0: f8df 1d3f 42c6 143f c319 dcbf 79f8 bb3f

body.0.body.0.b1.weight f4 [16, 1, 3, 3]
-0.011930627 0.005775138 0.0009115001 0.037548527 0.19592305 0.047396407 -0.011680652 -0.0027494594
-0.0013504878 0.021285398 0.011223871 -0.029741915 -0.062499255 -0.14696045 -0.09759642 0.008511115
-0.00034532667 -0.04400265 -0.029902065 0.13514599 -0.01460665 0.09985769 0.23608787 0.12198214
0.0070230365 0.13947444 0.010360486 0.0022279131 -0.0040667546 0.004672687 -0.01821264 -0.26710403
0.0052259634 0.015574172 -0.02817009 -0.0035874313 0.0067947893 -0.014404123 -0.006299135 0.08241178
-0.27942082 0.025813175 0.0013080643 -0.058247924 -0.0021331569 0.0032033226 -0.025079953 -0.002176993
0.0031613908 0.3651171 0.018186433 -0.008972951 0.009270747 -0.0091882115 -0.059056032 0.11442453
0.014646363 -0.026281549 -0.032363363 0.10905961 -0.098044395 -0.011685483 -0.038522165 -0.0032206154
0.23457062 0.014513122 -0.022433225 -0.012729317 -0.062199444 -0.009366595 0.016825356 -0.030532187
0.026179574 -0.048036415 -0.023087423 -0.073280096 -0.14644192 -0.14500001 -0.008193841 -0.089433625
-0.010646671 -0.0006836443 0.021071663 -0.001153188 -0.029952556 -0.27193382 -0.079547316 -0.008879107
0.012928455 0.00870233 0.03744856 0.14416954 0.018868532 0.109963536 0.06381866 0.08596831
-0.0142602995 0.12798835 -0.017978223 0.005491994 -0.0027450824 0.0103505915 -0.05146832 -0.1371875
-0.026819685 0.0124025075 -0.022987708 0.030632637 0.0064075813 -0.07235295 0.07257311 -0.0130875595
0.22728328 -0.099236 -0.011651038 -0.015825532 0.010194871 0.0056626108 -0.0022344145 0.010228629
0.24692008 0.13337302 -0.024482926 0.025879798 0.007539222 0.008596691 -0.014455464 0.15033008
-0.066734605 0.08865187 0.16217698 -0.02894273 -0.054095466 -0.004752836 -0.009446843 -0.003537102
-0.011384246 -0.015319977 -0.018485807 -0.42354673 -0.11359208 -0.0012949768 -0.060272217 -0.041708086
00000000: ad78 43bc 5e3d bd3b bcf1 6e3a 7ccc 193d
00000010: 0da0 483e bc22 423d 3560 3fbc 4630 34bb
00000020: da02 b1ba b75e ae3c 54e4 373c 51a5 f3bc
00000030: 38ff 7fbd cd7c 16be a2e0 c7bd 3472 0b3c
00000040: f60c b5b9 1f3c 34bd 2df5 f4bc b663 0a3e
00000050: bb50 6fbc 3082 cc3d 05c1 713e c6d1 f93d
00000060: 8021 e63b 63d2 0e3e 07bf 293c 2e02 123b
00000070: 6942 85bb 571d 993b ad32 95bc dcc1 88be
00000080: 8f3e ab3b d02a 7f3c f6c4 e6bc 1c1b 6bbb
00000090: d3a6 de3b 45ff 6bbc f968 cebb 82c7 a83d
000000a0: 3f10 8fbe 2776 d33c 5b73 ab3a 6095 6ebd
000000b0: 6fcc 0bbb d6ee 513b 7974 cdbc e2ab 0ebb
000000c0: 562f 4f3b a1f0 ba3e b7fb 943c 4903 13bc
000000d0: 55e4 173c 278a 16bc bde4 71bd 6857 ea3d
000000e0: 4df7 6f3c 674c d7bc 728f 04bd a55a df3d
000000f0: 80cb c8bd 7874 3fbc 6bc9 1dbd f610 53bb
00000100: 4833 703e 72c8 6d3c e2c5 b7bc a08e 50bc
00000110: d8c4 7ebd 5976 19bc 54d5 893c a31e fabc
00000120: 8c76 d63c d5c1 44bd d621 bdbc e013 96bd
00000130: dff4 15be e27a 14be 763f 06bc fa28 b7bd
00000140: 606f 2ebc 9836 33ba 7b9e ac3c 9126 97ba
00000150: 105f f5bc e93a 8bbe b4e9 a2bd ad79 11bc
00000160: dfd1 533c 3894 0e3c a963 193d 2ea1 133e
00000170: 2e92 9a3c 9034 e13d 5cb3 823d 2710 b03d
00000180: 08a4 69bc 610f 033e 1147 93bc 2ff6 b33b
00000190: d7e6 33bb 8795 293c 72d0 52bd e17a 0cbe
000001a0: f5b4 dbbc e333 4b3c b850 bcbc 4cf1 fa3c
000001b0: b0f6 d13b c92d 94bd 36a1 943d 346d 56bc
000001c0: f3bc 683e 3e3c cbbd ffe3 3ebc 8ca4 81bc
000001d0: 6308 273c 6c8d b93b 416f 12bb fb95 273c
000001e0: 9ed8 7c3e f092 083e 6b90 c8bc df01 d43c
000001f0: 940b f73b 23d9 0c3c 9cd6 6cbc 21f0 193e
00000200: 27ac 88bd 1d8f b53d b911 263e 4e19 edbc
00000210: 3593 5dbd aebd 9bbb eec6 1abc b9ce 67bb
00000220: fd84 3abc a400 7bbc 8c6f 97bc 1edb d8be
00000230: f7a2 e8bd 36bc a9ba 00e0 76bd 19d6 2abd

body.0.body.0.b1.bias f4 [16]
-0.035800118 0.41466513 -0.5757151 0.30010313 0.13441998 0.0009102085 -0.019978512 0.032239627
-0.34991372 -0.28472614 -0.13320091 -0.43766305 -0.25247893 0.06823196 -0.25348464 -0.4716642
00000000: 25a3 12bd fd4e d43e 1162 13bf 1ea7 993e
00000010: 64a5 093e 0f9b 6e3a faa9 a3bc b30d 043d
00000020: e427 b3be a0c7 91be d265 08be 5f15 e0be
00000030: eb44 81be 33bd 8b3d bdc8 81be f87d f1be

body.0.body.0.b2.0.weight f4 [16, 1, 3, 3]
-0.00041708947 0.0038679284 -0.015100401 0.01223082 -0.2140235 -0.006481487 -0.02810187 0.0017474523
-0.017701728 0.01789965 0.0032118752 0.004538613 0.018199323 0.21458738 -0.011718548 0.019458346
0.0023987156 0.031322833 -0.03812805 -0.028148163 -0.04653365 -0.012653797 -0.11412888 -0.039343346
-0.068391666 -0.026920648 -0.057897728 -0.022673992 0.0032709243 0.025507154 0.0043935217 -0.19411486
-0.010715919 -0.009465006 -0.0045333654 -0.001749744 -0.002266723 -0.012884499 -0.0063867066 -0.0030804332
0.2114974 0.026582845 -0.05124104 -0.0972402 -0.039709557 -0.0074541406 -0.0067789964 0.014053084
-0.10505664 0.24225244 -0.017379077 -0.041958526 -0.02900338 0.011357812 -0.01774991 -0.003957838
-0.013040125 -0.010259136 -0.20868257 0.0040522786 -0.015049601 -0.012073656 -0.018162686 -0.004191969
0.0029394773 0.0037179033 -0.024887793 0.052726652 0.010481455 -0.19254318 0.2350973 -0.02770008
0.010887083 0.00070094934 -0.007435 0.009292658 -0.29957148 0.028802596 0.00241443 0.0012008499
-0.00077229674 -0.003244715 0.007435786 -0.008606149 -0.0034942003 0.060547993 -0.037839577 0.005007851
-0.27760032 -0.0034646047 -0.010355322 -0.11343059 -0.004737612 -0.012458061 0.11466001 -0.0051496658
0.017700363 -0.022780163 0.019115198 0.004036811 -0.01880049 0.015079331 0.013681832 0.3558351
0.045092456 0.0095947925 0.04570583 -0.000104368264 -0.010232661 0.0019034621 -0.00567757 0.014527602
-0.14961062 0.002279186 -0.0021830657 -0.0046979976 -0.013916822 0.011627763 -0.014570802 0.012233457
-0.004584509 -0.323876 0.015590996 0.0042644525 -0.003872125 0.0040854416 -0.019269578 0.012882902
0.013638659 0.030343011 -0.28239384 0.025282238 -0.0071013733 0.0049186577 -0.014175693 -0.0035491923
0.03669021 -0.07154188 0.07185504 -0.049642872 0.06670747 -0.056642458 0.080508284 -0.09772913
00000000: cdac dab9 127d 7d3b ac67 77bc c763 483c
00000010: fa28 5bbe a762 d4bb e535 e6bc c50a e53a
00000020: 3703 91bc 49a2 923c 537e 523b a5b8 943b
00000030: bf16 953c cbbc 5b3e 27ff 3fbc 1c67 9f3c
00000040: c533 1d3b 5f4c 003d 282c 1cbd fa96 e6bc
00000050: 129a 3ebd df51 4fbc 67bc e9bd 7d26 21bd
00000060: ee10 8cbd b188 dcbc 2b26 6dbd cfbe b9bc
00000070: 015d 563b 61f4 d03c 88f7 8f3b 0cc6 46be
00000080: d291 2fbc 1d13 1bbc a08c 94bb ab57 e5ba
00000090: 4d8d 14bb 8119 53bc 9447 d1bb 18e1 49bb
000000a0: c692 583e 44c4 d93c 20e2 51bd df25 c7bd
000000b0: 7da6 22bd dd41 f4bb 5822 debb e83e 663c
000000c0: f027 d7bd 0611 783e 915e 8ebc b4dc 2bbd
000000d0: 7f98 edbc 1e16 3a3c 4268 91bc c0b0 81bb
000000e0: 40a6 55bc ef15 28bc e2b0 55be fac8 843b
000000f0: 9a92 76bc 95d0 45bc eac9 94bc c95c 89bb
00000100: 3fa4 403b 11a8 733b 7ce1 cbbc e7f7 573d
00000110: 69ba 2b3c 0a2a 45be 59bd 703e 47eb e2bc
00000120: bc5f 323c eabf 373a 4da1 f3bb 3c40 183c
00000130: 6f61 99be 6cf3 eb3c 6a3b 1e3b d665 9d3a
00000140: f573 4aba 49a5 54bb e5a7 f33b ce00 0dbc
00000150: f4fe 64bb 2c01 783d acfd 1abd e618 a43b
00000160: a121 8ebe 6c0e 63bb 5ea9 29bc 4c4e e8bd
00000170: f83d 9bbb e51c 4cbc ded2 ea3d 87be a8bb
00000180: 5a00 913c 779d babc 7a97 9c3c 3a47 843b
00000190: 7c03 9abc 4c0f 773c c329 603c 0530 b63e
000001a0: deb2 383d 7a33 1d3c 0936 3b3d 49e0 dab8
000001b0: e4a6 27bc 977d f93a e90a babb 2e05 6e3c
000001c0: 8733 19be 655e 153b c411 0fbb a9f1 99bb
000001d0: 6203 64bc 5f82 3e3c 60ba 6ebc d66e 483c
000001e0: a639 96bb 13d3 a5be 6071 7f3c d2bc 8b3b
000001f0: 7ac3 7dbb 2bdf 853b 3cdb 9dbc cf12 533c
00000200: af74 5f3c e891 f83c ed95 90be b21c cf3c
00000210: a3b2 e8bb b12c a13b 2a41 68bc 9199 68bb
00000220: 7948 163d 8d84 92bd bc28 933d 5356 4bbd
00000230: ed9d 883d ec01 68bd 87e1 a43d 3626 c8bd

body.0.body.0.b2.0.bias f4 [16]
-0.34960508 -0.13054723 -0.44794357 0.7358332 -0.70811415 0.7987073 1.155875 0.5490911
-1.1264176 1.4403632 0.9061648 0.38158387 0.55593544 -0.7846483 -0.607953 -0.022821782
00000000: 70ff b2be 2cae 05be dc58 e5be 915f 3c3f
00000010: f846 35bf 1578 4c3f b6f3 933f 3c91 0c3f
00000020: 742e 90bf d25d b83f 6bfa 673f f65e c33e
00000030: c951 0e3f b6de 48bf cfa2 1bbf bff4 babc

body.0.body.0.b3.0.weight f4 [16, 1, 3, 3]
0.14875695 -0.117001384 0.08188348 -0.0018962624 -0.019608 0.019289661 -0.06189699 0.08476659
-0.15170197 0.010157342 -0.024876775 -0.002699286 0.009127573 -0.27463743 -0.0056777894 0.0017576484
-0.0036664829 0.014550913 0.03096406 0.044578467 0.10266806 -0.010164396 -0.023572704 0.028365718
0.034110557 -0.042729784 0.069847584 0.02114004 -0.004656567 0.0009666732 0.21180232 -0.20457037
0.009170197 0.0021928325 8.579661e-05 -0.009011865 -0.0155964475 0.08406668 -0.01681207 -0.027201438
-0.19371516 -0.053780776 -0.01281253 0.05364205 0.021246577 0.026911877 -0.009008972 0.013282178
0.027006257 -0.041908387 0.02144046 0.034891885 0.06329471 0.038616065 -0.0015278372 0.020210898
-0.011051167 0.04773288 0.12660408 0.045729797 -0.0043730326 0.018416313 0.0009213001 -0.026991997
-0.061907616 -0.028652223 -0.027017528 0.17780016 -0.026971877 0.039423384 -0.08092514 0.030919569
-0.0076553132 0.0031105685 -0.0017048504 0.0031085752 -0.2150036 -0.021478651 -0.005011668 -0.030042265
-0.015775675 -0.08396925 0.032787893 -0.051723428 0.0039164494 -0.11078389 -0.011163879 -0.024401482
-0.019405385 -0.0019346189 -0.009251078 -0.022705136 -0.009014737 -0.03190966 -0.14954935 -0.007054317
-0.013605833 -0.0009862091 -0.007457777 -0.016612837 0.0111606065 -0.019369826 0.0013248229 0.3090544
0.030113166 0.033994813 0.0015023475 0.0038083761 -0.004482651 -0.017512595 0.0057315244 -0.009670877
0.3201367 -0.018898012 0.011428049 -0.02690119 0.0102561815 -0.0049103196 -0.080375955 0.01337657
0.12598406 -0.012451594 -0.099223256 -0.019092213 0.1056605 -0.009208856 -0.030405732 -0.042413034
-0.010304578 -0.17285226 0.09455874 0.012196259 -0.014810354 -0.022010464 0.000913822 -0.027154468
-0.00049327814 -0.026300192 0.0030675007 -0.3336516 -0.015994502 -0.014842717 -0.025303077 -0.02069339
00000000: be53 183e 6c9e efbd 87b2 a73d 028c f8ba
00000010: f5a0 a0bc 5a05 9e3c b387 7dbd 1b9a ad3d
00000020: c357 1bbe fb6a 263c 61ca cbbc 81e6 30bb
00000030: d18b 153c 479d 8cbe c00c babb e560 e63a
00000040: 6049 70bb f466 6e3c 57a8 fd3c e997 363d
00000050: a243 d23d 9188 26bc 8b1b c1bc 395f e83c
00000060: 83b7 0b3d 6d05 2fbd 400c 8f3d e12d ad3c
00000070: 1d96 98bb 5768 7d3a b5e2 583e e57a 51be
00000080: 983e 163c a0b5 0f3b b4ed b338 80a6 13bc
00000090: 3e88 7fbc 272b ac3d 77b9 89bc 8dd5 debc
000000a0: 445d 46be 3b49 5cbd a5eb 51bc c4b7 5b3d
000000b0: 4d0d ae3c 4c76 dc3c 5e9a 13bc 7e9d 593c
000000c0: 3a3c dd3c 21a8 2bbd e7a3 af3c cbea 0e3d
000000d0: a8a0 813d e12b 1e3d b641 c8ba 5391 a53c
000000e0: f40f 35bc 8d83 433d 80a4 013e 2b4f 3b3d
000000f0: a84b 8fbb cfdd 963c 6783 713a 521e ddbc
00000100: d792 7dbd 11b8 eabc dd53 ddbc 3f11 363e
00000110: 20f4 dcbc 6a7a 213d 14bc a5bd 094b fd3c
00000120: 6cd9 fabb aeda 4b3b 4975 dfba 3db9 4b3b
00000130: e729 5cbe fff3 afbc eb38 a4bb 321b f6bc
00000140: fd3b 81bc 12f8 abbd 994c 063d f2db 53bd
00000150: 8f55 803b aae2 e2bd b4e8 36bc 9ee5 c7bc
00000160: 0bf8 9ebc 0a93 fdba d591 17bc 1f00 babc
00000170: 8cb2 13bc b4b3 02bd 7723 19be e627 e7bb
00000180: 00eb 5ebc b043 81ba 5e60 f4bb a517 88bc
00000190: fada 363c 78ad 9ebc aea5 ad3a 613c 9e3e
000001a0: e3af f63c 253e 0b3d 6bea c43a f395 793b
000001b0: 34e3 92bb 9376 8fbc 83cf bb3b 9972 1ebc
000001c0: f5e8 a33e 01d0 9abc b63c 3b3c e25f dcbc
000001d0: 8b09 283c bfe6 a0bb 269c a4bd 6729 5b3c
000001e0: f701 013e c501 4cbc 9035 cbbd 4667 9cbc
000001f0: 8864 d83d bee0 16bc 7115 f9bc 4ab9 2dbd
00000200: 88d4 28bc 2f00 31be 03a8 c13d d1d2 473c
00000210: 21a7 72bc 4a4f b4bc 8e8d 6f3a 0c73 debc
00000220: 564f 01ba 8073 d7bc 1f08 493b 62d4 aabe
00000230: e706 83bc de2e 73bc 6648 cfbc 2f85 a9bc

body.0.body.0.b3.0.bias f4 [16]
-0.09327658 -1.2981005 0.6039909 0.67157054 -0.6225808 0.68614924 0.80246973 1.1142944
-0.81453794 0.24077323 0.17314868 -3.377623 -1.6535449 -1.6901084 1.2468864 0.3999507
00000000: cb07 bfbd 2828 a6bf 269f 1a3f 0cec 2b3f
00000010: 7561 1fbf 7aa7 2f3f a86e 4d3f 33a1 8e3f
00000020: 8f85 50bf 428d 763e e34d 313e fa2a 58c0
00000030: 5ca7 d3bf 7955 d8bf f999 9f3f 57c6 cc3e

body.0.body.0.b4.0.weight f4 [16, 1, 3, 3]
-0.0036467367 -0.017001431 0.0015410631 -0.037402626 0.01068699 -0.00964228 -0.02513618 -0.24392839
-0.010061324 0.08275609 -0.42067006 0.14367619 0.014808678 0.015501074 -0.070118114 -0.09152412
0.4007074 -0.06287515 -0.00045782136 0.008630862 -0.01506872 0.00361693 -0.0016232708 -0.00060495245
-0.005454118 -0.01252794 -0.23169753 0.012361069 -0.0046010357 -0.040010422 0.060111847 0.18261586
-0.23649368 -0.027386092 0.110403195 -0.051215407 0.019247606 -0.01653228 -0.01355219 0.054988597
-0.091693096 -0.0052656718 0.07017681 0.05274685 0.042819172 0.04365477 0.09510547 0.02600293
0.11602578 -0.058410123 0.008180568 0.010732051 0.06425808 0.001383355 0.007963025 0.045580532
0.021256357 -0.1608202 0.0250724 -0.028101504 -0.045491125 0.07061559 0.0025019743 0.09333002
-0.07588764 -0.009164309 -0.14944893 -0.16034208 0.048728473 0.062901095 -0.08083337 0.011278644
0.05763034 -0.14577521 -0.02869334 -0.0036477763 -0.025178874 0.018777696 0.012904839 -0.0109153595
0.0035208503 0.035270676 0.1281972 0.023840219 0.03706421 -0.24245784 0.028344551 -0.011604342
0.032431845 -0.022442264 -0.017808668 -0.042567637 0.0053510917 0.032726932 0.21850221 0.02214653
-0.0026555245 0.04378332 0.008984381 -0.042610183 -0.027270006 -0.005486957 -0.017060582 -0.13952279
5.2580857e-05 -0.009640617 -0.030705784 0.01087736 -0.00087605586 0.03394761 -0.017234985 0.06115014
-0.15724191 -0.0417432 -0.03035097 -0.17675427 0.08594475 -0.06388354 -0.083637565 -0.02252948
-0.09729659 0.07926704 -0.045786507 -0.012725373 -0.046083063 0.020727862 0.02038879 0.13809425
-0.056275953 -0.06235735 0.0990945 0.08582466 0.0072117746 -0.2123566 0.020447982 0.006807574
-0.023181016 0.007938437 -0.032816824 -0.20619981 -0.02019047 0.010581892 -0.015914708 0.005680653
00000000: 17fe 6ebb 9646 8bbc 7ffd c93a 7f33 19bd
00000010: 7c18 2f3c a7fa 1dbc 64ea cdbc 5dc8 79be
00000020: 40d8 24bc 067c a93d 1162 d7be da1f 133e
00000030: 19a0 723c 37f8 7d3c 169a 8fbd ff70 bbbd
00000040: 8529 cd3e b0c4 80bd be07 f0b9 7668 0d3c
00000050: cbe2 76bc 040a 6d3b eec3 d4ba ac95 1eba
00000060: 75b8 b2bb fd41 4dbc 1e42 6dbe 1586 4a3c
00000070: 49c4 96bb f8e1 23bd d737 763d a7ff 3a3e
00000080: 662b 72be cc58 e0bc 121b e23d 3fc7 51bd
00000090: 28ad 9d3c b46e 87bc 010a 5ebc b93b 613d
000000a0: 97c9 bbbd a88b acbb dcb8 8f3d 150d 583d
000000b0: 2863 2f3d 58cf 323d a8c6 c23d 1904 d53c
000000c0: ed9e ed3d 743f 6fbd ca07 063c 7cd5 2f3c
000000d0: be99 833d b151 b53a 5977 023c a7b2 3a3d
000000e0: d021 ae3c 0dae 24be a264 cd3c 2035 e6bc
000000f0: e754 3abd e89e 903d 2af8 233b cf23 bf3d
00000100: fb6a 9bbd e625 16bc 2409 19be b730 24be
00000110: 8297 473d 4ad2 803d f78b a5bd 10ca 383c
00000120: cb0d 6c3d 1946 15be 4c0e ebbc 880f 6fbb
00000130: ed43 cebc afd3 993c d16e 533c 56d6 32bc
00000140: 11be 663b fc77 103d 2046 033e 904c c33c
00000150: a4d0 173d de46 78be d532 e83c 2320 3ebc
00000160: 41d7 043d d7d8 b7bc 7ce3 91bc 675b 2ebd
00000170: 3658 af3b ad0c 063d 0bbf 5f3e a46c b53c
00000180: 4f08 2ebb 2356 333d 3a33 133c 0488 2ebd
00000190: 5965 dfbc eecb b3bb a2c2 8bbc 10df 0ebe
000001a0: 448a 5c38 aef3 1dbc b28a fbbc f436 323c
000001b0: 1da7 65ba a60c 0b3d 6230 8dbc 9278 7a3d
000001c0: 0604 21be ebfa 2abd 99a2 f8bc 12ff 34be
000001d0: cd03 b03d 60d5 82bd 2c4a abbd be8f b8bc
000001e0: 6f43 c7bd c256 a23d a28a 3bbd 157e 50bc
000001f0: 98c1 3cbd 7acd a93c 6406 a73c 9468 0d3e
00000200: 9d81 66bd 6c6a 7fbd 0ff2 ca3d d7c4 af3d
00000210: c050 ec3b 0274 59be 8782 a73c 1212 df3b
00000220: 1de6 bdbc 3810 023c ef6a 06bd 0b26 53be
00000230: 7c66 a5bc ac5f 2d3c 905f 82bc c524 ba3b

body.0.body.0.b4.0.bias f4 [16]
-3.1298065 0.62641984 -0.8058243 -1.8823711 1.2267579 -0.7606665 0.17166409 -1.1207085
0.86155134 -0.055383265 0.9551961 1.2740014 -1.2816179 0.29318026 -0.90941906 -0.78359157
00000000: c04e 48c0 0d5d 203f 804a 4ebf 89f1 f0bf
00000010: 6706 9d3f 0abb 42bf b6c8 2f3e 6073 8fbf
00000020: a18e 5c3f 90d9 62bd bb87 743f 7a12 a33f
00000030: 0e0c a4bf b91b 963e b0cf 68bf 7599 48bf

body.0.body.0.sa.conv_y.weight f4 [16, 16, 1, 1]
0.068117626 -0.032501936 -0.011090602 0.036093354 -0.039557733 -0.38640895 -0.009148964 0.081451975
-0.0032737032 0.025705444 -0.0181364 0.028853813 0.01641305 0.0024164745 -0.022483516 0.14009461
0.06352041 -0.013896038 -0.012377695 0.034101423 -0.10007396 -0.17560956 -0.06348046 -0.099209145
0.032033436 0.03675412 -0.0029344566 0.0055379127 -0.18407193 0.02288698 0.111599326 0.11425168
-0.061275724 0.010281232 0.061527118 -0.04800069 0.09739278 0.08874164 0.021125453 -0.25103894
0.0022608428 -0.3834861 0.0046588043 -0.050576173 0.11581573 -0.011621408 0.052118152 0.0048350296
0.019670894 -0.023838423 -0.064706124 -0.036542688 0.101023905 0.052907456 0.007427008 0.046171512
-0.02417303 -0.06584649 -0.00037631515 -0.0072835814 -0.06872462 0.014648936 -0.053313687 -0.071419284
0.05976645 0.09994197 0.16016053 0.09059317 0.16446541 -0.007370023 0.07110629 -0.0055006
-0.010455167 -0.0075589544 -0.023325117 0.43491343 0.107765324 0.0043389844 -0.021393817 0.021453451
0.035095483 -0.10024355 0.25403672 -0.1421704 0.017500466 0.049204282 -0.50315857 -0.6290642
-0.013429949 -0.059598163 0.0044811675 0.17945409 0.24697953 0.07982069 -0.004218034 -0.015663676
-0.15119548 -0.024502002 -0.21014188 -0.30150467 0.08520173 -0.11803995 -0.41359037 0.10124039
0.14704368 0.058804296 -0.032037277 0.037224308 0.1583224 0.0938191 -0.009958956 -0.28704247
-0.07694896 0.103655785 0.10687223 -0.05139184 0.041345473 0.084293194 -0.20338763 0.13261116
-0.13957368 -0.35779795 -0.34651622 0.008317552 0.1781111 0.20125447 -0.1958083 -0.07922794
0.03523202 0.014462706 0.09216078 0.116534494 -0.026538916 -0.12033109 -0.12314264 -0.06933736
0.09389675 0.08614115 0.14810626 -0.7225647 0.11396109 0.08029716 -0.13604322 0.085492946
-0.08136897 0.006656163 -0.018343596 -0.37057766 -0.030224513 0.026657399 -0.34515962 -0.005093062
0.005139937 -0.49021703 -0.11296618 -0.60107183 0.014496042 0.012031414 -0.1732488 0.009200983
-0.024632143 -0.32557973 -0.20080759 0.0348628 -0.068666704 -0.75362694 -0.009786134 0.030308295
0.03657316 0.29880145 0.028218552 0.43070325 0.021649288 -0.004780214 -0.06351942 0.03144914
0.028021697 0.31762406 -0.17439094 0.044666618 0.02296826 -0.09762258 -0.2746846 -0.047088422
0.060957413 -0.6562157 0.06639823 0.006003667 0.020563683 0.016843183 0.053652707 0.2294717
0.034588143 0.69366866 -0.090125576 0.23061204 0.06047764 -0.1081091 -0.4752342 -0.2714898
-0.39427957 0.63184464 -0.012992619 -0.21216486 0.07899081 -0.027006194 0.3051994 -0.048234385
0.015141936 -0.06282943 -0.12943225 0.06561363 -0.49120444 0.050920393 -0.053102266 -0.32662588
-0.25168088 -0.17825714 -0.030049345 -0.0034808284 -0.10040067 0.061123025 -0.03120595 -0.0071275355
-0.40656078 0.002208181 -0.039493416 -0.03305937 0.018793447 -0.15803008 -0.13563426 -0.09959179
0.13317789 -0.0019541595 -1.0518587 -0.16219407 -0.11022615 0.07547621 0.021022184 -0.19447699
-0.17120014 -0.003280821 -0.04914544 0.103818804 -0.054547474 0.0003535316 -0.26883876 0.06319439
0.5751795 -0.208282 0.85366625 -0.05504544 -0.15034582 0.25940898 -0.11044585 -0.09670799
00000000: 4181 8b3d c020 05bd 5bb5 35bc a0d6 133d
00000010: 4a07 22bd 65d7 c5be 89e5 15bc 4bd0 a63d
00000020: a08b 56bb 3994 d23c ca92 94bc d55e ec3c
00000030: a974 863c b75d 1e3b 5a2f b8bc f674 0f3e
00000040: fd16 823d 35ac 63bc d1cb 4abc efad 0b3d
00000050: 94f3 ccbd fed2 33be 0b02 82bd 2a2e cbbd
00000060: 7e35 033d 7d8b 163d 0350 40bb 6177 b53b
00000070: 5a7d 3cbe 7a7d bb3c 308e e43d c9fc e93d
00000080: 41fc 7abd 9d72 283c dc03 7c3d 5f9c 44bd
00000090: de75 c73d 2dbe b53d 490f ad3c 2d88 80be
000000a0: a62a 143b 4a58 c4be e2a8 983b f628 4fbd
000000b0: cc30 ed3d b867 3ebc d879 553d 2b6f 9e3b
000000c0: db24 a13c cc48 c3bc a584 84bd c9ad 15bd
000000d0: 9fe5 ce3d 7db5 583d 425e f33b 571e 3d3d
000000e0: 8506 c6bc 86da 86bd 2a4c c5b9 1cab eebb
000000f0: 7ebf 8cbd 1702 703c 745f 5abd 4644 92bd
00000100: aacd 743d 60ae cc3d 1f01 243e e988 b93d
00000110: 9f69 283e 3c80 f1bb 2da0 913d 613e b4bb
00000120: 264c 2bbc 1bb1 f7bb 5114 bfbc f9ac de3e
00000130: 11b4 dc3d 0a2e 8e3b 1642 afbc 26bf af3c
00000140: 48c0 0f3d 7e4c cdbd 1a11 823e 1e95 11be
00000150: 235d 8f3c 6e8a 493d 00cf 00bf 5a0a 21bf
00000160: 4a09 5cbc 341d 74bd c2d6 923b d0c2 373e
00000170: 34e8 7c3e 0879 a33d 6f37 8abb 1c51 80bc
00000180: fdd2 1abe 6cb8 c8bc 6f2f 57be d25e 9abe
00000190: 3f7e ae3d eebe f1bd 1ec2 d3be 1f57 cf3d
000001a0: 9e92 163e c6dc 703d 8539 03bd 8478 183d
000001b0: 441f 223e 3a24 c03d e42a 23bc 3bf7 92be
000001c0: 6b97 9dbd 7c49 d43d d4df da3d 4080 52bd
000001d0: df59 293d e9a1 ac3d d944 50be 38cb 073e
000001e0: 67ec 0ebe 4b31 b7be 936a b1be 5746 083c
000001f0: c262 363e a715 4e3e f981 48be 4242 a2bd
00000200: 734f 103d fcf4 6c3c cbbe bc3d a3a9 ee3d
00000210: 2468 d9bc 2670 f6bd 3532 fcbd bf00 8ebd
00000220: f04c c03d c56a b03d 2ba9 173e 00fa 38bf
00000230: 6f64 e93d d672 a43d ea4e 0bbe ed16 af3d
00000240: c6a4 a6bd f11b da3b 4f45 96bc 5bbc bdbe
00000250: 6699 f7bc 9e60 da3c c3b8 b0be b3e3 a6bb
00000260: eb6c a83b bafd fabe d05a e7bd d8df 19bf
00000270: cf80 6d3c 681f 453c 2268 31be b8bf 163c
00000280: 59c9 c9bc 63b2 a6be 81a0 4dbe 4ccc 0e3d
00000290: 21a1 8cbd b2ed 40bf 0556 20bc 1a49 f83c
000002a0: bdcd 153d 81fc 983e 982a e73c 2385 dc3e
000002b0: d959 b13c 57a3 9cbb 7816 82bd d0d0 003d
000002c0: c28d e53c 9f9f a23e 8a93 32be 58f4 363d
000002d0: ef27 bc3c 59ee c7bd 76a3 8cbe cadf 40bd
000002e0: 7bae 793d c1fd 27bf ccfb 873d 69ba c43b
000002f0: 2b75 a83c b7fa 893c f1c2 5b3d a1fa 6a3e
00000300: 4cac 0d3d 4594 313f c293 b8bd 9025 6c3e
00000310: 67b7 773d 4e68 ddbd e651 f3be b600 8bbe
00000320: 03df c9be 92c0 213f fede 54bc bf41 59be
00000330: efc5 a13d 183c ddbc 1943 9c3e 6b91 45bd
00000340: e215 783c b7ac 80bd e389 04be 7060 863d
00000350: 267f fbbe e791 503d c381 59bd 823b a7be
00000360: 51dc 80be 0a89 36be 0b2a f6bc 9c1e 64bb
00000370: de9e cdbd 235c 7a3d 9fa3 ffbc 1a8e e9bb
00000380: bc28 d0be 21b7 103b d9c3 21bd 4369 07bd
00000390: b7f4 993c a3d2 21be b5e3 0abe c8f6 cbbd
000003a0: c95f 083e 5b11 00bb 4ea3 86bf 3416 26be
000003b0: 3fbe e1bd 4593 9a3d b736 ac3c fa24 47be
000003c0: 174f 2fbe 0b03 57bb bb4c 49bd f49e d43d
000003d0: 2c6d 5fbd 355a b939 3ca5 89be 0f6c 813d
000003e0: f73e 133f e047 55be df89 5a3f 5477 61bd
000003f0: 41f4 19be 41d1 843e 6f31 e2bd d70e c6bd

body.0.body.0.sa.conv_z.weight f4 [16, 16, 1, 1]
-0.00040992716 -0.00028398744 0.020766415 -0.062558375 -0.041775383 0.80230147 -0.0046276613 -0.09037656
0.036664706 -0.1036073 0.016938608 -0.006112763 0.26885712 0.06667588 0.01906266 -0.12803896
-0.05197527 0.08828 0.13223502 0.06763276 -0.16695811 0.025831517 0.005276198 0.03023651
0.030390164 0.13708577 0.013225626 -0.010808199 0.1343042 -0.039982818 -0.088599116 0.120321855
0.05782294 -0.039910506 -0.023037579 0.08777737 -0.11773534 -0.2654068 -0.0441319 0.23616269
0.007511606 0.4962671 -0.026017655 0.03721046 -0.18129936 -0.025794942 -0.05383156 0.1342795
0.38990223 -0.14203033 -0.10833796 -0.09681538 -0.30349004 0.056266274 0.0038789634 -0.04797147
-0.05502218 -0.13049957 0.0019861883 -0.07578149 -0.391379 -0.7242665 -0.40739778 0.18631223
-0.097962074 0.09050105 -0.28374773 -0.6293706 0.03478334 -0.089498505 1.5179082 0.074846335
0.04379777 0.056477018 -0.0064965826 0.070893615 0.068590075 -0.019956592 0.002553836 -0.10466294
-0.037468247 0.006199285 -0.084743634 0.42852366 -0.018791117 -0.12126394 -0.35731453 0.054281686
0.03266221 0.038626287 -0.124335654 0.18018754 0.042254608 -0.014840782 0.059536293 -0.08622302
-0.17918609 -0.078932054 0.40911156 -0.5909671 -0.47767112 0.09848754 -0.26296678 -0.047882237
0.10376106 0.062037107 -0.024486776 -0.29764467 0.14121833 -0.006936811 -0.051596113 0.21752444
0.023956385 -0.13896418 -0.113837965 0.042797364 -0.16415404 -0.028654 0.17987074 0.034313206
-0.36745793 -0.32983834 -0.06663646 0.026607584 -0.21093601 -0.058101505 -0.007935381 0.10040414
-0.25126132 0.117623724 -0.37754813 -0.188001 -0.014693297 -0.13393609 -0.1637601 -0.037609328
-0.030515274 -0.102575615 0.35888782 -0.16454315 -0.028431041 -0.25184876 0.2861162 0.21362604
-0.20407271 -0.06762964 0.0070465533 -0.16334729 -0.0041886535 0.28177282 0.18887405 -0.2900778
-0.20254159 0.1480418 0.28659618 0.20939781 -0.037044957 -0.1361128 -0.3014574 -0.23467793
0.14579529 -0.039249524 0.15096067 -0.0334483 0.0063299234 0.07440977 -0.17326498 0.026857037
0.30257392 -0.21772048 0.7826234 0.8678541 0.0032845433 0.021224735 0.032588564 -0.072972484
-0.0046847356 -0.14018394 0.18642509 -0.5279231 -0.08943381 -0.05909813 -0.14835243 -0.034341037
0.20516557 0.34895644 0.048608597 -0.602396 -0.017425913 0.039947674 -0.061583754 0.097384825
-0.45526105 -0.52625805 -0.08877951 -0.14410022 -0.035170812 -0.105355844 -0.19880414 -0.14790756
-0.67088705 0.14344358 0.05249595 -0.23856273 0.24644266 0.34937617 -0.15549353 -0.052650504
0.2680404 -0.062063403 -0.1345658 0.046554055 0.30140615 0.827332 -0.21296988 0.057452843
-0.39609712 -0.27239323 -0.1390815 0.0032617634 -0.21485898 -0.33122867 0.06022875 0.30035022
-0.10721275 -0.033855516 -0.33927035 -0.029175686 0.0027029794 -0.23286553 -0.5936625 0.02446677
0.62352115 -0.46648926 0.35942107 -0.06297068 -0.30967534 -0.08952333 -0.22221212 -0.017166052
-0.79826003 -0.014914838 -0.032174118 -0.09375565 0.094204575 -0.3259521 -0.26127538 -0.12220258
-0.024830379 0.1046058 0.1300409 -0.09140311 -0.15875411 -0.14044324 -0.02487193 0.009543914
00000000: 7eeb d6b9 26e4 94b9 541e aa3c 9b1e 80bd
00000010: aa1c 2bbd a163 4d3f a3a3 97bb 5917 b9bd
00000020: bb2d 163d 1030 d4bd d6c2 8a3c 934d c8bb
00000030: a4a7 893e 5d8d 883d 4c29 9c3c a51c 03be
00000040: 05e4 54bd 25cc b43d 9e68 073e 0b83 8a3d
00000050: 11f7 2abe 9e9c d33c f5e3 ac3b 8fb2 f73c
00000060: cbf4 f83c 3660 0c3e 4cb0 583c df14 31bc
00000070: 0a87 093e 06c5 23bd 7473 b5bd 4e6b f63d
00000080: bfd7 6c3d 3379 23bd 4eb9 bcbc 9fc4 b33d
00000090: 3a1f f1bd 66e3 87be a7c3 34bd a2d4 713e
000000a0: eb23 f63b b916 fe3e fa22 d5bc ff69 183d
000000b0: 8aa6 39be ea4f d3bc 7b7e 5cbd 9180 093e
000000c0: 44a1 c73e 6670 11be 4be0 ddbd 2447 c6bd
000000d0: 0c63 9bbe 7777 663d 3536 7e3b bb7d 44bd
000000e0: f05e 61bd aea1 05be b62a 023b 5333 9bbd
000000f0: d462 c8be 8869 39bf 7196 d0be a2c8 3e3e
00000100: 57a0 c8bd 9d58 b93d 6247 91be 6f1e 21bf
00000110: fa78 0e3d fe4a b7bd d14a c23f 0949 993d
00000120: 4a65 333d 7254 673d 49e1 d4bb ac30 913d
00000130: f478 8c3d 027c a3bc 425e 273b 8659 d6bd
00000140: 4e78 19bd 5f23 cb3b 128e adbd 7467 db3e
00000150: d4ef 99bc 3b59 f8bd eef1 b6be 7956 5e3d
00000160: cfc8 053d 9936 1e3d b1a3 febd 1583 383e
00000170: 2b13 2d3d c026 73bc 54dc 733d b295 b0bd
00000180: 8f7c 37be 21a7 a1bd 1277 d13e 9f49 17bf
00000190: 4f91 f4be d6b3 c93d 95a3 86be 2a20 44bd
000001a0: ae80 d43d 9f1a 7e3d 7e98 c8bc e264 98be
000001b0: 8a9b 103e 304e e3bb 7256 53bd babe 5e3e
000001c0: 2e40 c43c a04c 0ebe e123 e9bd 4a4c 2f3d
000001d0: ff17 28be cbbb eabc 0930 383e 018c 0c3d
000001e0: 7223 bcbe 92e0 a8be b278 88bd 26f8 d93c
000001f0: 9cff 57be d8fb 6dbd 6603 02bc b0a0 cd3d
00000200: 53a5 80be b5e4 f03d fd4d c1be 5683 40be
00000210: 28bc 70bc 8b26 09be bab0 27be 3d0c 1abd
00000220: 2bfb f9bc 2a13 d2bd 25c0 b73e 007e 28be
00000230: 37e8 e8bc 52f2 80be d37d 923e c9c0 5a3e
00000240: 70f8 50be 6981 8abd c6e6 e63b 8344 27be
00000250: f940 89bb 8744 903e 3368 413e 1485 94be
00000260: 1067 4fbe 4598 173e bcbc 923e 616c 563e
00000270: 74bc 17bd 2761 0bbe a058 9abe 694f 70be
00000280: 5c4b 153e 1cc4 20bd 6f95 1a3e 1601 09bd
00000290: 3f6b cf3b 2664 983d 606c 31be 4a03 dc3c
000002a0: f8ea 9a3e 1ef2 5ebe 025a 483f b02b 5e3f
000002b0: 7e41 573b 7fdf ad3c 967b 053d 9972 95bd
000002c0: 6982 99bb 618c 0fbe 38e6 3e3e f825 07bf
000002d0: 1329 b7bd e110 72bd b3e9 17be 30a9 0cbd
000002e0: ec16 523e 6baa b23e cf19 473d a036 1abf
000002f0: cac0 8ebc 2ca0 233d 3f3f 7cbd b271 c73d
00000300: fa17 e9be d9b8 06bf 08d2 b5bd 028f 13be
00000310: 450f 10bd cec4 d7bd 5093 4bbe 1475 17be
00000320: 41bf 2bbf e0e2 123e fe05 573d ca49 74be
00000330: 775b 7c3e 6fe1 b23e b239 1fbe 0ea8 57bd
00000340: 973c 893e 3236 7ebd 9ecb 09be 77af 3e3d
00000350: e851 9a3e 08cc 533f c714 5abe ac53 6b3d
00000360: 3ecd cabe 2077 8bbe 616b 0ebe 4fc3 553b
00000370: fe03 5cbe ce96 a9be 6cb2 763d 81c7 993e
00000380: 5c92 dbbd 15ac 0abd d8b4 adbe d901 efbc
00000390: 7824 313b 4d74 6ebe 44fa 17bf 896e c83c
000003a0: 159f 1f3f aed7 eebe 0a06 b83e c6f6 80bd
000003b0: c48d 9ebe 0258 b7bd 938b 63be d29f 8cbc
000003c0: c55a 4cbf 5d5d 74bc 02c9 03bd f602 c0bd
000003d0: 54ee c03d 32e3 a6be e3c5 85be 5945 fabd
000003e0: 1469 cbbc 913b d63d 7129 053e 8e31 bbbd
000003f0: 7090 22be 5ad0 0fbe 38c0 cbbc 145e 1c3c

body.0.body.0.sa.conv.weight f4 [64, 4, 1, 1]
0.034222227 0.076686405 0.047985125 -0.32780698 0.026133161 -0.06264523 0.06129884 -0.0010266921
0.015333023 -0.013440549 -0.0037621872 -0.01096548 -0.030616332 0.031286467 0.037987236 0.0014320693
-0.1058448 0.07003146 -0.22369206 0.079030015 -0.464067 -0.027388955 -0.025113778 0.031487092
0.028602399 -0.001297685 0.0712203 0.007214564 0.238276 -0.07154735 0.05860214 -0.021963067
0.019657565 -0.017025944 -0.027277863 -0.0040419297 -0.10323932 -0.08259787 -0.42275614 0.07846571
-0.036959536 0.018311098 -0.028377092 0.028615873 -0.6907564 -0.08651544 0.2555596 0.07156314
-0.049124345 0.040353548 -0.0113988165 -0.053921092 -0.09795497 -0.13076088 -0.15720595 0.09044059
0.048472095 0.1103702 0.028369967 -0.89739853 0.03195302 -0.056364425 -0.02374478 0.016156342
0.63323516 -0.2586812 0.122828975 0.015406016 0.17172277 -0.22443838 0.086028576 0.057414006
-0.2858382 -0.1677429 0.27187696 -0.0017953641 -1.2546743 0.14876537 -0.071059644 -0.12837732
-0.10045284 -0.27052394 -0.07105754 -0.010160527 0.39019933 -0.24390545 -0.8809967 -0.2318132
-0.3653122 0.010041725 -0.3222513 -0.045623917 0.1849022 -0.14627756 -0.0479212 0.05729633
0.06152595 0.057886794 0.055163182 0.20067528 -0.08196914 0.057649806 0.0005395019 -0.2468353
0.122453004 -0.08474182 1.8378049 0.53115 -0.026424412 -0.129326 0.0028289722 -0.0015525237
0.25236595 -0.35104135 0.1679341 0.023061134 0.044239216 -0.017264027 0.015124124 0.07770532
0.059746433 -0.10456584 -0.00050526747 0.3946611 0.1993753 -0.34972882 -1.0903357 -0.6191142
0.5761633 -0.024033733 -0.81463325 -0.9866585 -0.29595268 -0.015571008 0.4124789 -0.042751286
-0.023661233 0.02447853 -0.30067867 -0.4337963 0.6900975 -0.37073267 0.0070572565 -0.3772669
0.2166692 -0.10694674 0.9496052 0.6143672 0.44865412 -0.016837811 -0.8721855 0.06902051
-0.402833 0.01956028 0.16970752 -0.058004837 -0.23823361 -0.06533108 -0.24833557 0.0980828
0.04359001 0.06506947 0.09129108 -0.10639104 -0.21194197 -0.45982984 -0.12253623 0.31761712
0.19344118 -0.03983064 -0.014702913 -0.30102092 -0.073218994 -0.022084596 0.44106716 0.07175266
0.0074061877 -0.03469744 -0.04565941 -0.10471968 -1.3429425 -0.021722268 -0.20999423 0.021414522
0.6873214 -0.124341175 0.031448547 -0.27860865 0.0054836557 -0.08395628 -0.08846606 -0.0839015
-0.07901433 0.011093018 0.0155713735 0.21918538 1.6958983 -0.05124548 0.0002888421 -0.05708564
-0.43811798 -0.49374834 0.395959 0.22896992 -0.20787373 -0.084514745 0.037932646 -0.17923361
-0.03400709 1.44132 -0.019374195 -0.02446012 0.08443204 0.2271638 0.3608721 -0.44522423
0.009020947 -0.71922237 -0.31398094 0.24870498 0.013706432 0.060458194 0.04801158 -0.20264585
0.014699994 -0.046460006 0.21344091 0.009609516 0.1500415 -0.2474859 -0.5194069 0.5124921
-0.023680853 -0.005061625 -0.593259 0.075460024 -0.07114707 -0.02989303 0.020991273 -0.10431597
-0.28896433 0.08837527 0.112442695 -0.35203028 0.08121165 -0.06507319 -0.05193122 -0.35320225
-0.21580765 -0.08908405 -0.10001246 -0.23289551 0.001063519 -0.07409762 0.04136978 -0.08541719
00000000: 9b2c 0c3d c30d 9d3d 0d8c 443d 51d6 a7be
00000010: 3615 d63c 244c 80bd 7e14 7b3d 1292 86ba
00000020: 5c37 7b3c c035 5cbc 078f 76bb 8ea8 33bc
00000030: 1acf fabc 3d26 003d 8198 1b3d 46b4 bb3a
00000040: 29c5 d8bd a76c 8f3d 880f 65be 7dda a13d
00000050: 319a edbe cd5e e0bc 69bb cdbc 9cf8 003d
00000060: 944f ea3c 1517 aaba f3db 913d 2668 ec3b
00000070: a0fe 733e 6b87 92bd cc08 703d e4eb b3bc
00000080: e708 a13c fe79 8bbc d375 dfbc 2a72 84bb
00000090: 236f d3bd 1229 a9bd 7e73 d8be a1b2 a03d
000000a0: e262 17bd 2801 963c 1377 e8bc d66b ea3c
000000b0: 69d5 30bf 022f b1bd b5d8 823e b28f 923d
000000c0: 9c36 49bd c349 253d 1ac2 3abc 5ddc 5cbd
000000d0: 9e9c c8bd 2ee6 05be 99fa 20be eb38 b93d
000000e0: ad8a 463d c509 e23d 2268 e83c e9bb 65bf
000000f0: 2be1 023d 62de 66bd 6a84 c2bc 4e5a 843c
00000100: b31b 223f dd71 84be c28d fb3d 8469 7c3c
00000110: 18d8 2f3e 2dd3 65be c02f b03d f32a 6b3d
00000120: 6259 92be cbc4 2bbe 7533 8b3e 6c52 ebba
00000130: 2b99 a0bf f355 183e b887 91bd 5875 03be
00000140: 38ba cdbd 1d82 8abe 9e86 91bd 5778 26bc
00000150: 35c8 c73e 5ac2 79be 0089 61bf 7160 6dbe
00000160: 330a bbbe 0c86 243c 1ffe a4be 25e0 3abd
00000170: 0157 3d3e c9c9 15be 0549 44bd 8eaf 6a3d
00000180: a202 7c3d b41a 6d3d caf2 613d d27d 4d3e
00000190: 70df a7bd 3422 6c3d 5c6d 0d3a 65c2 7cbe
000001a0: a4c8 fa3d 1f8d adbd 313d eb3f 72f9 073f
000001b0: 0278 d8bc 096e 04be 4766 393b 0d7e cbba
000001c0: 1c36 813e b1bb b3be ebf6 2b3e b4ea bc3c
000001d0: 2e34 353d 4a6d 8dbc 2ccb 773c f823 9f3d
000001e0: adb8 743d 9d26 d6bd ed73 04ba 0511 ca3e
000001f0: 0a29 4c3e a80f b3be 1f90 8bbf 457e 1ebf
00000200: 707f 133f 64e2 c4bc ce8b 50bf a795 7cbf
00000210: 1c87 97be 8b1d 7fbc 6f30 d33e f91b 2fbd
00000220: 34d5 c1bc 3387 c83c 8ef2 99be 8c1a debe
00000230: 3baa 303f acd0 bdbe 8f40 e73b 2129 c1be
00000240: 88de 5d3e e406 dbbd 5419 733f 2b47 1d3f
00000250: feb5 e53e 73ef 89bc 8d47 5fbf a05a 8d3d
00000260: 2140 cebe e13c a03c cfc7 2d3e 7b96 6dbd
00000270: 83f3 73be 4dcc 85bd ae4b 7ebe a3df c83d
00000280: 708b 323d 2443 853d d1f6 ba3d 8ce3 d9bd
00000290: 5107 59be d16e ebbe 46f4 fabd b69e a23e
000002a0: 7215 463e 7425 23bd 7de4 70bc 6a1f 9abe
000002b0: d7f3 95bd c1ea b4bc 8ed3 e13e 0ff3 923d
000002c0: 9baf f23b e71e 0ebd 5d05 3bbd 4677 d6bd
000002d0: 8ae5 abbf e6f2 b1bc ba08 57be 826d af3c
000002e0: 4cf4 2f3f 96a6 febd 31d0 003d cba5 8ebe
000002f0: 3db0 b33b 45f1 abbd b22d b5bd 8dd4 abbd
00000300: 44d2 a1bd 7dbf 353c 131f 7f3c 2272 603e
00000310: 3213 d93f c8e6 51bd bb6f 9739 a2d2 69bd
00000320: 0051 e0be 95cc fcbe 23bb ca3e 1777 6a3e
00000330: dadc 54be 1116 adbd 435f 1b3d 0489 37be
00000340: 054b 0bbd 2c7d b83f a2b6 9ebc 9760 c8bc
00000350: b5ea ac3d a19d 683e 3ac4 b83e 6ef4 e3be
00000360: 98cc 133c f51e 38bf 1cc2 a0be 85ac 7e3e
00000370: f190 603c 03a3 773d caa7 443d 6582 4fbe
00000380: 3ed8 703c d94c 3ebd 4190 5a3e 3b71 1d3c
00000390: 7ba4 193e f26c 7dbe daf7 04bf af32 033f
000003a0: 59fe c1bc fddb a5bb d2df 17bf c98a 9a3d
000003b0: 8eb5 91bd 3ae2 f4bc e4f5 ab3c 9ca3 d5bd
000003c0: 22f3 93be 18fe b43d 5b48 e63d 503d b4be
000003d0: 4b52 a63d 1845 85bd d5b5 54bd edd6 b4be
000003e0: aefc 5cbe b371 b6bd 55d3 ccbd 297c 6ebe
000003f0: c765 8b3a 7ec0 97bd 5c73 293d 35ef aebd
